rmsmodel2_25cycle.tflite (tflite, 955304 bytes, 16 tensors)

sequential_3/conv2d/Relu;sequential_3/conv2d/BiasAdd;sequential_3/conv2d/Conv2D;sequential_3/conv2d/BiasAdd/ReadVariableOp f4 [32, 3, 3, 3]
-0.00020705888 -0.00048635507 0.0005354831 0.0005933327 0.00023608022 -0.00023820259 0.00043296895 -0.0005035393
-0.00013967982 4.8148595e-05 0.00019735366 -8.012254e-05 -0.00032441082 1.131557e-05 -0.00038398636 -0.00053329405
-0.000532822 0.00020998852 0.0006693105 0.00010760376 1.4587225e-05 0.00036062064 0.00036901064 0.0003976251
6.759604e-05 -0.00038473163 -0.0005507792 -6.4715105e-06 -0.00051127217 0.00034830748 0.0006016153 0.0005286738
-0.00021046723 -0.0004912981 0.00031018388 0.0003187457 -0.00035908128 0.00041029544 0.00023422559 0.00033694072
-2.1764312e-05 0.00021294941 -0.0004523052 -0.0005433573 -0.00015329476 0.00036897956 -8.3693914e-05 0.0004486426
0.00043355036 -0.00050659 0.00040533507 -0.00026350372 -0.0005757811 -0.00046673868 -0.00018797595 -0.0006147803
0.00021150193 -0.00011451335 -0.00027865494 0.00033704552 -0.000100967576 -3.155797e-05 -0.00015233163 9.108319e-05
-0.0005369091 -7.863287e-05 0.00036019264 -0.00040621276 0.00042231436 -6.786593e-05 0.00025628842 -0.000300574
-9.8267614e-05 -0.00017591953 0.00045951703 0.00031367902 0.0001464512 0.00016586034 0.00015569617 0.00045800017
0.00013975172 -0.00011627617 5.5545766e-05 -0.00023663747 -0.00043837004 -0.0004973427 -0.00016868957 0.00041774753
-0.00025974613 -0.0005164119 0.00046108235 0.00052334444 2.2818616e-05 0.0006044878 -0.00041615314 -0.00039869294
0.0005570604 0.00022574289 0.00016207372 -0.00021001266 -0.0005643781 -0.00041934013 0.00030885014 -0.00017266738
-2.8660015e-05 0.00010016094 -8.4421365e-05 -0.0001649985 -9.645386e-06 -0.00045066845 -0.0004867317 -3.5458193e-05
-0.0006478899 -5.903652e-05 -0.00058618694 -0.0006028653 -0.00045725107 -3.7392678e-05 -0.00040028893 0.0003523889
5.5987195e-05 -0.0005850678 0.00032256317 0.0004930034 -0.00013904646 -0.00010876988 -0.000651847 -0.00063545245
-0.00014686932 0.00014581117 0.0003259502 0.00059075037 -0.00014223995 -0.00030699352 5.3616524e-05 -0.0004947837
0.00021681104 -0.00034546808 -0.00058683346 1.1837768e-05 -0.00016069152 -0.00026905147 -3.127809e-05 0.00014188651
-9.554905e-05 0.0003315122 -0.00043476073 0.0002571549 7.140087e-05 -0.00013811655 -0.0003234653 0.00038608207
0.000120749704 0.00033218646 0.000111059235 -0.0002835469 0.00025488326 0.00020363554 0.00038762944 4.5714274e-05
2.498139e-06 0.00017591576 -0.0005031292 0.00039452384 -3.1496704e-05 -0.00022443391 0.00025913937 0.00028718528
-2.395731e-05 0.00054262416 -0.00043983283 -0.00045782916 0.00051850214 0.00020805268 -0.0005873969 0.00010331307
0.00035017333 0.00020117186 -8.949091e-05 3.243806e-05 -0.00045872375 0.00013075721 0.00029440952 -0.000585544
0.0004720917 0.00016069539 -0.00019067417 0.00017386198 0.00047038533 0.00020089543 -1.8736584e-05 0.00036232732
-0.00022684595 0.00021826684 -0.00015748122 5.889892e-05 0.0004690482 -9.631187e-05 0.0003736796 -0.00042433725
0.00022972937 8.9924746e-05 -1.8509318e-05 0.00028351843 2.883081e-05 -0.00024641724 0.0005169581 -0.00053769985
-0.00014854236 0.000618583 -0.00059722917 -0.00012216528 0.00050828495 0.0002460867 3.6585367e-05 0.00041656732
0.0004291614 0.000590979 -0.00037696547 -0.00026154873 0.0004998962 0.0002015216 -0.0003879472 -0.00016532256
-0.0005023485 -0.00035471516 0.000505083 0.0002276578 0.00021982298 0.0004311284 1.6557333e-05 -0.00054289715
0.00035806713 -0.00026551096 -0.00020216193 0.00032684626 -0.0005255727 0.00038487284 0.0003971907 0.00011503194
-0.00046094734 0.00019044278 -0.00059177465 -4.6966292e-05 -0.00039646955 -1.0599735e-05 8.510463e-05 0.0003945643
-0.0002694446 0.0005434617 0.0005075605 -0.0002601636 0.00026279042 -0.0006066158 -0.0006048227 9.554429e-05
00000000: f21d 59b9 79fd feb9 aa5f 0c3a e289 1b3a
00000010: 4d8c 7739 05c6 79b9 1c00 e339 f3ff 03ba
00000020: 0477 12b9 29f3 4938 b8f0 4e39 7607 a8b8
00000030: af15 aab9 01d8 3d37 c751 c9b9 c2cc 0bba
00000040: 14ad 0bba 5d30 5c39 ab74 2f3a 54a9 e138
00000050: a8bb 7437 af11 bd39 c577 c139 5678 d039
00000060: 59c2 8d38 ceb5 c9b9 2b62 10ba da25 d9b6
00000070: e506 06ba 0a9d b639 b8b5 1d3a b396 0a3a
00000080: deb0 5cb9 75ca 00ba 2da0 a239 531d a739
00000090: 1343 bcb9 ec1c d739 749a 7539 6ba7 b039
000000a0: 8192 b6b7 2c4b 5f39 6023 edb9 1770 0eba
000000b0: c0bd 20b9 9973 c139 d484 afb8 ca37 eb39
000000c0: 254e e339 aecc 04ba 2783 d439 df26 8ab9
000000d0: 04f0 16ba 9bb4 f4b9 691b 45b9 3529 21ba
000000e0: 9ec6 5d39 e326 f0b8 6f18 92b9 7cb5 b039
000000f0: 8ebe d3b8 1d5d 04b8 36bb 1fb9 ea03 bf38
00000100: 5cbf 0cba b3e7 a4b8 3dd8 bc39 f4f8 d4b9
00000110: 136a dd39 3e53 8eb8 735e 8639 5c96 9db9
00000120: 0615 ceb8 0a77 38b9 55eb f039 4975 a439
00000130: b290 1939 ccea 2d39 5f42 2339 be1f f039
00000140: 518a 1239 4bd9 f3b8 d0f9 6838 e321 78b9
00000150: 08d5 e5b9 1b60 02ba 43e2 30b9 2005 db39
00000160: 892e 88b9 d15f 07ba 6dbd f139 0d31 093a
00000170: 9b6a bf37 7d76 1e3a 212f dab9 a907 d1b9
00000180: b107 123a 65b5 6c39 55f2 2939 d836 5cb9
00000190: c6f2 13ba e1da dbb9 2aed a139 0c0e 35b9
000001a0: ea6a f0b7 7f0d d238 600b b1b8 7303 2db9
000001b0: 9ed2 21b7 b247 ecb9 0630 ffb9 f2b8 14b8
000001c0: 28d7 29ba fb9d 77b8 57aa 19ba 9b09 1eba
000001d0: 33bb efb9 15d6 1cb8 dfdd d1b9 d6c0 b839
000001e0: cbd3 6a38 3c5f 19ba b21d a939 e63c 013a
000001f0: 00cd 11b9 621b e4b8 b6e0 2aba 7e94 26ba
00000200: ef00 1ab9 e3e4 1839 4ce4 aa39 96dc 1a3a
00000210: 3f26 15b9 f9f3 a0b9 4ee2 6038 5fb4 01ba
00000220: c557 6339 f11f b5b9 bad5 19ba d49a 4637
00000230: 4d7f 28b9 7a0f 8db9 9830 03b8 5fc7 1439
00000240: 8161 c8b8 d0ce ad39 99f0 e3b9 bfd2 8639
00000250: 0dbd 9538 61d3 10b9 c796 a9b9 0f6b ca39
00000260: 013b fd38 5029 ae39 79e8 e838 05a9 94b9
00000270: daa1 8539 0087 5539 be3a cb39 54bd 3f38
00000280: b4a5 2736 0776 3839 6ee4 03ba 18d8 ce39
00000290: 541b 04b8 0556 6bb9 19dd 8739 5b91 9639
000002a0: eef7 c8b7 e43e 0e3a 5d99 e6b9 ca08 f0b9
000002b0: 17ec 073a b728 5a39 8afb 19ba c8a9 d838
000002c0: 7897 b739 a9f1 5239 11ad bbb8 1a0e 0838
000002d0: dc80 f0b9 df1b 0939 fa5a 9a39 317f 19ba
000002e0: 1383 f739 5780 2839 b5ef 47b9 b84e 3639
000002f0: 0d9e f639 75a7 5239 822c 9db7 c0f6 bd39
00000300: 7fdd 6db9 8fde 6439 8b21 25b9 3c0a 7738
00000310: 95ea f539 0bfb c9b8 6dea c339 9579 deb9
00000320: 82e3 7039 fb95 bc38 7544 9bb7 33a5 9439
00000330: b1d9 f137 9031 81b9 7984 073a 6df4 0cba
00000340: 09c2 1bb9 6728 223a 5f8f 1cba 7e19 00b9
00000350: 6d3e 053a 3305 8139 3d73 1938 b866 da39
00000360: 1101 e139 eeeb 1a3a 73a3 c5b9 7a20 89b9
00000370: 770b 033a 8b4f 5339 6465 cbb9 705a 2db9
00000380: 0ab0 03ba 10f9 b9b9 8c67 043a 6db7 6e39
00000390: 4880 6639 1309 e239 9ae4 8a37 3651 0eba
000003a0: f5ba bb39 4734 8bb9 6efb 53b9 905c ab39
000003b0: 96c6 09ba c2c8 c939 093e d039 4d3d f138
000003c0: 4eab f1b9 98b1 4739 5321 1bba acfd 44b8
000003d0: 3edd cfb9 84d5 31b7 337a b238 86dd ce39
000003e0: 3e44 8db9 1977 0e3a cf0d 053a 9166 88b9
000003f0: 22c7 8939 4c05 1fba f78c 1eba f35e c838

sequential_3/conv2d/BiasAdd/ReadVariableOp f4 [32]
0.0091170445 0.008128739 0.013274936 0.05944903 0.04887479 -0.0005544691 0.0023353824 -0.03279458
0.0067912447 0.0057299966 0.07285597 -0.0016879983 0.07339479 0.0060298126 -0.01013797 0.00042180036
-0.003028706 0.021501083 0.05051363 0.07689364 -0.024182772 0.0053382823 0.015922228 0.008738775
0.00064596836 0.01393592 -0.0032702412 -0.0069115423 0.03634507 0.08007135 -0.031227367 0.03459555
00000000: a85f 153c 672e 053c 1e7f 593c d380 733d
00000010: ef30 483d cb59 11ba 370d 193b 9c53 06bd
00000020: 1789 de3b b2c2 bb3b 8335 953d d33f ddba
00000030: 0250 963d bc95 c53b ba19 26bc 1625 dd39
00000040: 417d 46bb 0a23 b03c 61e7 4e3d 6a7a 9d3d
00000050: f31a c6bc c2ec ae3b 556f 823c 142d 0f3c
00000060: 3456 293a 7c53 643c 8b51 56bb 387a e2bb
00000070: 91de 143d 73fc a33d 89d0 ffbc 10b4 0d3d

sequential_3/conv2d_1/BiasAdd/ReadVariableOp f4 [64]
0.04745791 0.030915976 0.040475316 0.007190527 0.01915781 0.0016020527 -0.008134338 -0.051922422
0.041641872 -0.028696053 0.02243476 0.002419954 0.026800152 0.0011647532 0.00592634 -0.011742528
0.041399524 -0.022077113 0.031302888 -0.011967396 -0.037499003 0.019162329 0.03442082 -0.03260602
0.0020114484 0.04596002 0.065030806 -0.01330786 -0.0105314655 0.047180712 -0.0120533155 0.031236302
0.062133085 -0.022358393 0.012167319 0.06586279 -0.00837932 0.06871023 0.05200231 -0.046327095
0.0012586614 0.0043566753 -0.028925784 0.067885995 -0.005880591 0.036279477 0.00019206778 -0.0061574425
-0.0298831 -0.024218189 0.063459426 0.012685285 0.03691065 0.054343715 0.015079518 0.0074515366
0.019186012 0.02179843 -0.033499725 -0.038020942 -0.02012801 0.04094621 0.013360864 -0.025749788
00000000: 3a63 423d 8043 fd3c 72c9 253d 839e eb3b
00000010: d7f0 9c3c f8fb d13a e345 05bc 9bac 54bd
00000020: ab90 2a3d fc13 ebbc 1ac9 b73c 1798 1e3b
00000030: fe8b db3c a2aa 983a be31 c23b bb63 40bc
00000040: 8c92 293d 10db b4bc 7537 003d e612 44bc
00000050: 8e98 19bd 51fa 9c3c d9fc 0c3d e48d 05bd
00000060: 81d2 033b 9340 3c3d df2e 853d 3609 5abc
00000070: 2b8c 2cbc 9040 413d 457b 45bc 46e3 ff3c
00000080: 437f 7e3d f328 b7bc 6f59 473c 12e3 863d
00000090: 6a49 09bc f3b7 8c3d 6000 553d 7bc1 3dbd
000000a0: abf9 a43a 71c2 8e3b c4f5 ecbc d007 8b3d
000000b0: f9b1 c0bb ca99 143d cd65 4939 5fc4 c9bb
000000c0: 67cd f4bc 3965 c6bc 04f7 813d f1d5 4f3c
000000d0: 9f2f 173d 8497 5e3d 1510 773c 052c f43b
000000e0: fc2b 9d3c 9f92 b23c 0237 09bd d9bb 1bbd
000000f0: 7fe3 a4bc 37b7 273d 86e7 5a3c 38f1 d2bc

sequential_3/conv2d_2/BiasAdd/ReadVariableOp f4 [64]
-0.00510928 0.0073874923 0.02067389 0.004876711 0.012810928 -0.006635101 0.00048663607 0.039525304
0.00022611392 0.033623595 0.013882475 -0.015001302 0.025177272 0.03661465 0.042829953 0.03095764
0.019502575 -0.0041830754 0.009297218 0.023300435 -0.000600156 0.010652109 -0.0047707604 0.07360462
0.068479426 -0.006650336 -0.014514752 0.0024875568 -0.00042482108 -0.02029305 -0.05850885 0.058724985
-0.0048818793 0.0619166 0.043683246 -0.037452254 -0.0033570167 -0.06900277 -0.009007832 0.003539031
0.04218084 0.026661117 0.005960661 0.0022550097 0.007321919 0.06611841 0.03979546 -0.055194594
-0.029021436 -0.026687574 0.0039773784 -0.00076737086 -0.014846702 -0.013368144 -0.007583259 0.06998537
-0.016969431 -0.027601324 0.0045506703 0.00084312353 -0.087263756 0.052353036 -0.0404058 0.015562364
00000000: bf6b a7bb c712 f23b 4a5c a93c d1cc 9f3b
00000010: ede4 513c 436b d9bb 3023 ff39 49e5 213d
00000020: fe18 6d39 e5b8 093d 5273 633c 05c8 75bc
00000030: 9140 ce3c 3ef9 153d 766e 2f3d e09a fd3c
00000040: ddc3 9f3c 2e12 89bb 5c53 183c 8ee0 be3c
00000050: ca53 1dba 2f86 2e3c 0a54 9cbb 05be 963d
00000060: f13e 8c3d 10eb d9bb 48cf 6dbc 4706 233b
00000070: 85ba deb9 9c3d a6bc faa6 6fbd 9c89 703d
00000080: 2cf8 9fbb 439c 7d3d 34ed 323d 8967 19bd
00000090: 6501 5cbb 5351 8dbd 9695 13bc 16ef 673b
000000a0: d1c5 2c3d 6a68 da3c a651 c33b c9c8 133b
000000b0: b5ec ef3b 1769 873d 9000 233d ba13 62bd
000000c0: 5dbe edbc e69f dabc ab54 823b 6329 49ba
000000d0: 953f 73bc 0f06 5bbc fd7c f8bb 7d54 8f3d
000000e0: 7a03 8bbc 2c1c e2bc ca1d 953b 1005 5d3a
000000f0: 57b7 b2bd 2370 563d 8d80 25bd 49f9 7e3c

sequential_3/conv2d_3/BiasAdd/ReadVariableOp f4 [64]
-0.038977325 -0.014251697 0.0017808008 -0.041618843 0.039451912 -0.013231202 -0.030586947 -0.03739433
-0.061519753 -0.027017916 0.032863945 0.017025953 -0.03649951 -0.043537505 0.005344187 -0.035545625
-0.052920528 0.0069193975 0.003227176 -0.025307294 0.0062949113 -0.049747813 -0.020215644 -0.052040383
-0.0017428731 0.0032219167 -0.040155467 -0.043108217 0.053936366 -0.017808102 0.006552443 -0.013905691
-0.012034303 -0.040459417 -0.045818783 -0.005195209 -0.012478606 -0.012122146 -0.007949767 -0.07488553
-0.057171907 -0.04180912 0.00034153624 -0.028431227 -0.050282933 -0.032982133 -0.0052280123 0.035285804
-0.044589125 -0.026571918 -0.063787915 -0.050955113 -0.012404771 0.0013994912 -0.030211521 -0.006440934
0.07852973 -0.03428531 0.003865766 0.0018166539 -0.02591348 0.0054587633 -0.029112166 -0.0061698006
00000000: b0a6 1fbd f37f 69bc c269 e93a 8578 2abd
00000010: 5498 213d afc7 58bc 7a91 fabc cc2a 19bd
00000020: 23fc 7bbd ad54 ddbc 589c 063d 037a 8b3c
00000030: 8380 15bd 6254 32bd 4a1e af3b 4a98 11bd
00000040: 32c3 58bd 1dbc e23b 077f 533b 3e51 cfbc
00000050: 8b45 ce3b 5dc4 4bbd 479b a5bc 4c28 55bd
00000060: 1e71 e4ba cb26 533b 0f7a 24bd 3e92 30bd
00000070: 61ec 5c3d 4ce2 91bc e0b5 d63b b2d4 63bc
00000080: 862b 45bc c6b8 25bd 7aac 3bbd 923c aabb
00000090: 1173 4cbc f79b 46bc bd3f 02bc 965d 99bd
000000a0: 172d 6abd 0a40 2bbd 3810 b339 9be8 e8bc
000000b0: 7af5 4dbd 4618 07bd bf4f abbb d987 103d
000000c0: 16a3 36bd 5aad d9bc 3da3 82bd 4fb6 50bd
000000d0: 613d 4bbc 226f b73a 277e f7bc 780e d3bb
000000e0: 32d4 a03d c16e 0cbd cb58 7d3b ca1c ee3a
000000f0: 8248 d4bc 6ddf b23b a37c eebc 0a2c cabb

sequential_3/conv2d_4/BiasAdd/ReadVariableOp f4 [64]
-0.0462408 -0.05551132 -0.05198301 -0.0027492354 -0.036412835 -0.039300103 -0.05024359 -0.034857586
-0.057191268 0.11408263 -0.055061135 -0.10853636 -0.04666928 -0.06044021 -0.08214517 0.1204437
-0.04624004 0.11577756 -0.055663783 -0.027688982 0.111090064 -0.053637326 -0.060759857 -0.036892176
-0.037573848 -0.11259206 -0.048268594 0.12043398 -0.03765323 -0.021297796 -0.024937334 -0.041017264
0.046875812 -0.033427607 -0.008843392 0.103517756 0.025499946 -0.02535116 0.12461929 0.101134494
-0.05373606 0.005496209 -0.026925527 0.11105794 -0.114362225 -0.045501955 0.046493538 -0.040405657
-0.042000826 -0.028261147 -0.027385846 -0.037634544 -0.03956955 -0.040231362 -0.042173684 -0.05401865
-0.0019241755 -0.05684591 -0.007963895 -0.060806185 -0.018891284 -0.045019392 0.0306213 -0.0519953
00000000: fe66 3dbd d65f 63bd 23ec 54bd 842c 34bb
00000010: a025 15bd 25f9 20bd 39cc 4dbd d4c6 0ebd
00000020: 6441 6abd 27a4 e93d c987 61bd 5048 debd
00000030: 4928 3fbd 2790 77bd ba3b a8bd 30ab f63d
00000040: 3266 3dbd c91c ed3d b5ff 63bd 01d4 e2bc
00000050: 3083 e33d d0b2 5bbd 54df 78bd 401c 17bd
00000060: 09e7 19bd aa96 e6bd 4ab5 45bd 17a6 f63d
00000070: 463a 1abd b778 aebc 6149 ccbc b801 28bd
00000080: da00 403d 63eb 08bd e0e3 10bc 1e01 d43d
00000090: 43e5 d03c 3cad cfbc 6638 ff3d 9a1f cf3d
000000a0: 581a 5cbd 8b19 b43b ec92 dcbc 5872 e33d
000000b0: be36 eabd 4260 3abd 0270 3e3d 6780 25bd
000000c0: 0f09 2cbd ec83 e7bc 4858 e0bc ae26 1abd
000000d0: ae13 22bd a4c9 24bd 50be 2cbd a942 5dbd
000000e0: 9e34 fcba 42d7 68bd ff7a 02bc e80f 79bd
000000f0: e5c1 9abc 4166 38bd 85d9 fa3c 06f9 54bd

sequential_3/conv2d_5/BiasAdd/ReadVariableOp f4 [128]
-0.050809372 -0.070957415 -0.07246244 -0.028243024 0.069747515 -0.061950702 -0.08395217 -0.04659392
0.13896094 0.08082579 0.07754049 -0.022657923 -0.042312715 0.107216686 -0.07561959 -0.07761455
-0.08669094 -0.072992355 -0.028246049 -0.018620424 -0.04944212 0.15757397 -0.028658636 -0.04763239
0.024518745 -0.04582847 0.14090113 0.13076176 -0.0695386 -0.017721832 0.14488839 -0.068736024
0.0053720735 0.048080806 0.024745157 -0.08102139 0.100183524 -0.11430945 -0.015640853 -0.012425073
-0.036460303 0.009401174 0.023889631 0.12820481 0.022054441 0.10856057 0.040848084 -0.06166448
0.07627533 0.057931837 -0.038855232 0.007858858 -0.016687684 -0.03237554 -0.083770126 -0.03700327
-0.08791782 -0.052103534 -0.075791165 0.11859084 -0.057607945 0.020942213 0.018401606 -0.048160855
-0.0684988 -0.045603488 -0.03190397 -0.028200977 -0.019490551 0.049799945 -0.04129288 -0.07872067
-0.03131088 0.06495212 -0.03573085 -0.014934049 0.012251412 0.1041074 -0.035030365 -0.007821101
-0.059440922 -0.0734385 -0.059282117 0.12463798 -0.054835707 -0.08295912 -0.07027022 -0.035005987
-0.026581513 0.1204944 -0.09392576 0.04031961 -0.076508865 -0.015799157 0.074411705 -0.04098646
-0.029937338 -0.04387332 -0.05194977 -0.062458962 0.025849922 0.07399643 -0.012663028 -0.014838899
-0.04124164 0.087334804 0.071833804 -0.066813976 -0.025127508 -0.075933464 -0.07353162 -0.07493657
-0.01582569 -0.05935723 -0.025665855 0.12426921 0.07610387 0.10521808 -0.010581216 -0.019395571
-0.039747246 -0.024503928 0.10649216 -0.045741435 -0.05576563 -0.067270786 0.1421551 0.0015128396
00000000: 7d1d 50bd 1f52 91bd 3067 94bd ea5d e7bc
00000010: c9d7 8e3d 05c0 7dbd 1eef abbd 44d9 3ebd
00000020: c74b 0e3e fe87 a53d 8ccd 9e3d 1c9d b9bc
00000030: 1950 2dbd 6c94 db3d 72de 9abd 61f4 9ebd
00000040: 058b b1bd 047d 95bd 4264 e7bc dc89 98bc
00000050: d283 4abd 125b 213e 84c5 eabc 2e1a 43bd
00000060: 89db c83c a2b6 3bbd 6348 103e 69e6 053e
00000070: 416a 8ebd 602d 91bc 9f5d 143e 79c5 8cbd
00000080: 3808 b03b 61f0 443d 5bb6 ca3c 8bee a5bd
00000090: 052d cd3d 131b eabd 3f21 80bc 8992 4bbc
000000a0: 6657 15bd 6207 1a3c 30b4 c33c 1f48 033e
000000b0: 84ab b43c 0155 de3d 5250 273d e593 7cbd
000000c0: 3d36 9c3d ef49 6d3d aa26 1fbd 71c2 003c
000000d0: 9cb4 88bc 379c 04bd ac8f abbd be90 17bd
000000e0: 420e b4bd 846a 55bd 6638 9bbd c1df f23d
000000f0: 4ff6 6bbd 018f ab3c f7be 963c 5144 45bd
00000100: 1949 8cbd b9ca 3abd bdad 02bd bc05 e7bc
00000110: a6aa 9fbc 07fb 4b3d b922 29bd 4d38 a1bd
00000120: d63f 00bd 9e05 853d 835a 12bd f1ad 74bc
00000130: 25ba 483c 4336 d53d 007c 0fbd 1324 00bc
00000140: 5378 73bd ed66 96bd ced1 72bd 3242 ff3d
00000150: 689b 60bd 79e6 a9bd d5e9 8fbd 7062 0fbd
00000160: 79c1 d9bc c5c5 f63d 265c c0bd 2d26 253d
00000170: aeb0 9cbd 3c6d 81bc 2a65 983d 6be1 27bd
00000180: 263f f5bc 83b4 33bd 48c9 54bd f8d4 7fbd
00000190: 37c3 d33c 718b 973d 9778 4fbc da1e 73bc
000001a0: feec 28bd 97dc b23d 9a1d 933d c4d5 88bd
000001b0: 34d8 cdbc 0183 9bbd bf97 96bd 5878 99bd
000001c0: e1a4 81bc 9120 73bd 3341 d2bc db80 fe3d
000001d0: 59dc 9b3d 947c d73d d65c 2dbc 76e3 9ebc
000001e0: 02ce 22bd 76bc c8bc 9018 da3d 5f5b 3bbd
000001f0: 806a 64bd 44c5 89bd 1b91 113e 794a c63a

sequential_3/conv2d_1/Conv2D f4 [64, 3, 3, 32]
-0.06675488 0.030691124 0.11346712 0.0044020577 -0.060834695 -0.07217014 -0.04668049 0.060030308
0.060612053 -0.006298109 0.0053234734 -0.02978735 0.05858643 0.028226236 0.078071445 -0.057718236
0.09193851 0.056594763 -0.034746464 0.031336386 -0.0092754895 -0.0954286 0.011724912 -0.05232452
-0.025979945 0.021438755 -0.014850952 -0.007143713 0.103335105 -0.03263935 -0.07128658 0.09553475
0.049558867 -0.028425692 -0.025888374 -0.016728213 -0.069260836 0.05735047 -0.12718011 -0.0103033995
0.056996554 -0.03512668 -0.10801275 0.055029616 -0.10606266 0.023535764 -0.028551772 -0.0119024
-0.053072605 -0.024814444 -0.059969097 -0.1074319 0.04529453 -0.07969743 0.060169682 -0.0016855014
-0.0010180162 0.020188008 0.07206537 -0.004724653 0.023547484 -0.115754545 -0.062650174 0.028860241
-0.026626509 -0.031894974 0.08039348 -0.08366582 -0.0045700925 0.11520976 -0.13881269 0.0072300513
0.019598113 -0.04223574 -0.056796353 0.015546107 -0.05456654 -0.039317388 -0.051576067 0.02993613
0.027138263 0.10293711 0.005513965 0.0062987874 0.04979338 -0.024642713 0.03231439 0.0071809455
-0.08646294 -0.010388504 0.06492268 0.06471882 0.08391246 0.027603814 0.05064799 0.035583273
-0.01017633 0.014210592 0.029259808 -0.12500204 -0.025540268 -0.050879322 -0.1332967 -0.005545611
0.016401492 0.015482486 -0.0044336803 -0.068409696 -0.032418314 -0.005527086 0.083003946 0.04593462
0.06758316 -0.09730171 -0.053293955 -0.10658009 -0.075686045 0.017355204 0.08815664 0.08048724
0.013756048 -0.006951726 -0.029873295 0.00452793 0.023482477 -0.110870555 0.037434444 0.11104703
-0.0037925625 -0.06591717 0.010559097 -0.099121876 -0.040787842 0.015507912 -0.028110558 0.0056984965
-0.08915358 0.05455945 -0.08592202 0.055614624 -0.045075625 0.016985545 -0.009195774 0.021356953
0.037918918 -0.104070224 0.019047003 -0.055113263 0.00039476555 -0.025166467 -0.031864595 0.085539296
-0.011846758 0.019791422 0.07564875 0.023702957 0.04112638 -0.07227706 -0.037769005 0.088789105
0.005914202 -0.018092167 -0.043410324 -0.014585221 0.026023194 0.006356918 -0.1053234 0.019465605
0.07398666 -0.020235682 -0.033081796 -0.035972394 0.019013647 -0.013225116 -0.06921658 -0.031335123
-0.03900682 0.037520807 0.01238282 -0.0020707995 0.044918936 0.028078042 0.047174137 0.10490254
-0.021009063 0.050226204 0.055260323 0.06033891 0.13703074 -0.06658045 0.043039802 -0.05468032
0.0072135646 -0.018813858 0.0064118877 -0.0937225 0.033630405 -0.08014254 -0.12426836 -0.034784373
-0.020688344 -0.05092237 -0.018263146 0.08814428 -0.060758002 0.0317548 -0.043751523 -0.03232434
0.067554004 -0.033259545 0.032238506 -0.05484273 -0.07322326 -0.07674578 0.0030667267 0.032329403
-0.050634015 0.040055625 0.027011711 -0.034690958 0.1244018 -0.013886655 -0.09942935 -0.005329195
0.08294542 -0.054968115 0.05909443 -0.100457504 0.01874207 -0.0006731653 -0.04267903 0.03937489
-0.08979239 0.10346445 -0.0501714 0.049400583 -0.08585711 0.04822467 0.0047384924 0.020488016
0.02604017 -0.022433925 0.025860172 0.06496954 0.057945542 -0.134283 -0.003387718 0.019541208
0.004548278 -0.050697364 0.055820636 0.044019837 0.017323123 0.0068772915 -0.04320314 0.12186307
00000000: c8b6 88bd f46b fb3c 7361 e83d 233f 903b
00000010: cd2d 79bd f0cd 93bd 0b34 3fbd 57e2 753d
00000020: 5844 783d 5e60 cebb 8870 ae3b 9a04 f4bc
00000030: 53f8 6f3d b53a e73c ece3 9f3d f569 6cbd
00000040: 424a bc3d e9cf 673d 4f52 0ebd 955a 003d
00000050: 39f8 17bc 1270 c3bd d819 403c 3c52 56bd
00000060: e5d3 d4bc 54a0 af3c 6851 73bc cf15 eabb
00000070: 5ba1 d33d d7b0 05bd b3fe 91bd b9a7 c33d
00000080: 3dfe 4a3d ffdc e8bc db13 d4bc 9b09 89bc
00000090: a0d8 8dbd 54e8 6a3d 813b 02be 97cf 28bc
000000a0: 3875 693d fee0 0fbd ca35 ddbd bc66 613d
000000b0: 6137 d9bd 13ce c03c 68e5 e9bc 4902 43bc
000000c0: a962 59bd a947 cbbc 28a2 75bd 4205 dcbd
000000d0: c286 393d 6838 a3bd 7c74 763d 0bec dcba
000000e0: f56e 85ba 5261 a53c 0297 933d 43d1 9abb
000000f0: a7e6 c03c b810 edbd bc4e 80bd 506c ec3c
00000100: d61f dabc 4ea4 02bd 56a5 a43d fc58 abbd
00000110: b7c0 95bb 18f3 eb3d ea24 0ebe 11ea ec3b
00000120: 398c a03c 62ff 2cbd 4ba3 68bd 19b5 7e3c
00000130: 2a81 5fbd 450b 21bd 6d41 53bd 9d3c f53c
00000140: 1051 de3c b1d0 d23d 7eae b43b 0f66 ce3b
00000150: 25f4 4b3d 84df c9bc 185c 043d 234e eb3b
00000160: 7b13 b1bd 8b34 2abc 2ff6 843d 4d8b 843d
00000170: 4cda ab3d 6521 e23c 4474 4f3d c4bf 113d
00000180: 9fba 26bc 8bd3 683c 44b2 ef3c 8900 00be
00000190: d339 d1bc d666 50bd ee7e 08be f5b7 b5bb
000001a0: 6c5c 863c 41aa 7d3c 6848 91bb 621a 8cbd
000001b0: 11c9 04bd 8f1c b5bb f9fd a93d f125 3c3d
000001c0: 0a69 8a3d 1e46 c7bd c34a 5abd aa46 dabd
000001d0: 4901 9bbd 802c 8e3c 788b b43d 7ed6 a43d
000001e0: 0c61 613c 4ecb e3bb d7b8 f4bc 085f 943b
000001f0: 535e c03c 1a10 e3bd dc54 193d a06c e33d
00000200: a48c 78bb 95ff 86bd 1000 2d3c 6900 cbbd
00000210: 2711 27bd e614 7e3c 1d48 e6bc 74ba ba3b
00000220: 2796 b6bd bb79 5f3d e2f7 afbd 29cc 633d
00000230: 38a1 38bd 4525 8b3c dfa9 16bc c7f4 ae3c
00000240: de50 1b3d c522 d5bd 7608 9c3c 72be 61bd
00000250: 89f8 ce39 e829 cebc 7384 02bd 3a2f af3d
00000260: e818 42bc 9f21 a23c bbed 9a3d b42c c23c
00000270: 2374 283d ff05 94bd acb3 1abd 10d7 b53d
00000280: eccb c13b 0636 94bc 06cf 31bd daf6 6ebc
00000290: 982e d53c b14d d03b cbb3 d7bd 5576 9f3c
000002a0: 5186 973d 4dc5 a5bc c780 07bd ca57 13bd
000002b0: 82c2 9b3c 28ae 58bc 6cc1 8dbd 4259 00bd
000002c0: 9ec5 1fbd 6baf 193d 50e1 4a3c 40b6 07bb
000002d0: ebfc 373d ec03 e63c ab39 413d 25d7 d63d
000002e0: 331b acbc feb9 4d3d a658 623d ef25 773d
000002f0: c951 0c3e 555b 88bd 814a 303d 79f8 5fbd
00000300: c45f ec3b 851f 9abc d01a d23b 95f1 bfbd
00000310: 09c0 093d c621 a4bd 6980 febd 0f7a 0ebd
00000320: 9a7a a9bc fa93 50bd 989c 95bc fd84 b43d
00000330: 62dd 78bd 5211 023d cc34 33bd 8766 04bd
00000340: c159 8a3d 293b 08bd 860c 043d c5a2 60bd
00000350: 14f6 95bd e42c 9dbd 23fb 483b d66b 043d
00000360: 9d65 4fbd 5e11 243d aa47 dd3c 1b18 0ebd
00000370: 5fc6 fe3d da84 63bc 9da1 cbbd 87a0 aebb
00000380: 4adf a93d 3f26 61bd 000d 723d aabc cdbd
00000390: f888 993c 5c77 30ba 35d0 2ebd 9147 213d
000003a0: 13e5 b7bd 2be5 d33d 8780 4dbd 4458 4a3d
000003b0: dad5 afbd 3b87 453d 5b45 9b3b 7cd6 a73c
000003c0: 3252 d53c 5ac7 b7bc b6d8 d33c c00e 853d
000003d0: 4e58 6d3d 7c81 09be 7a04 5ebb e214 a03c
000003e0: b909 953b 0aa8 4fbd 2ea4 643d 254e 343d
000003f0: 39e9 8d3c e75a e13b c7f5 30bd 5893 f93d

sequential_3/conv2d_2/Conv2D f4 [64, 3, 3, 64]
0.033551376 -0.02727772 0.04626326 -0.046044994 -0.07643158 0.048085127 -0.03428837 0.026477743
-0.031773675 0.007706683 -0.012300738 -0.02785235 0.04005143 -0.04410165 -0.0027489455 0.039453004
-0.052838653 -0.027516292 0.013709558 -0.07749098 0.06901957 -0.018150073 -0.053666543 0.05198779
-0.0075108744 -0.01769722 -0.011254229 -0.047578305 -0.0340333 -0.042249285 0.08663213 -0.06919248
0.022422528 0.052745897 0.013857646 0.0415312 0.0844714 0.042022284 -0.008109262 -0.007577428
-0.021735685 0.056735475 -0.055072527 -0.087426916 -0.06371881 -0.092608795 0.0035440603 0.051687554
-0.05863248 -0.057678666 0.017156363 0.077434756 0.035201862 -0.0014984326 0.05478626 -0.017564243
-0.03678214 -0.004967374 -0.0057834177 0.05177376 0.036665205 -0.004599559 0.078027084 0.04628186
-0.06645048 0.02480413 0.04514841 0.051070105 -0.04267446 0.045604043 0.03330367 0.042818617
0.053393047 0.027777359 0.03386275 0.027327364 0.030274376 -0.0090886485 -0.05067744 0.028700585
-0.041031465 0.07910979 0.02785587 0.0402292 0.06417483 -0.022402294 -0.02988778 0.031263247
-0.036224492 -0.07282807 -0.030910054 -0.04645637 0.0025342985 0.0075855595 0.02335671 0.011853831
-0.008902336 -0.07223224 0.09152234 -0.03021998 0.09173276 -0.022501688 -0.0844151 0.07196089
-0.039166186 0.013498942 0.0027356124 0.021824805 -0.009181781 -0.09782414 0.0107503375 -0.066555776
-0.022397006 -0.061702948 -0.053308472 -0.0037298526 -0.028518995 -0.027346373 -0.0605653 0.045433786
-0.021295946 -0.029437117 -0.020567426 -0.070175566 -0.035359748 -0.013375457 -0.04414938 -0.019555202
-0.0801034 0.07402562 0.049540594 0.038716454 -0.03365627 -0.008139949 0.0059878062 -0.048578065
0.038674355 -0.04576018 0.07852519 0.02200501 -0.06258887 0.023200564 -0.080077775 0.010900088
0.008045577 0.0010070236 -0.05102606 -0.0719841 0.06261075 0.0020771637 0.027614575 0.003427999
0.015451015 0.023486022 0.032997616 -0.06729163 -0.04495555 -0.05901917 0.019947268 -0.0148075055
-0.09115432 -0.061149627 -0.04304327 -0.023054747 0.013309134 -0.0008506265 -0.030073896 0.0076363985
-0.030937202 0.056009624 0.033395134 -0.08448742 -0.058148474 -0.08560166 0.0009554401 -0.050655358
0.05158455 -0.035438143 0.04925829 0.0366655 -0.05574823 0.04242698 0.060162503 0.06422189
0.077661246 0.052844435 -0.07892506 0.05166162 0.041927796 -0.010786169 0.06638183 0.04976409
-0.08135513 -0.023031456 0.0075021745 0.041466296 0.025972785 -0.02258618 0.035611544 -0.037531942
0.0063193855 -0.006868377 0.064466104 -0.073860735 0.044655327 0.06459058 -0.06601327 -0.056551695
0.045867614 0.027538596 -0.017089246 -0.007794674 -0.054114766 -0.016800573 -0.05145075 -0.029614786
0.047359403 0.0053183334 -0.085083246 0.010362835 -0.008668239 -0.07080855 0.09246884 0.0019643812
-0.005105732 0.07042953 0.049338046 0.06224082 0.07994226 -0.0137404045 -0.008327523 -0.020783242
-0.036974847 0.0024154237 0.009525771 -0.05896542 -0.034011193 -0.09491452 -0.045232113 0.047720112
-0.058142234 -0.029056927 0.04179166 0.067236036 0.0076176072 -0.013165012 0.026755517 -0.024755776
0.06193157 -0.0050260047 -0.027773915 -0.060950704 0.052612484 -0.047180776 -0.023032151 -0.031475298
00000000: 2b6d 093d 8675 dfbc 8b7e 3d3d ad99 3cbd
00000010: 2988 9cbd e9f4 443d f671 0cbd dae7 d83c
00000020: 1d25 02bd 5888 fc3b 0989 49bc 9d2a e4bc
00000030: f80c 243d efa3 34bd a727 34bb 7999 213d
00000040: 586d 58bd d969 e1bc 0e9e 603c 97b3 9ebd
00000050: 225a 8d3d 76af 94bc 73d1 5bbd 26f1 543d
00000060: c81d f6bb c3f9 90bc a863 38bc 78e1 42bd
00000070: 8066 0bbd 960d 2dbd 306c b13d c9b4 8dbd
00000080: 73af b73c 150c 583d 2e0b 633c 9f1c 2a3d
00000090: 57ff ac3d 8f1f 2c3d b6dc 04bc 134c f8bb
000000a0: 090f b2bc 7563 683d bb93 61bd e20c b3bd
000000b0: 027f 82bd aea9 bdbd 7743 683b 54b6 533d
000000c0: 9d28 70bd 7740 6cbd 808b 8c3c 1d96 9e3d
000000d0: d42f 103d 0e67 c4ba 8f67 603d e3e2 8fbc
000000e0: dfa8 16bd 5ac5 a2bb d382 bdbb b910 543d
000000f0: 412e 163d e6b7 96bb aacc 9f3d 0c92 3d3d
00000100: 3017 88bd 0832 cb3c 8aed 383d e32e 513d
00000110: 6acb 2ebd 4ecb 3a3d 6e69 083d 9362 2f3d
00000120: abb2 5a3d 588d e33c abb3 0a3d a3dd df3c
00000130: f801 f83c 8ee8 14bc 2693 4fbd 7d1d eb3c
00000140: 9c10 28bd 5004 a23d fe31 e43c 60c7 243d
00000150: 186e 833d 0485 b7bc 38d7 f4bc e40d 003d
00000160: 2260 14bd e226 95bd 1537 fdbc 0949 3ebd
00000170: 7916 263b 4990 f83b 9256 bf3c 9236 423c
00000180: 1adb 11bc 7fee 93bd 1170 bb3d e48f f7bc
00000190: 63de bb3d 7655 b8bc d3e1 acbd 3b60 933d
000001a0: b96c 20bd ab2a 5d3c f647 333b efc9 b23c
000001b0: 2e6f 16bc 0658 c8bd 2f22 303c 654e 88bd
000001c0: ed79 b7bc 3bbc 7cbd fc59 5abd 8b70 74bb
000001d0: aba0 e9bc 8005 e0bc 5213 78bd c718 3a3d
000001e0: d674 aebc 1c26 f1bc 057d a8bc 35b8 8fbd
000001f0: 62d5 10bd bc24 5bbc fbd5 34bd 3b32 a0bc
00000200: 400d a4bd bf9a 973d 14eb 4a3d 2595 1e3d
00000210: 28db 09bd 6c5d 05bc 5c35 c43b cbf9 46bd
00000220: 0069 1e3d 076f 3bbd d1d1 a03d da43 b43c
00000230: 982e 80bd 1c0f be3c d1ff a3bd 4896 323c
00000240: 99d1 033c 1bfe 833a b400 51bd 666c 93bd
00000250: 113a 803d 0621 083b f637 e23c 48a8 603b
00000260: 4126 7d3c c265 c03c 8228 073d 32d0 89bd
00000270: 5023 38bd 16be 71bd 7468 a33c 2e9b 72bc
00000280: 1eaf babd 0878 7abd 244e 30bd 4fdd bcbc
00000290: 8e0e 5a3c 94fc 5eba 885d f6bc c13a fa3b
000002a0: 0470 fdbc 596a 653d 56c9 083d be07 adbd
000002b0: 182d 6ebd ec4f afbd 8076 7a3a fe7b 4fbd
000002c0: 524a 533d 9627 11bd 10c3 493d 902e 163d
000002d0: 4258 64bd eac7 2d3d f56c 763d c486 833d
000002e0: dc0c 9f3d 6873 583d 76a3 a1bd 239b 533d
000002f0: 7bbc 2b3d 79b8 30bc 32f3 873d 6ed5 4b3d
00000300: 859d a6bd 77ac bcbc cdd4 f53b 90d8 293d
00000310: e1c4 d43c a706 b9bc 69dd 113d 18bb 19bd
00000320: d912 cf3b 1f10 e1bb ce06 843d 4c44 97bd
00000330: 81e8 363d 1148 843d f731 87bd c0a2 67bd
00000340: aedf 3b3d 9f98 e13c bffe 8bbc 776a ffbb
00000350: 72a7 5dbd 5ba1 89bc 06be 52bd b59a f2bc
00000360: effb 413d 6a45 ae3b 2040 aebd e1c8 293c
00000370: 3b05 0ebc 1304 91bd 4e60 bd3d d9bc 003b
00000380: fc4d a7bb 5c3d 903d b116 4a3d 3bf0 7e3d
00000390: c5b8 a33d 6f1f 61bc 2a70 08bc 9e41 aabc
000003a0: f072 17bd 164c 1e3b fb11 1c3c b985 71bd
000003b0: 524f 0bbd 8b62 c2bd 4f45 39bd 2a76 433d
000003c0: 8d26 6ebd cb08 eebc bb2d 2b3d 0cb3 893d
000003d0: 1f9d f93b 10b2 57bc 632e db3c a0cc cabc
000003e0: f5ab 7d3d 2fb1 a4bb 1f86 e3bc 72a7 79bd
000003f0: 3080 573d a140 41bd ecad bcbc 3eec 00bd

sequential_3/conv2d_3/Conv2D f4 [64, 3, 3, 64]
-0.07832295 0.015109956 -0.018709784 0.056293808 -0.13676079 0.12305716 0.05666796 -0.06841855
-0.08603834 0.121457465 0.08045462 -0.025337627 -0.100320876 0.12131244 -0.01905925 0.076264575
0.09818804 0.04841256 0.022567062 -0.10342326 -0.011687768 0.11449681 -0.017987646 0.05168773
0.053134914 -0.058515083 -0.027448315 -0.026444055 0.04126347 0.009748704 -0.056672398 0.05633581
0.12454735 0.014474139 0.029891308 0.030827655 -0.08524092 -0.05138254 -0.08825938 0.11012475
0.11815341 0.055446636 -0.019915482 0.0027428044 0.11813305 0.06641827 0.07357363 -0.037127074
-0.048678674 -0.041815676 -0.12572065 -0.08286048 -0.02166939 -0.01980978 -0.09163733 0.0169779
-0.06757501 -0.014671401 -0.060810413 -0.036167253 -0.0047324607 -0.03521521 -0.100040756 0.043601483
-0.018643003 0.043432653 0.046321843 0.05089736 -0.0073440187 0.09434879 0.03245266 -0.025420018
0.007816294 0.11134182 0.005369246 -0.032158826 0.02088266 0.021392982 0.10803803 0.03340906
0.06425287 -0.047443125 0.013050104 0.012365333 -0.11751898 -0.016150309 -0.018117605 -0.071774244
0.079870895 -0.03989523 0.024742158 -0.026647013 -0.078005195 -0.020783676 -0.06154981 0.09028865
0.02848569 -0.066912636 -0.12737375 -0.030994335 0.03079139 -0.06337328 0.014921826 0.04087527
-0.0031724414 -0.05487659 -0.04847073 0.023113102 0.14198378 -0.021497076 0.031314023 -0.025666213
-0.06080515 -0.043778226 0.15588178 -0.009204232 -0.023255786 0.05606049 0.044357255 0.14611866
-0.08421801 -0.07461273 -0.03611797 0.116771854 0.029590521 -0.037963215 0.1041238 0.14471598
-0.056421466 0.04446365 -0.090490304 -0.052308604 -0.0027904036 0.012289894 -0.013424341 0.027237365
-0.057478346 -0.06287349 -0.019818455 0.038900316 0.04827924 0.022197405 -0.091850296 0.020970376
0.01790221 -0.058769677 -0.056832585 0.032401156 -0.088608615 -0.108605236 -0.049382042 -0.1580453
-0.15835978 0.026143529 -0.033491123 -0.039528545 -0.011417927 0.017015753 0.05560018 -0.03298506
-0.007241541 -0.07692827 -0.041185666 -0.014899211 0.0053423597 0.023044955 -0.07166454 -0.10300275
-0.07039508 -0.016550813 -0.033712585 -0.076283514 0.06994212 -0.15134653 0.029755577 0.088360295
0.032117 -0.019430164 0.11661817 -0.09860707 -0.081321344 -0.08002973 -0.06747763 0.019792296
-0.07784968 0.012337734 0.0077035544 0.02630097 0.08058774 -0.12781526 0.06382069 0.12102632
0.032236405 0.0013067118 -0.066482 0.10465436 -0.07471328 0.0678925 0.008267191 -0.040776964
-0.060311794 0.13268395 0.022925498 0.05373352 -0.05998192 0.0112572955 0.07152162 0.11100103
0.12838244 0.040727425 -0.07423182 -0.08801177 -0.017635705 0.078604415 0.022044934 0.02247536
0.09344522 -0.030008942 -0.06876231 0.04520065 -0.03198063 0.008143684 -0.012607541 0.0268775
0.06867043 0.03636704 -0.023716316 -0.0038509856 0.04811108 -0.0446266 -0.07850101 0.012426769
0.085136354 0.042082842 0.038711388 -0.010630896 0.10967644 0.09853798 0.022269184 -0.023088658
-0.024870189 0.04486574 -0.08735223 0.035952672 -0.05555602 0.06309825 -0.06676215 0.11715154
-0.07299738 -0.055403344 0.04470667 0.057779327 -0.043172784 0.09715689 -0.06352123 0.026413482
00000000: c867 a0bd c08f 773c 4345 99bc 5694 663d
00000010: 050b 0cbe 6405 fc3d aa1c 683d 061f 8cbd
00000020: df34 b0bd b1be f83d 64c5 a43d db90 cfbc
00000030: 0875 cdbd a872 f83d 2522 9cbc 9a30 9c3d
00000040: d016 c93d 404c 463d 8fde b83c 93cf d3bd
00000050: 0d7e 3fbc 4e7d ea3d d45a 93bc 83b6 533d
00000060: ffa3 593d 83ad 6fbd 4adb e0bc 34a1 d8bc
00000070: e203 293d 07b9 1f3c 5121 68bd 61c0 663d
00000080: ae12 ff3d f024 6d3c 9ede f43c 478a fc3c
00000090: cb92 aebd 8076 52bd 55c1 b4bd 1689 e13d
000000a0: 6afa f13d 031c 633d cb25 a3bc 9fc0 333b
000000b0: beef f13d 4d06 883d c5ad 963d 8f12 18bd
000000c0: 4a63 47bd ea46 2bbd eabc 00be c1b2 a9bd
000000d0: 0184 b1bc 1f48 a2bc 5aac bbbd 3d15 8b3c
000000e0: c464 8abd 5160 70bc 5714 79bd 1d24 14bd
000000f0: c212 9bbb d33d 10bd 2be2 ccbd 7897 323d
00000100: 36b9 98bc 70e6 313d f9bb 3d3d c079 503d
00000110: 18a6 f0bb f039 c13d 15ed 043d a43d d0bc
00000120: ea0f 003c 2e07 e43d 80f0 af3b f9b8 03bd
00000130: 1d12 ab3c 5640 af3c 0b43 dd3d f0d7 083d
00000140: 0297 833d b953 42bd 1ad0 553c f797 4a3c
00000150: caad f0bd a74d 84bc 5f6b 94bc 60fe 92bd
00000160: 5a93 a33d 2e69 23bd 11b0 ca3c d64a dabc
00000170: 30c1 9fbd 8742 aabc a71b 7cbd 41e9 b83d
00000180: d25a e93c 7e09 89bd 446e 02be d5e7 fdbc
00000190: 3a3e fc3c dac9 81bd ad7a 743c d46c 273d
000001a0: bce8 4fbb 46c6 60bd 3f89 46bd b057 bd3c
000001b0: 3264 113e a31a b0bc 2243 003d f341 d2bc
000001c0: d20e 79bd cc50 33bd 799f 1f3e 59cd 16bc
000001d0: eb82 bebc af9f 653d f4af 353d 21a0 153e
000001e0: 7e7a acbd 8fce 98bd 70f0 13bd 1526 ef3d
000001f0: d267 f23c 517f 1bbd dc3e d53d 6d30 143e
00000200: 321a 67bd 841f 363d fb52 b9bd 8c41 56bd
00000210: 34df 36bb 8d5b 493c c4f1 5bbc e520 df3c
00000220: 6a6e 6bbd d1c3 80bd 505a a2bc f055 1f3d
00000230: 74c0 453d 55d7 b53c 021c bcbd 11ca ab3c
00000240: a8a7 923c 79b8 70bd 49c9 68bd 13b7 043d
00000250: 6f78 b5bd 6c6c debd d344 4abd a1d6 21be
00000260: 1129 22be f42a d63c fd2d 09bd afe8 21bd
00000270: 4212 3bbc 9f64 8b3c 04bd 633d 581b 07bd
00000280: 734a edbb 928c 9dbd 4db2 28bd d21b 74bc
00000290: f60e af3b c6c8 bc3c dcc4 92bd 1bf3 d2bd
000002a0: 4c2b 90bd 9295 87bc 3516 0abd 883a 9cbd
000002b0: d03d 8f3d 96fa 1abe f8c1 f33c 3ef6 b43d
000002c0: 1e8d 033d 022c 9fbc 82d5 ee3d 81f2 c9bd
000002d0: ce8b a6bd a1e6 a3bd b631 8abd 7423 a23c
000002e0: a76f 9fbd 3524 4a3c 196e fc3b 2275 d73c
000002f0: 2f0b a53d 01e2 02be 6cb4 823d a6dc f73d
00000300: 520a 043d f945 ab3a b727 88bd 0655 d63d
00000310: 4703 99bd 390b 8b3d 1d73 073c bf05 27bd
00000320: 8009 77bd 4dde 073e 41ce bb3c ae17 5c3d
00000330: 9aaf 75bd 8570 383c ed79 923d 8254 e33d
00000340: b076 033e cdd1 263d da06 98bd 843f b4bd
00000350: c178 90bc 5afb a03d 9497 b43c 3f1e b83c
00000360: 3560 bf3d 50d5 f5bc 41d3 8cbd 5124 393d
00000370: 1ffe 02bd 166d 053c dc8f 4ebc 342e dc3c
00000380: 15a3 8c3d 9bf5 143d b848 c2bc d160 7cbb
00000390: 2010 453d 62ca 36bd 23c5 a0bd a699 4b3c
000003a0: f85b ae3d 0f5f 2c3d d58f 1e3d 362d 2ebc
000003b0: 0b9e e03d 48ce c93d dd6d b63c 6d24 bdbc
000003c0: 91bc cbbc 23c5 373d bae5 b2bd 1c43 133d
000003d0: b68e 63bd a839 813d 98ba 88bd 26ed ef3d
000003e0: a67f 95bd 9eee 62bd 571e 373d 04aa 6c3d
000003f0: f2d5 30bd 31fa c63d 6b17 82bd 1661 d83c

sequential_3/conv2d_4/Conv2D f4 [64, 3, 3, 64]
0.046821468 0.09709158 -0.14568958 -0.04120372 0.085275 -0.019241387 -0.06954135 0.01407881
0.0680355 0.093169175 0.05234793 0.04377569 0.004716122 -0.04808455 -0.040608604 0.04784317
-0.002546202 -3.085364e-05 0.018246783 0.0012043833 -0.03454635 0.078587435 -0.1942989 0.0079510035
-0.044535417 -0.054973826 0.07751925 -0.0054387506 -0.12988146 0.048591495 -0.015838219 -0.029971153
-0.028207831 0.019475482 -0.04554217 -0.14016554 -0.009143131 -0.06477456 0.017235925 0.05692217
-0.0072255163 -0.0121039245 0.021101093 -0.10064258 0.049225204 -0.049407996 -0.12786248 -0.045085702
0.08046531 0.037777748 -0.10021436 -0.06350073 -0.14485961 -0.013806858 -0.10379412 -0.0030331567
-0.05280433 0.05613337 -0.025492618 0.057037994 0.0022306894 -0.035914168 -0.0015897206 -0.18700086
-0.052427903 -0.016795382 -0.0319549 0.014414659 0.0395834 -0.04015108 -0.06079307 -0.12078642
-0.070182964 0.10814049 0.02059085 0.029712247 0.019708479 0.012261774 0.065580264 0.02513329
-0.06392647 0.046619724 -0.07559661 -0.15094285 -0.0108835865 0.11138752 -0.06549137 -0.019473458
-0.07004251 -0.046379443 0.11088796 -0.0057929987 -0.038296934 -0.122432224 -0.119076796 -0.11762232
0.060318135 -0.07429805 -0.09696758 0.07216586 -0.07744286 -0.04662836 0.040466543 -0.014755429
-0.06498091 0.044571143 0.0013345298 0.03351463 0.03550342 -0.08312864 -0.002976882 0.020372532
0.04505526 -0.05441964 -0.085491665 -0.040798504 -0.013665708 -0.03735925 -0.07106812 0.056686677
-0.10240973 -0.049462806 -0.06949422 -0.094225205 -0.005462095 -0.037590675 0.047412664 0.016824616
-0.07802273 -0.011006038 0.014545158 0.054192968 -0.023232901 -0.04908274 0.041486863 -0.0038964136
0.11207135 0.021169785 -0.011784199 -0.036218677 0.07702455 -0.022600489 -0.017006036 0.035863724
0.014243054 0.031868756 -0.024361761 0.04553309 0.055002995 0.058927923 0.00245055 0.023106033
0.04353413 0.044329893 -0.05112751 0.09760488 -0.010702988 -0.028544692 -0.047712795 -0.020219626
-0.1478636 0.08830359 -0.0394571 0.043574758 -0.008794325 -0.04345606 -0.092622235 -0.015089748
-0.13085489 0.017518869 -0.041633848 0.084818356 -0.038686946 -0.0731462 0.08716478 0.01898922
-0.025068948 -0.04227828 0.0019648995 -0.112390056 0.083133735 0.020124208 -0.006968648 -0.009065032
0.023078864 -0.042566378 0.070804186 -0.020640483 -0.22565532 -0.02631154 -8.170608e-05 0.01384331
-0.087710455 0.043597747 0.04246751 -0.035951216 0.054535117 0.03849372 -0.03756271 -0.027883856
-0.013798029 0.07343221 -0.03158419 0.006364594 -0.035248075 -0.015457724 -0.056021806 -0.098392636
-0.013474482 -0.043303873 0.019154513 -0.09969025 -0.056226738 -0.05931375 -0.015713036 -0.018906472
-0.025015645 0.013823296 0.04390325 -0.023739569 -0.048059087 -0.103154026 0.0060581244 -0.13951173
-0.09151818 -0.13904186 -0.11828564 -0.013462781 -0.09539866 0.07275926 -0.0413053 -0.047039226
-0.033722337 -0.1227522 0.035097923 0.024244959 -0.08553305 -0.03640328 -0.0510782 -0.06297761
-0.089609526 0.039704744 -0.0314909 -0.03091153 -0.10083356 -0.08015781 -0.077402115 -0.0037681535
0.019022765 -0.05553388 0.050949115 -0.08317281 0.054216534 -0.03730968 0.04481978 0.02120264
00000000: dec7 3f3d f3d7 c63d a62f 15be 3bc5 28bd
00000010: a9a4 ae3d 1da0 9dbc b26b 8ebd cfaa 663c
00000020: 3256 8b3d 7bcf be3d c86a 563d 234e 333d
00000030: b389 9a3b 4ef4 44bd 3555 26bd 33f7 433d
00000040: 2ede 26bb d868 01b8 477a 953c 66dc 9d3a
00000050: 7980 0dbd 73f2 a03d 4af6 46be ed44 023c
00000060: c56a 36bd 3c2c 61bd 6ac2 9e3d 8c37 b2bb
00000070: a5ff 04be e007 473d 27bf 81bc 1086 f5bc
00000080: 1c14 e7bc 0c8b 9f3c 6d8a 3abd 8e87 0fbe
00000090: 12cd 15bc 86a8 84bd 5b32 8d3c 3927 693d
000000a0: 06c4 ecbb 8a4f 46bc 33dc ac3c b21d cebd
000000b0: 5ea0 493d 0a60 4abd 62ee 02be c9ab 38bd
000000c0: ffca a43d d7bc 1a3d 303d cdbd ac0c 82bd
000000d0: 1456 14be 2936 62bc 0392 d4bd edc7 46bb
000000e0: 5a49 58bd 1bec 653d e5d5 d0bc aca0 693d
000000f0: c230 123b bc1a 13bd 2c5e d0ba 277d 3fbe
00000100: a4be 56bd 7896 89bc 24e3 02bd 762b 6c3c
00000110: 3422 223d 7575 24bd 2702 79bd df5e f7bd
00000120: 16bc 8fbd c378 dd3d 24ae a83c 1967 f33c
00000130: ad73 a13c 9ce5 483c f24e 863d 54e4 cd3c
00000140: e2eb 82bd 53f4 3e3d 65d2 9abd c390 1abe
00000150: 1251 32bc 241f e43d 5720 86bd cd86 9fbc
00000160: 7372 8fbd 5ff8 3dbd 3a19 e33d 32d3 bdbb
00000170: 3fdd 1cbd bfbd fabd 89de f3bd f9e3 f0bd
00000180: 2610 773d 9329 98bd f096 c6bd b2cb 933d
00000190: 5d9a 9ebd 61fd 3ebd 3fc0 253d c1c0 71bc
000001a0: b614 85bd 3b90 363d 64eb ae3a a346 093d
000001b0: 096c 113d 593f aabd cb17 43bb 4ce4 a63c
000001c0: dd8b 383d 21e7 5ebd 4116 afbd 551c 27bd
000001d0: 22e6 5fbc 0306 19bd 2a8c 91bd 4a30 683d
000001e0: 31bc d1bd 8399 4abd fc52 8ebd 25f9 c0bd
000001f0: 60fb b2bb aef8 19bd c833 423d c7d3 893c
00000200: 62ca 9fbd ab52 34bc d04e 6e3c 72f9 5d3d
00000210: ed52 bebc fc0a 49bd 21ee 293d f95a 7fbb
00000220: aa85 e53d 426c ad3c 8312 41bc 095a 14bd
00000230: 0cbf 9d3d a924 b9bc 3e50 8bbc d7e5 123d
00000240: b35b 693c d088 023d 5192 c7bc e880 3a3d
00000250: d24a 613d 685e 713d 6899 203b dd48 bd3c
00000260: d850 323d 4393 353d 146b 51bd 11e5 c73d
00000270: 965b 2fbc 8fd6 e9bc 7e6e 43bd a1a3 a5bc
00000280: 8e69 17be 83d8 b43d c59d 21bd 727b 323d
00000290: 1316 10bc fbfe 31bd bab0 bdbd fe3a 77bc
000002a0: d3fe 05be bb83 8f3c 4188 2abd 3fb5 ad3d
000002b0: 3476 1ebd adcd 95bd 7383 b23d 488f 9b3c
000002c0: 655d cdbc fd2b 2dbd 8bc5 003b c22c e6bd
000002d0: 0542 aa3d 86db a43c 4259 e4bb 8085 14bc
000002e0: e30f bd3c 155a 2ebd c901 913d 3b16 a9bc
000002f0: 3012 67be 4c8b d7bc 9e59 abb8 0dcf 623c
00000300: 8aa1 b3bd 8d93 323d 69f2 2d3d 9541 13bd
00000310: 3760 5f3d 97ab 1d3d 5bdb 19bd af6c e4bc
00000320: 2111 62bc a063 963d 6c5e 01bd 168e d03b
00000330: 4960 10bd 6542 7dbc 1f77 65bd 1482 c9bd
00000340: 13c4 5cbc 675f 31bd ede9 9c3c 672a ccbd
00000350: 024e 66bd faf2 72bd a0b8 80bc bfe1 9abc
00000360: 9ced ccbc 1b7b 623c e5d3 333d 7c79 c2bc
00000370: 9bd9 44bd 6b42 d3bd 3b83 c63b 2adc 0ebe
00000380: e26d bbbd fd60 0ebe be3f f2bd ff92 5cbc
00000390: 5f60 c3bd cf02 953d bf2f 29bd 34ac 40bd
000003a0: 6f20 0abd 8165 fbbd d7c2 0f3d 5d9d c63c
000003b0: f42b afbd 9b1b 15bd 6037 51bd 68fa 80bd
000003c0: 3385 b7bd 71a1 223d 9afc 00bd 2d3a fdbc
000003d0: d381 cebd c729 a4bd 0085 9ebd 20f3 76bb
000003e0: a1d5 9b3c 7e77 63bd 05b0 503d 8256 aabd
000003f0: 2812 5e3d 09d2 18bd f294 373d 29b1 ad3c

sequential_3/conv2d_5/Conv2D f4 [128, 3, 3, 64]
0.08098073 -0.05868626 0.015451009 0.014492275 0.055861417 0.017786652 0.016857855 0.03493852
-0.008286411 0.042574678 0.085455365 -0.07978819 -0.10421463 -0.15929374 -0.009106097 0.03829977
-0.021232689 0.0017991279 -0.018189026 0.09302673 0.047564395 -0.024732957 0.06373631 0.10812307
0.024333537 -0.0070033767 0.07166823 -0.0026263834 -0.026773712 0.10921386 0.05140676 0.042261887
0.04113383 0.11306683 0.14968877 -0.007922872 0.0027000166 0.09113851 -0.015294487 -0.039495777
0.07264325 -0.027920388 -0.018249676 0.04804193 0.0573536 0.02695834 -0.04878003 -0.04176496
-0.014957593 0.01573494 -0.047847167 -0.035336684 0.053649362 0.028134752 0.02578308 0.1404938
0.076914474 0.06229139 0.04912541 0.038752325 -0.11448132 0.03694157 -0.03560252 -0.09802355
-0.067653626 0.027199177 -0.039376423 0.0629821 -0.048375297 -0.017406406 -0.05756503 -0.04753134
-0.06566874 -0.041839488 -0.07552733 -0.042661484 -0.0014690614 -0.011855725 -0.059589796 -0.0035139374
0.054889325 -0.05510311 -0.030203853 -0.149033 0.065833576 -0.09259614 -0.06757354 -0.046851084
-0.03592079 0.008870716 0.047892325 -0.01608684 -0.011125657 0.06923253 0.05018976 0.05564911
-0.02467416 -0.046514098 0.00881163 -0.013719669 -0.043417968 0.03550526 -0.039396297 -0.01019201
-0.025301648 -0.09450343 -0.055173583 0.022704825 -0.03794698 -0.05464431 -0.14449064 0.078241706
-0.058363292 -0.0652248 -0.073910594 0.022344122 0.044682514 0.00057629205 0.036585547 -0.036696233
-0.07180432 0.08497561 -0.0070828577 0.013049365 0.020833509 0.03098777 -0.046376158 0.009917886
0.09996458 0.048548292 0.091530114 0.026335413 0.00089277234 0.039462995 0.041658428 0.009078906
0.004757627 0.014464076 0.016235588 -0.07975855 0.06630475 -0.020535462 0.036729027 0.06754261
0.057476502 0.100812234 0.041561536 -0.050520908 0.08168305 -0.013965395 0.05768584 0.054484308
0.021397352 -0.032412168 0.08666856 0.032955166 0.05441352 -7.834683e-08 0.10181153 0.018447073
0.06139564 -0.011088879 -0.011049855 0.050461322 0.032482527 -0.03386629 0.0071951263 -0.0987646
0.119229525 0.00043432222 0.10965701 0.09130444 -0.012864288 -0.037474543 0.016529731 -0.10214181
-0.021116491 0.10642687 -0.043158613 0.046319813 0.030228712 0.030260893 0.06438206 0.008394582
0.0027221001 0.101557195 0.10113704 0.04391161 -0.06045119 -0.07398158 -0.0068792696 0.048382968
-0.12185226 0.056599986 -0.02784409 0.048089862 -0.08876458 0.06404048 0.019192357 -0.04996078
-0.02396686 -0.018668579 -0.05522414 -0.08703419 0.05005822 0.009128721 -0.08542936 -0.04197493
0.060706906 0.08833202 0.004938403 -0.0028994672 0.02471437 0.076339275 -0.025300434 -0.0656592
-0.01789881 -0.029743955 -0.07826114 -0.025282333 0.076965764 0.069347 -0.021346899 0.048867866
-0.1417263 -0.03564192 0.009984638 0.09614718 0.024434831 0.11130826 -0.00073882146 -0.03735942
-0.049845796 0.06247914 -0.029935386 -0.030686388 0.0023904226 0.007720748 -0.12281161 0.068140514
-0.05430753 -0.06868835 0.0142514855 0.03702219 0.019559953 -0.0501659 0.010401936 -0.00071524346
-0.020688705 0.050292257 -0.026712738 0.055037584 0.021073967 0.0063173147 -0.038819797 -0.0024469392
00000000: 3ad9 a53d 0161 70bd 3b26 7d3c 0271 6d3c
00000010: f1ce 643d 50b5 913c 7c19 8a3c b21b 0f3d
00000020: bac3 07bc c962 2e3d 3903 af3d fe67 a3bd
00000030: 7b6e d5bd e61d 23be bd31 15bc 38e0 1c3d
00000040: 2df0 adbc b7d0 eb3a 2701 95bc cc84 be3d
00000050: e2d2 423d c59c cabc 2f88 823d a16f dd3d
00000060: 2057 c73c 957c e5bb cbc6 923d 671f 2cbb
00000070: 8b54 dbbc 84ab df3d e58f 523d cd1a 2d3d
00000080: f27b 283d 958f e73d 0348 193e efce 01bc
00000090: c3f2 303b d4a6 ba3d ba95 7abc 53c6 21bd
000000a0: fcc5 943d 4cb9 e4bc 5880 95bc 9dc7 443d
000000b0: 9ceb 6a3d bdd7 dc3c 92cd 47bd bc11 2bbd
000000c0: b110 75bc 90e6 803c 64fb 43bd 33bd 10bd
000000d0: 6fbf 5b3d da7a e63c 0a37 d33c 9bdd 0f3e
000000e0: 5685 9d3d 4225 7f3d ba37 493d c2ba 1e3d
000000f0: 2f75 eabd 0b50 173d f3d3 11bd 92c0 c8bd
00000100: fc8d 8abd cfd0 de3c 2c49 21bd c2fc 803d
00000110: 2d25 46bd e197 8ebc 4fc9 6bbd 39b0 42bd
00000120: 557d 86bd e25f 2bbd 13ae 9abd cfbd 2ebd
00000130: 858d c0ba 843e 42bc 6e14 74bd 164a 66bb
00000140: a1d3 603d ccb3 61bd 126e f7bc 1b9c 18be
00000150: c1d3 863d 0ca3 bdbd ff63 8abd ece6 3fbd
00000160: ae21 13bd 7b56 113c be2a 443d 8cc8 83bc
00000170: 6348 36bc c9c9 8d3d c793 4d3d 52f0 633d
00000180: 7721 cabc 9185 3ebd a85e 103c 76c8 60bc
00000190: 0ad7 31bd f76d 113d 035e 21bd 63fc 26bc
000001a0: 6745 cfbc 048b c1bd b2fd 61bd 78ff b93c
000001b0: 4b6e 1bbd b6d2 5fbd 5bf5 13be 303d a03d
000001c0: 590e 6fbd 9494 85bd 705e 97bd 050b b73c
000001d0: 0305 373d 4e12 173a bada 153d ca4e 16bd
000001e0: 250e 93bd b107 ae3d 5117 e8bb 01cd 553c
000001f0: 09ab aa3c 10da fd3c edf4 3dbd a17e 223c
00000200: 3bba cc3d 93da 463d 2474 bb3d 5dbd d73c
00000210: f008 6a3a f3a3 213d 07a2 2a3d b1bf 143c
00000220: dee5 9b3b bbfa 6c3c 7f00 853c 7358 a3bd
00000230: c9ca 873d fc39 a8bc 2d71 163d c853 8a3d
00000240: 7b6c 6b3d a576 ce3d 6e3c 2a3d 03ef 4ebd
00000250: 7149 a73d 1dcf 64bc fd47 6c3d f02a 5f3d
00000260: 8049 af3c 9fc2 04bd 497f b13d fffb 063d
00000270: b6e0 5e3d a03f a8b3 9082 d03d 511e 973c
00000280: ff79 7b3d 21ae 35bc 730a 35bc 88b0 4e3d
00000290: 660c 053d 61b7 0abd 18c5 eb3b 1845 cabd
000002a0: 9c2e f43d beb5 e339 db93 e03d d2fd ba3d
000002b0: bcc4 52bc e87e 19bd 5c69 873c ba2f d1bd
000002c0: 7efc acbc 55f6 d93d 16c7 30bd d8b9 3d3d
000002d0: 34a2 f73c b1e5 f73c beda 833d 6e89 093c
000002e0: 4365 323b 38fd cf3d f020 cf3d a9dc 333d
000002f0: ab9b 77bd a883 97bd 7f6b e1bb 382d 463d
00000300: ad8d f9bd 63d5 673d 4a19 e4bc e0f9 443d
00000310: 34ca b5bd a827 833d 4a39 9d3c ada3 4cbd
00000320: 2656 c4bc d9ee 98bc b532 62bd fb3e b2bd
00000330: d909 4d3d a290 153c 97f5 aebd e7ed 2bbd
00000340: cea7 783d 6be7 b43d 54d2 a13b fd04 3ebb
00000350: ca75 ca3c c457 9c3d db42 cfbc 5578 86bd
00000360: 86a0 92bc 98a9 f3bc 6047 a0bd e51c cfbc
00000370: 3aa0 9d3d cd05 8e3d b1df aebc ac29 483d
00000380: b320 11be 43fd 11bd 9b96 233c d0e8 c43d
00000390: 8e2b c83c 96f5 e33d 78ad 41ba 3106 19bd
000003a0: 1b2b 4cbd 20ea 7f3d 0e3b f5bc 0562 fbbc
000003b0: a3a8 1c3b 54fe fc3b a784 fbbd 418d 8b3d
000003c0: 9371 5ebd 7aac 8cbd 107f 693c 94a4 173d
000003d0: 323c a03c c27a 4dbd e26c 2a3c 2d7f 3bba
000003e0: 5c7b a9bc 41ff 4d3d acd4 dabc 176f 613d
000003f0: 50a3 ac3c 7a01 cf3b 8201 1fbd d45c 20bb

sequential_3/dense_1/BiasAdd/ReadVariableOp f4 [4]
-0.05076425 -0.14704137 0.04208325 0.044743672
00000000: 2dee 4fbd 0392 16be 7c5f 2c3d 2445 373d
