app/src/main/ml/adamaxmodel1_25cycle.tflite (tflite, 741596 bytes, 16 tensors)

sequential_3/conv2d/BiasAdd/ReadVariableOp f4 [32]
00000000: f1fe 7f3a ca42 823b 33f4 613d 43c2 57bb
00000010: f791 3f3d f2d4 cbbc e826 f63c aa1c 023d
00000020: 8661 023c 9358 1f3c 1403 12bc b0d8 80b9
00000030: ae10 6b3a 6668 a23c 2c7d 263d ce8b a9bc
00000040: 583b 8e3c 4832 b5bc 7668 eebc bb01 1a3d
00000050: 07bc 24bc 0bc8 3b3d 0408 193d 7904 1f3d
00000060: 1a89 1f3d 8a3e 1e3d 5ff7 e1bc 4146 a8bb
00000070: 0a3f e13c 82e9 fb3c c817 d5bc 4938 33bc
0.0009765467 0.003975247 0.055164527 -0.0032922185 0.046770062 -0.024881814 0.030047849 0.031765617
0.007957822 0.009725708 -0.008911867 -0.00024575507 0.0008967024 0.019825172 0.040646717 -0.020696547
0.017362282 -0.022118703 -0.029102545 0.037599307 -0.010054595 0.045845073 0.03736116 0.038822625
0.03894911 0.03863386 -0.027583776 -0.005135328 0.02749588 0.030750994 -0.026012316 -0.010938712

sequential_3/conv2d_1/BiasAdd/ReadVariableOp f4 [64]
00000000: b551 7d3c 5cbf 543c 09de 0b3c 88bc 05bc
00000010: f0d3 8dbb 8e52 38bc 3838 3e3d 8560 46ba
00000020: 65ec 423c bb4f 553d 8396 e33b 8423 063d
00000030: ed01 73bc 50b7 b8bb 5ae4 263d 12e6 383d
00000040: 0251 b63a 8a74 26bc 2c7a 643c dc10 0a3c
00000050: e822 5d3d 3b22 0bbc 62af 25bc 6e7d 83bb
00000060: d132 d6bc 346b afba 06ad 433c 638a cabb
00000070: b98c 003d a29c 81bb 8805 45bb 3357 cfba
00000080: 6bf2 8d3c 1ee5 1fbc 219f b63b 1a73 2a3d
00000090: 1846 a6bb 2bb3 143d 3b75 12bc afc4 173c
000000a0: 837b 7dbb 53be 3dbc 5e48 a9bc 2755 e03c
000000b0: 0511 a23c 406d 7abc bd84 a03c 519b 2b3b
000000c0: cac7 d3bb d046 2e3a 0560 0e3d 684d b2bb
000000d0: 0796 8c3b 409b bbbb 2333 6abc 379b 153d
000000e0: c202 3c3c 626b 833a e55a bd3c ddc3 cd3c
000000f0: 1c0f ad3c 0f97 76bb d87f 01bc 5929 e83c
0.015461375 0.012985077 0.008536824 -0.008162625 -0.0043282434 -0.011250151 0.046440333 -0.0007567483
0.011897181 0.05207799 0.0069454326 0.032748714 -0.014832002 -0.005637087 0.040745117 0.045141287
0.001390964 -0.010159621 0.013945144 0.008426871 0.053988367 -0.008492048 -0.010112615 -0.004012755
-0.026147278 -0.001338339 0.0119431075 -0.0061810478 0.031384204 -0.0039554397 -0.0030063111 -0.0015818834
0.017327508 -0.009759216 0.005573169 0.041613676 -0.005074274 0.03630368 -0.008939083 0.009263202
-0.0038678355 -0.011581021 -0.02066439 0.027384354 0.019783506 -0.015284836 0.019594545 0.0026185105
-0.0064630257 0.0006648125 0.03475954 -0.0054413565 0.0042903456 -0.0057252944 -0.0142944185 0.036524978
0.011475267 0.0010026509 0.023114631 0.025117809 0.021125369 -0.003762666 -0.0079040155 0.028340029

sequential_3/conv2d_2/BiasAdd/ReadVariableOp f4 [64]
00000000: 9593 a73b 0a3e 62bb 6a4c 603c 62b2 77bb
00000010: 3469 a0bb 0047 3b3c bf8f b23c 4b85 0b3b
00000020: a1be f2ba d642 3bbb 75d0 923c 713a 18bc
00000030: b93e 6dbc 6bd9 efbc 327b b3ba 2f69 183c
00000040: fa87 27bc 378c 623b 77c1 e63c ab5a 03bc
00000050: 5e6c 283b 6adb 993c 5336 b0bb 49e8 f7b9
00000060: 7874 01bc e952 313c e2b9 82bb ee22 1d3c
00000070: aa2a 873b c122 19bc 89f3 653c 062d a13a
00000080: d34f 5ebb 8910 5e3c a760 243b efc9 3439
00000090: 99aa 0ebc dcdc aaba 1a65 883a 0d18 133b
000000a0: 1091 55bc 0019 c0bb 81aa 53bb d262 9dbb
000000b0: a264 afba 5c85 9f3b 2a02 1e3c af37 b5bb
000000c0: 5411 edbb f99e 24bb 2cb6 7d3c 89b1 333c
000000d0: ec77 cabc b433 08bc 8757 3e3c efa4 f5bb
000000e0: 158f bbbb 9fd8 b7bb 74ec 0c3c 36bb b1bb
000000f0: 9901 66bb 9fab 6dba 49d7 e5ba d574 253c
0.0051140287 -0.0034521841 0.0136900935 -0.0037795533 -0.0048953537 0.011430502 0.02179706 0.0021289166
-0.0018519947 -0.0028573773 0.017921666 -0.009291277 -0.014480286 -0.029278478 -0.0013693331 0.0093024215
-0.01022529 0.0034568438 0.028168423 -0.008017222 0.0025699358 0.018781383 -0.0053775697 -0.00047284577
-0.0079013035 0.01082299 -0.003989444 0.009590847 0.004124959 -0.009346665 0.014035114 0.0012296743
-0.003392209 0.013553747 0.0025082023 0.00017241364 -0.008707666 -0.0013035792 0.0010406107 0.0022444755
-0.013035074 -0.005862355 -0.0032297673 -0.00480304 -0.0013381431 0.0048681926 0.009644071 -0.0055303196
-0.0072347317 -0.002511917 0.015485328 0.010967621 -0.024715386 -0.008313108 0.011617548 -0.0074964683
-0.005723844 -0.00561054 0.008601297 -0.0054239286 -0.0035096167 -0.0009066406 -0.0017535473 0.010098656

sequential_3/conv2d_3/BiasAdd/ReadVariableOp f4 [64]
00000000: 9a6d 95bb 2cbb 713b 630d e9bb 6b4b 49bb
00000010: edb9 5a3c c281 93bb f00e f03b 8fc7 8dbb
00000020: 847e 14bc 16d0 8f3c 3da2 afbb d3ad 843c
00000030: c150 e9bb 0f2d d3ba 1654 84bb a626 1b3c
00000040: c848 76bb c5bf 13bb 289c ebba ce79 76bc
00000050: 8108 1abc cb64 12bc 4bd7 333c f467 9fbb
00000060: 375c 90bb ab1b 22ba bc9a 903b 829d 71bc
00000070: d496 8e3b 8de3 8cba a158 1e3b 118f 793b
00000080: 2797 b9ba e1f7 893a ae8c 1bbb e3d1 4dbc
00000090: 0f25 68bb fb0c 2e3c d194 e2bb c23b 133b
000000a0: 28a2 adbc 4657 783b 7e30 583b 44b5 173c
000000b0: 3f1b 9c3b 538f b6b8 1625 57b9 8649 94bb
000000c0: 5434 373a f6ee f0b9 51d7 773c 0215 fdba
000000d0: eaee 4dba f21d a4bb 2297 0b3a ef3a c4bb
000000e0: 7eb6 42bb 332a 5ebb 3c22 afbb 19b6 9c3b
000000f0: 1e68 da3c 8cde acba 187a 80bb a135 c8bb
-0.0045601847 0.0036885245 -0.0071121915 -0.0030715119 0.013349992 -0.0045015523 0.0073259994 -0.0043267678
-0.009063367 0.017555278 -0.0053599165 0.016196167 -0.0071202223 -0.0016111451 -0.004038344 0.009469664
-0.0037580002 -0.0022544723 -0.0017975615 -0.015043689 -0.009401442 -0.008935164 0.010976623 -0.004864687
-0.004405524 -0.00061839324 0.004412977 -0.014747025 0.004351476 -0.0010748968 0.0024161714 0.003807966
-0.0014159427 0.0010526144 -0.0023734975 -0.012562248 -0.003542248 0.010623212 -0.006914713 0.0022466038
-0.021195486 0.0037893816 0.0032987888 0.009259526 0.00476399 -8.7051325e-05 -0.00020517813 -0.0045253662
0.00069886935 -0.00045954407 0.015127019 -0.0019308629 -0.00078557304 -0.0050084526 0.000532495 -0.0059884707
-0.0029710825 -0.0033899664 -0.005344657 0.00478245 0.026660975 -0.0013188883 -0.0039208047 -0.0061099087

sequential_3/conv2d_4/BiasAdd/ReadVariableOp f4 [64]
00000000: 07ee b73b 11d6 103b fe10 58bb c721 b7bc
00000010: 6e04 43bb 7028 e0ba 0909 9a3b d3f9 013c
00000020: 3dc9 4bbb c2bf 61bb 6085 25bc 7b79 acbb
00000030: 8efc 3c3c dc0d 00bc 3aca 27bc 9361 d9bb
00000040: 8198 de3a 03b6 bdbb 9141 893c 1ffb 7dbb
00000050: 2dd7 9cbb 8e02 f8ba f3fc dabb 22f7 04bc
00000060: 448c fdbb c515 c3bb 357c 28bc 9981 20bc
00000070: 0f25 c5b9 0d2a a1bb 094d 62bb bea5 b8ba
00000080: a3c2 fabb 35b3 bfbb b2e1 44bc 60f5 b63b
00000090: 862b 33bb 96ce 36bb f21e 0cb9 1212 8c39
000000a0: f01b d7bb c684 ee3b 99a2 acbb b071 df3b
000000b0: c19b fc3a 63e6 12ba 9007 7abc c0da 913b
000000c0: fcd3 3a3c eb04 6ebb 48a1 78bc a079 a7bb
000000d0: 2a16 88b9 8bd0 7ebc ea8c d63c f16d 07bc
000000e0: 0504 55bb 29c5 a2bb 7f52 4bbb 22d3 923c
000000f0: 1580 233c fb30 e3b9 363c 7fbb 0d78 1abc
0.005613092 0.002210025 -0.0032969113 -0.022354973 -0.002975728 -0.0017101895 0.004700784 0.007933098
-0.003109529 -0.0034446572 -0.0101026 -0.005263505 0.011534823 -0.007815804 -0.010241086 -0.006633946
0.0016982706 -0.0057895198 0.016754897 -0.0038754416 -0.004786393 -0.001892166 -0.006682986 -0.008115562
-0.007737668 -0.005953523 -0.0102835195 -0.0097965235 -0.0003760238 -0.004918343 -0.003453078 -0.0014087481
-0.007652597 -0.0058502206 -0.012016701 0.00558345 -0.0027339174 -0.002789413 -0.00013362968 0.00026716344
-0.0065646097 0.0072790114 -0.0052684066 0.0068189725 0.0019272493 -0.00056037883 -0.015260592 0.004451126
0.01140308 -0.003631885 -0.015175171 -0.0051109344 -0.00025956455 -0.01555265 0.02619024 -0.008265958
-0.0032503617 -0.004967351 -0.0031024513 0.017922942 0.009979268 -0.00043333307 -0.00389458 -0.009428036

sequential_3/conv2d_5/BiasAdd/ReadVariableOp f4 [64]
00000000: 168c 313c e3f4 733c 9e7c b83c e3f6 f9bb
00000010: 204a 29bc 3b68 d7bb 4593 0bbc c66c 713b
00000020: c71e d9bb cf8a 81bb 1d28 deba 08dd 56ba
00000030: 0486 25bc d375 cfbb 8417 25bb 6770 10ba
00000040: 7591 1b3a da5a 163c e4e4 343c 649a b3ba
00000050: 5ec4 9a3a 072c 4e3a 26bd 983c 9f05 d53b
00000060: e7ea a0bc 2b1e 5c3c d641 7bbb 8811 96bb
00000070: f7d3 ee3b 7ffd 8b3b b8ce 00bb fc56 68bc
00000080: 497b 6cbb fed3 0b3b b66d 523c dfc2 15bc
00000090: d5b7 32bc bf30 a93c eb89 a1bb 775a a8bb
000000a0: 8d0a 1b3c 6577 ccbb ea71 b2bc abd5 f7ba
000000b0: c492 c23b d476 e4ba 31b4 02bb db9f 74bc
000000c0: ca18 78b8 3291 0c3b b2cf f03c 4d24 3ebc
000000d0: 52e5 28bc 6cea 183b faef 01bc 1d99 5cbc
000000e0: d52a 0abd 49f6 38bc e3ee e2bb dab2 84ba
000000f0: b6ec 24bc 589c 5cbc 0be2 5fbc 20be ffbb
0.010836622 0.0148899285 0.02252036 -0.007628308 -0.010332614 -0.0065737045 -0.0085189985 0.0036838516
-0.0066259834 -0.003953315 -0.001694921 -0.00081963884 -0.010102753 -0.0063311844 -0.0025191018 -0.00055099133
0.00059344555 0.009176934 0.0110409 -0.0013702628 0.001180779 0.0007864837 0.01864488 0.006500914
-0.01964326 0.013434927 -0.0038338802 -0.0045797266 0.007288452 0.0042721624 -0.0019654464 -0.014180895
-0.0036084226 0.0021336074 0.01284354 -0.009140699 -0.010908087 0.020653127 -0.004929771 -0.0051377374
0.009462965 -0.006239819 -0.021782834 -0.0018908283 0.005937906 -0.0017430433 -0.0019943828 -0.014930691
-5.9150894e-05 0.0021448848 0.029395912 -0.0116053345 -0.0103085805 0.0023333086 -0.00793075 -0.013464239
-0.033732254 -0.011289188 -0.00692545 -0.0010124103 -0.010066202 -0.01346501 -0.013664733 -0.007804647

sequential_3/conv2d/Conv2D f4 [32, 3, 3, 3]
00000000: 69c4 c73d e327 92bd 4c5f f93d 0cf3 ba3c
00000010: a8e1 773d 2661 8bbd c430 cc3c a805 d2bc
00000020: 6c3b adbd 1f84 58bc 804a 9dbc ea43 0e3e
00000030: 4fd8 08be c0cb e7bd 6990 0e3e e7f8 f33c
00000040: 1c55 883d 17af acbd eff8 c63d 031b 593d
00000050: d809 43bd 98c3 8abb 2569 cdba f23c 5d3c
00000060: 777c f9bd 38bd babc 0251 053e f52f 80bc
00000070: 1875 b33d 8203 703d 7b0e 4abd ec77 04be
00000080: 05fa e63d 99d2 7d3d fc86 d83d 0256 0cbe
00000090: fc23 b13d 961d f93d 557a 26bc 6876 ac3d
000000a0: 8f88 8bbd 54bf 46bd bba6 043e 0271 903d
000000b0: 5bac a53c 870c fe3d 32b6 04be 9bf9 043d
000000c0: 53ed 0abd 7bdc d0bd 8304 e0bc 3269 503d
000000d0: 9940 bbbd 135d fabd 8c8f e9bc e358 4c3d
000000e0: beaa bfbd 2ae3 c0b9 fd12 9abc 49d6 783d
000000f0: 82ee 4e3d 7398 983d 8d44 163e d00a c3bd
00000100: 10ea 47bd 7b7f ab3d 808e 073d 83e8 84bd
00000110: 9d4b 213d 2b6f 523d 5213 f8bd c4cf 50bd
00000120: 5a12 313d 7f86 073e 4fdd 423d 8007 5fbd
00000130: f506 abbd 19d1 dabd 328b cbbc 3d6c 11be
00000140: 6c49 f83b 8559 b4bd 68e0 4dbd 4604 cd3d
00000150: 91fb 83bd 747f 4d3d ea73 e6bd 4c5c b63d
00000160: 6483 113e 6760 7d3d 0d0d 703c 3771 cb3c
00000170: 0135 99bc a73b 8fbb b7cf b1bd c9e8 b03d
00000180: 695f f0bd 783a a83d 76e2 7e3d 669b 03be
00000190: 30ed 913d 648e dfbc 0c7b 3f3d 81ff 86bd
000001a0: e9ec 89bd 3505 683d 183b 903d 23fb f4bd
000001b0: 2f44 a9bc cd7c 503d 4ab8 763d 2b51 bcbd
000001c0: 85cf a33d fc2f 1a3e 4a05 9abd 85da 1e3c
000001d0: af78 a73d fb01 94bb f93e 9f3d 04f7 383d
000001e0: dcc7 fabd 62a2 cc3b fddc f7bc a093 f8bd
000001f0: 9052 133c 3b68 03bd 4185 00bd 596d 8ebc
00000200: 4b9c 9dbd 9b4e 473d a9cc c3bd b313 c53a
00000210: f967 003e 2509 dfbd 1716 05bd 0c29 5d3d
00000220: 945a 97bc 3795 98bd eb84 7ebc f8e9 933c
00000230: c356 fbbc c8aa 043e 61ce c43d 4c64 b939
00000240: a53b 0a3d 4840 e23d 7bfb 183d 2a02 113d
00000250: e7ea 923a 4bd1 5a3c 9bb1 2e3d b083 6e3c
00000260: 9a68 5d3d 0a3e 11bd 2b68 10bd 8262 54bb
00000270: 4180 87bd f6af f73d f26c 04be 871c 203c
00000280: 6aa9 063e 9231 9d3d 16b9 c43d 1212 873c
00000290: 17c2 f13c da4b 88bd 60f0 0e3d c401 7dbd
000002a0: 5563 083e 977d c6bd e567 073e 3704 f4bd
000002b0: 421a 82bd d529 f4bd ff5b a73d 8c51 db3d
000002c0: 8a7e 963d 850d dcbd d01c 9abc 43e1 5fbd
000002d0: f1ee 8cbd dff7 81bd 59e7 a3bb 4166 29b9
000002e0: 4081 893d a5de b3bd 0763 b8bd 1b3b 30bc
000002f0: a91a d33d c10d a8bc 7d9b 3f3d 47b3 a9bd
00000300: d5c5 023e d427 4c3d 9a54 7fbd dcd1 f03c
00000310: 8255 a0bc 768a 693c add7 113d ba35 1f3e
00000320: a4d7 093d c4ff b4bc 94db 243c 76a1 dcbd
00000330: 9c1d dabd 3c4d 32bb e131 833d 5cb1 01be
00000340: 57b0 7cbd cef4 05be 2295 5e3d 3574 00be
00000350: e478 35bd 053c 75bd 417e 79ba f81e 84bd
00000360: 0053 17bc f784 88bd aa13 333d 2f47 4ebc
00000370: 0046 0ebe 442b aabc 0382 9fbc 9264 87bd
00000380: bd6f 6fbd e0b4 f83c b0d6 33bc 89e5 d43d
00000390: 264e b43d f0ba ccbd 286e d5bd bc81 a53d
000003a0: 7b1b c73d a95f 8ebd b4ca 793d 6db4 483d
000003b0: ce48 bd3d b39d 37bd 4ca5 d9bd f5f8 023d
000003c0: 9b25 fd3d 59fc 793d 93ac bf3d db32 643c
000003d0: 4f8f aa3d b737 8fbd 82f8 683d c762 e7bd
000003e0: e23e b2bd f17a 09bd f4dd 8ebd 1e17 39bb
000003f0: 1836 003e 6a5e a0bc 1dcb 373d 839c da3d
0.09754259 -0.07136514 0.121763796 0.022820972 0.060517937 -0.06805639 0.024925597 -0.025637463
-0.084585994 -0.013215094 -0.019200563 0.13893095 -0.13363765 -0.11318159 0.13922276 0.029781772
0.06656858 -0.08431833 0.09715449 0.053004276 -0.04761681 -0.0042347424 -0.0015671594 0.0135033
-0.12181943 -0.022795305 0.13019183 -0.015647868 0.08762568 0.058597095 -0.049330216 -0.12936372
0.11278156 0.06196842 0.10572621 -0.13704684 0.086494416 0.12163846 -0.010161002 0.08421022
-0.06813156 -0.04852231 0.12954228 0.070528045 0.020223787 0.12404733 -0.12960127 0.032464605
-0.033917736 -0.10198303 -0.027345901 0.050881572 -0.091431804 -0.12224784 -0.028510831 0.049889456
-0.09358738 -0.00036790344 -0.018807882 0.060751233 0.050520428 0.074509524 0.14674588 -0.09523547
-0.048807204 0.08373924 0.033094883 -0.064896606 0.03937875 0.05137555 -0.1211306 -0.05097939
0.043230392 0.132349 0.047574338 -0.054450512 -0.08350936 -0.106844135 -0.024846647 -0.14201446
0.007577112 -0.08806137 -0.05026284 0.10010581 -0.06444467 0.050170377 -0.112525776 0.08904323
0.14210278 0.061859515 0.014651549 0.024834258 -0.018702032 -0.004371125 -0.086821966 0.0863815
-0.11736948 0.08214277 0.06222769 -0.12852249 0.07125318 -0.027289577 0.046748206 -0.06591702
-0.0673464 0.05664559 0.07042521 -0.11961963 -0.020662395 0.05090027 0.060234345 -0.09195169
0.079985656 0.15057367 -0.0752054 0.009695654 0.081773154 -0.0045168377 0.07775683 0.045157447
-0.122451514 0.0062449435 -0.030256743 -0.12137532 0.008991852 -0.032081824 -0.03137708 -0.017386125
-0.07695826 0.04865895 -0.0956052 0.0015035778 0.12539662 -0.10890416 -0.03249177 0.053994223
-0.018475808 -0.074503355 -0.01553462 0.018055901 -0.03068102 0.12955773 0.09609676 0.00035360677
0.033748288 0.11047417 0.037349205 0.035402454 0.0011208922 0.013355563 0.042649847 0.014557764
0.054054834 -0.035459556 -0.035255592 -0.0032407348 -0.06616259 0.12094109 -0.12932184 0.009772426
0.13150564 0.076754704 0.09605615 0.016488109 0.029511495 -0.066550925 0.03489721 -0.061769262
0.13319142 -0.09691923 0.13223226 -0.119148664 -0.063526645 -0.11922041 0.08171844 0.10708913
0.07348354 -0.10744766 -0.018812567 -0.054658186 -0.06881512 -0.06346106 -0.005001944 -0.00016155188
0.067141056 -0.087827004 -0.09003263 -0.010756279 0.103078194 -0.02051437 0.046779145 -0.082861476
0.1277078 0.04984267 -0.06233654 0.029396944 -0.019572023 0.014254203 0.035606075 0.15547839
0.033652917 -0.022094615 0.010062117 -0.10772984 -0.10650179 -0.002720668 0.06405998 -0.12665313
-0.06169161 -0.13081667 0.054341443 -0.1254433 -0.044304743 -0.059871692 -0.00095174095 -0.06451219
-0.009236097 -0.06665986 0.043719925 -0.012590214 -0.1389389 -0.020772584 -0.019471174 -0.06610979
-0.05845617 0.030359685 -0.010976478 0.10395343 0.08803968 -0.09996593 -0.10421401 0.080813855
0.09722038 -0.069518395 0.06098433 0.049000192 0.09242402 -0.044828128 -0.10627231 0.031975705
0.12360688 0.061031673 0.09359088 0.0139281405 0.08328115 -0.06993049 0.05687762 -0.11298137
-0.087034 -0.03356451 -0.06975928 -0.0028242539 0.12520635 -0.01957627 0.04487144 0.106743835

sequential_3/conv2d_1/Conv2D f4 [64, 3, 3, 32]
00000000: fb5f 933d 3077 2a3d bc83 a1bc cf4b 8fbd
00000010: 35ac 63bd 9fca aebc 6203 78bd 48aa 3bbc
00000020: 6e31 d53c ee88 5bbc 3e1d 0f3d 907a 423d
00000030: 6260 76bd c785 983d 2065 7ebd 7c04 213d
00000040: 2a00 853d 57a8 9fbd d4fb 773d 415a e2bc
00000050: 4226 9b3d cad8 0abc d96e 0d3d 8f8c bd3d
00000060: 4bc3 7a3d 84ae a03d 2cad d5bc 15d7 24bd
00000070: 8de4 8fbc e2f4 173c ade4 30bc fb96 8ebd
00000080: bd90 d93c a0bf f63c 36c0 653c c378 69bd
00000090: e019 1dbd 1d89 d93c c567 84bd 981c 903d
000000a0: 8d8b 12bb ae6b a33c d721 673b 12a1 1e3c
000000b0: 0a3a 723c aa3d a53d 84f1 8a3d 881a 84bd
000000c0: f6e2 233d e95e 8f3d c252 b9bc e19f 87bd
000000d0: 4408 5839 c9fb a3bd 684c 83bc 7203 c53c
000000e0: 8800 6abc 21d7 73bd cf30 d1bc 82a7 d63c
000000f0: f1cb 3dbc 2f22 9b3d 789f 4fbc 4ee9 67bd
00000100: 9120 96bd be17 bdbc 5dca a73d 444c 133c
00000110: c1e1 9b3d a4ed cc3c baa1 95bc ef90 783d
00000120: 2103 b83d 3e72 313d c708 cd3b 472b 8cbd
00000130: ae16 92bd fca3 f4bb a2d1 9a3d d792 3fbc
00000140: 7ecd 873d d0b2 0c3c 980f 25bc 1168 95bd
00000150: a911 b23c 0b5d f1ba ca2a 54bb 7b3e 313d
00000160: 5173 b13d b884 513c ce05 84bd c09d 6abd
00000170: 87ea 933d 6a52 9ebb fa09 9e3c a3ac 6dbb
00000180: b115 68bd fb7a 88bd cee4 2bbc b385 24bd
00000190: f3cf 39bd cbfa 343d e068 aabd 2d0b 5bbd
000001a0: a76d 8bbd f552 42bd 5c31 723d 7aee 943d
000001b0: 3387 56bc 481e c83b ca92 f3bb 9b3a 57bd
000001c0: f630 abbc 81f4 283d 1092 90bb 98e3 d5bc
000001d0: 50cc 303c 8f2d 553d 9110 48bc 4a69 d5bc
000001e0: a039 78bd 0997 933c 8572 ee3a be61 32bd
000001f0: 63fa c5bd 95c9 de3b 0bd3 a23c c533 87bd
00000200: df31 243d 9707 aebb 5991 32bb 2acb dc3d
00000210: 9f22 5fbd 0ad4 983c 6a83 ce3c d59a 083d
00000220: 886e 8f3d c631 b33d 8acb 2f3c 3254 c8bc
00000230: 3a27 9e3d aa8f 693d a4a9 b3bc 71f2 5cbd
00000240: 098e 1a3d 19dc d0bc c6f9 333d 9aca 553c
00000250: f9fa be3c b071 e93c 4ad7 49bd c71f 2c3d
00000260: 7d1f e6bc b151 5fbc 4bc9 ab3c f5f5 c13d
00000270: e522 583d 74b6 d3bc 8b58 25bd aa02 b93c
00000280: 65b1 2b3d 90c3 4abd 749d 32bd ce3a 093d
00000290: 2a56 823c fba6 25bd 2ad6 10bc bc06 023d
000002a0: 9cb3 943d e203 f739 c433 ea3c 4536 b43d
000002b0: e379 843c 1068 58bd e947 86bc 1222 7d3d
000002c0: 2d0d 5abd 9a69 92bc 39f8 943d 713a 8c3d
000002d0: 7a6e 843d 2ac7 0dbd 265b 6a3d 5ce7 adbd
000002e0: 9399 7e3d 9991 6dbd 38dc 143d 51e7 b3bc
000002f0: 86ce cbbc 8299 8d3c c332 b43d b83f b33d
00000300: 26a6 933d 9d2b eabc 034d 9e3d 45ee 9dbc
00000310: bd60 b63d a112 4c3d 4063 823d f5c8 aebc
00000320: 6cdd 93bc fea0 083d 7125 cb3d 0e8a b83d
00000330: 73f5 4cbd f207 24bc 9501 b63d 90bc 483d
00000340: 5450 12bc 438a 70bc 8804 5fbc a3b5 eebb
00000350: 544f 1d3d 6f82 b63d 82af 83bc d3a6 2fbd
00000360: 19fa a23d 421b fabc 70c0 26bd 8c88 963d
00000370: 5cb2 893d f35b 11bd f23c 97bd 5fc9 b5bc
00000380: 012c 1ebc 305d 37bd bf17 70bb f0d4 c83d
00000390: 82ce da3d 6850 8fbb 469e 09bd 8fa6 a73d
000003a0: 57d5 a23c 5831 ffbc 3c47 0a3d 77ad a63d
000003b0: 64e4 013d 1c87 583d 8ffe a73d f7ad c03d
000003c0: 469d 2d3d e510 04bd 8d4b e13c ae4a 36bc
000003d0: 61c0 83bd e265 53bd 6d66 ab3d 03bf ba3c
000003e0: b7c5 5abd 9e05 973d 84bd c03c 82a4 2abd
000003f0: 9f46 bb3c 3b6c 68bd c3b6 a2bd 9ce2 ae3c
0.07196041 0.041617572 -0.019716136 -0.06996881 -0.05558415 -0.021336852 -0.0605501 -0.011454172
0.026024546 -0.013399346 0.034939997 0.047480166 -0.06015051 0.07447391 -0.06210816 0.039310917
0.06494172 -0.0779578 0.060542896 -0.027630927 0.075756565 -0.008474538 0.03452954 0.09255325
0.061221402 0.07845786 -0.026083551 -0.04024418 -0.017565036 0.009274693 -0.010796708 -0.06962391
0.026558274 0.03012067 0.014022877 -0.056999933 -0.038354754 0.026554639 -0.06465105 0.07036704
-0.002236101 0.019948807 0.0035267973 0.009681957 0.014784345 0.08068402 0.06784347 -0.06450373
0.04001137 0.070005246 -0.02262247 -0.06622291 0.00020602444 -0.080070086 -0.016027644 0.024049494
-0.014282353 -0.059531335 -0.025535969 0.02620292 -0.011584268 0.075748794 -0.012672298 -0.05661898
-0.0733043 -0.02308261 0.081928946 0.008990351 0.076114185 0.02501566 -0.018265594 0.060685094
0.08984972 0.04332184 0.00625715 -0.06844192 -0.07133232 -0.0074658375 0.075595155 -0.011692724
0.066309914 0.008587554 -0.010074519 -0.0729524 0.021736937 -0.001841457 -0.0032374137 0.043272477
0.08664573 0.01278799 -0.0644642 -0.05727935 0.07222467 -0.004831602 0.019291867 -0.003626623
-0.05666131 -0.06664082 -0.010491563 -0.040166568 -0.04536433 0.044184487 -0.083207846 -0.053477455
-0.06808024 -0.047442395 0.059129104 0.07272048 -0.013093757 0.0061071254 -0.00743327 -0.052546125
-0.02089737 0.041248802 -0.0044119433 -0.026109502 0.010790899 0.0520454 -0.012210981 -0.026051182
-0.06060183 0.018016355 0.0018192088 -0.043550245 -0.09666898 0.006798933 0.019876024 -0.06601671
0.040086623 -0.0053109634 -0.0027247278 0.10780938 -0.054476377 0.018655796 0.025209147 0.033350784
0.07003504 0.08749728 0.01072968 -0.02445421 0.077223256 0.057021774 -0.021931477 -0.053942148
0.03773311 -0.025495576 0.043939374 0.013048792 0.023313032 0.028496593 -0.04927758 0.042022493
-0.028091187 -0.013630317 0.020970007 0.09470741 0.052767653 -0.025843836 -0.040367644 0.022584278
0.041917223 -0.04950291 -0.04360719 0.033503346 0.015910227 -0.040442448 -0.008840123 0.031744704
0.0726082 0.00047114404 0.028589137 0.087994136 0.016171401 -0.052833617 -0.016391711 0.06180007
-0.05323522 -0.01787262 0.07273907 0.06847084 0.06466384 -0.034613766 0.057215832 -0.08491394
0.06215818 -0.05800018 0.03634283 -0.021960886 -0.024878751 0.017285112 0.087987445 0.08752388
0.07209425 -0.02858525 0.077295326 -0.019278655 0.0890517 0.049822453 0.06366587 -0.021336058
-0.018049918 0.03335666 0.09919251 0.09010707 -0.050038766 -0.01001166 0.088870205 0.049007952
-0.0089302845 -0.014681402 -0.01361192 -0.0072848364 0.03840573 0.08911597 -0.0160749 -0.042883705
0.079578586 -0.030530576 -0.040710866 0.07350263 0.067234725 -0.03548808 -0.07384671 -0.022190748
-0.009654046 -0.044766605 -0.0036635248 0.098062396 0.106839195 -0.004373599 -0.033598207 0.081860654
0.019877119 -0.031151459 0.03375934 0.081385545 0.03171195 0.052863225 0.0820285 0.09408181
0.042386316 -0.032242674 0.027501846 -0.011126203 -0.06433178 -0.051610835 0.083691455 0.02279616
-0.05341121 0.07374118 0.023527868 -0.041660793 0.022860823 -0.05674384 -0.07945015 0.02134829

sequential_3/conv2d_2/Conv2D f4 [64, 3, 3, 64]
00000000: e96d 2a3d 319f 5cbd c734 f63c c484 1fbd
00000010: fdab c73c 9d51 7bbd 2f65 5abd 25da 14bd
00000020: 9ec3 84bd 2955 f43c 6e43 33bb 4829 30bd
00000030: c1a8 01bd b280 82bd e0a4 e53c 3fbf 7d3d
00000040: e33e 5e3c da30 463d b4c2 3d3d 90ee 813d
00000050: 59f0 0d3c d8e5 83bd 5825 9f3c 3a72 353b
00000060: 11c7 39bd e700 65bd 0ded 72bd 3c09 40bd
00000070: d85d 2c3c d27f a23c f22b 843a 8659 cc3c
00000080: e2c8 2b3d f6b5 21bd 44d4 803d bc77 e4bc
00000090: dfa1 f73c 106c 583d 9591 5e3d 10b8 a5bc
000000a0: f768 25bd d917 4b3d 6b58 84bd c437 243c
000000b0: 6ea4 e2bc 33cc af3c 5311 6a3d aa63 8a3c
000000c0: fd5c 89bd b156 dc3c 9f3d 113d a75d 383d
000000d0: fa9a 073c d083 33bd 3f73 7c3c 76c3 4cbd
000000e0: 3269 a33d 254c 2abd af7a 55bd db4d 93bb
000000f0: b58a c03c 2cb2 943c e8db ac3b 0caa 3ebd
00000100: e936 7f3b 6f7a 54bc e9b0 f23b 7593 81bd
00000110: 105f 16bd 3cf4 9cbd 1f9b 58bd 5e8e 5b3d
00000120: 7172 c23c 2f74 79bd cd1d 673d 6a1e 2ebd
00000130: d084 1a3d b23f ef3c a75a 16bd 2217 d33c
00000140: 6fb4 2b3d b050 99bd e3fd efbc cbe9 fdbc
00000150: 48c1 60bd c114 6d3d e4d2 debc 0b3a 34bd
00000160: b7f1 773d 4148 9bbb fe0f 39bd fde2 3dbd
00000170: 0946 ab3c 8aca 843d 295e 673d e954 aa3c
00000180: c73a 2f3d c8e3 1e3d 1bc6 32bd 7833 26bd
00000190: d509 e5ba 3a00 dd3c 1f33 883c 4e98 e0bc
000001a0: 3886 5a3d c5a3 a5bd e546 863d 853e 3c3d
000001b0: 9c01 7bbd 9dc6 02bd 0003 0bbc 8c76 2a3d
000001c0: 595a 80bd 70b5 37bb a549 a3bc c966 31bd
000001d0: 8b47 0f3d 5073 98bd 3c62 293c 3019 8d3d
000001e0: b459 c7bc 48d5 4e3d 9c63 393c fe48 7a3d
000001f0: a0b1 2bbd 347e 43bd ca06 83bc 7834 ab3c
00000200: 9bd9 453d f631 0fbd cd77 9fbc 5a01 363d
00000210: b9fd 65bb 87f2 26bd fbbd 4dbd 2095 f03b
00000220: e085 a4bc b93a c5bc 0e2e ef3c 5130 11bd
00000230: ce91 d03c 0f6f 4dbc d64a 82bd 5104 5b3d
00000240: 8a29 52bd 9c1b a13c 584e 753d f8c6 f73a
00000250: 3ffe b53c 6bfd 893c 2155 ba3b cb4b 54bd
00000260: b597 4f3d af8b 16bd ada0 21bd ac08 95bd
00000270: 718d 97bc 91c8 91bd ff47 97bd 8515 95bc
00000280: 96ed 6f3d 2c4b a73c 89ab 4dbd 39cb 4ebd
00000290: 3636 20bc efb2 23bd 9c7c 87bd 04e5 1ebd
000002a0: 6474 0fbd e537 47bc 35b2 84bd c41e 823d
000002b0: c5ba 383d 8bcd abbc 113d 013c 7124 7b3d
000002c0: 16c5 da3b 1697 dbbc beeb 98bc e493 ea3c
000002d0: 435c 0ebb 74a1 44bd 5aa9 1a3d 3a3a 8d3d
000002e0: 6ad3 153d 1e97 8ebb 14f9 08bd 32fb 6bbd
000002f0: a0e2 0fbd 20c5 403d 704f 493d 8b22 823d
00000300: 1b96 c43b 273b 0abc 1052 6dbd 206c 96ba
00000310: 4201 36bd 8543 3e3d 9d6a e3bb 3d73 2f3d
00000320: 7a7d 913d 1c6f f4bc e3f8 5ebd 815d 1fbd
00000330: 3e57 f6bc 63a3 21bd d90e 5d3d 1a9f 75bc
00000340: c222 36bd 33b4 f23c 31a7 0ebd 2290 62bd
00000350: a8dc 663d b070 47bd 22fe 19bd 81da 343d
00000360: e443 9fbc 38b2 cb3c 4ffd 82bc 6937 00bd
00000370: d2ca 513d 415a f1bc 2abc 823a 4132 7bbc
00000380: d76f 983c 3a9c 18bd 7c32 573d 6d69 82bd
00000390: 8362 4fbd b8c9 5f3d dfb5 5e3d f4f0 bcbc
000003a0: 5139 073b 22ff bbbc 4612 293c 2ff5 e23c
000003b0: d0e3 51bd 3c23 853d 5e8d 4abd 58c7 86bd
000003c0: fffb 05bd 9984 35bc 6867 653c f2bc cdbc
000003d0: 3c52 52bc e9b4 173c 4de1 29bd 5afa 58bd
000003e0: b6ac 873d f876 80bd 3ee4 23bd 250b 9d3c
000003f0: d701 4dba 0a7a b1bc d526 05bd 8b5c 033d
0.041608725 -0.053862754 0.030054463 -0.038944975 0.024374003 -0.06135713 -0.053319152 -0.03634085
-0.064826235 0.029825764 -0.0027353424 -0.04300812 -0.031655077 -0.06372203 0.02803272 0.061949965
0.013564798 0.048386432 0.04632826 0.0634433 0.00866326 -0.064403236 0.019426987 0.0027686493
-0.04535586 -0.055909064 -0.0593081 -0.046883807 0.010520421 0.01983634 0.0010083898 0.024945032
0.041939624 -0.039480172 0.062904865 -0.027889125 0.030228553 0.05283743 0.054338057 -0.02022937
-0.040383305 0.04958329 -0.06462177 0.010023061 -0.027666297 0.021459674 0.057145428 0.016893227
-0.06707189 0.026896806 0.035459157 0.04501119 0.008276695 -0.043826878 0.015408336 -0.049991094
0.07979049 -0.041576523 -0.052118953 -0.004495365 0.02350364 0.018151365 0.0052752383 -0.046548888
0.003894264 -0.012968644 0.0074063432 -0.06326953 -0.036711752 -0.076637715 -0.05288231 0.05360257
0.02373621 -0.060901817 0.056424905 -0.042509474 0.037724316 0.029205177 -0.036707547 0.025767867
0.04192012 -0.07486093 -0.029295867 -0.03099527 -0.054871827 0.05788112 -0.02720017 -0.044000667
0.06053325 -0.004738838 -0.045181267 -0.04635905 0.020907419 0.06483944 0.056486282 0.020792441
0.042780664 0.038791448 -0.04364596 -0.04057643 -0.0017474244 0.026977647 0.016625939 -0.027416375
0.053350657 -0.08087877 0.06556491 0.04595806 -0.06128083 -0.031927694 -0.008484602 0.04161696
-0.062672324 -0.002803173 -0.019932577 -0.043310914 0.034980338 -0.07443869 0.010338362 0.0688957
-0.024334766 0.05049637 0.011315253 0.061104767 -0.041917443 -0.04772778 -0.015994448 0.020899042
0.048303228 -0.034959756 -0.019466305 0.044434883 -0.0035093857 -0.040758636 -0.050230008 0.007341996
-0.020083368 -0.024075853 0.029196765 -0.03544647 0.02546015 -0.012538685 -0.0636193 0.053470913
-0.051309146 0.019666485 0.059889168 0.0018903902 0.02221596 0.016844472 0.0056864177 -0.051830094
0.05068179 -0.036754306 -0.039459873 -0.07277045 -0.018500062 -0.07118333 -0.07386779 -0.018198738
0.05857619 0.020421587 -0.050212417 -0.050486777 -0.00977855 -0.039965566 -0.06615564 -0.038792625
-0.035023108 -0.012159322 -0.06479303 0.06353524 0.045099992 -0.020972034 0.0078880945 0.06131405
0.0066763265 -0.026805442 -0.018667098 0.028634973 -0.0021722473 -0.048005536 0.037759162 0.068958715
0.036578573 -0.0043515107 -0.033440664 -0.057612605 -0.035128236 0.047062993 0.049148023 0.06354245
0.0059993393 -0.008436955 -0.05793959 -0.0011476316 -0.044434793 0.04645111 -0.0069401995 0.04283451
0.07104011 -0.029838137 -0.054436576 -0.03890753 -0.030070897 -0.03946246 0.053969238 -0.014991546
-0.04446674 0.029626941 -0.034827415 -0.055313237 0.056362778 -0.04869145 -0.037595876 0.044153694
-0.019441552 0.024865255 -0.015989928 -0.031302843 0.051218815 -0.029461982 0.000997429 -0.015331806
0.018608017 -0.037258364 0.05253838 -0.063677646 -0.050631057 0.054635733 0.054372665 -0.023064114
0.0020633528 -0.022948805 0.010319298 0.027704803 -0.05124265 0.06500861 -0.049451225 -0.065809906
-0.032711025 -0.011078977 0.014001705 -0.02511451 -0.012836989 0.009259441 -0.04147463 -0.05297313
0.06624739 -0.062726915 -0.04001259 0.019170353 -0.00078204036 -0.021664638 -0.032507736 0.032070678

sequential_3/conv2d_3/Conv2D f4 [64, 3, 3, 64]
00000000: db7b 2bbd 21a6 92bd ee50 f6bb a9d8 553c
00000010: 07ac 3b3d a475 433d accf 0dba b332 ebbc
00000020: 0d78 90bd 1d43 5b3d 3664 223c 6a75 07bc
00000030: ba76 25bd 2c7f a73c 5840 32bd 2215 67bd
00000040: 4988 5a3d e8ba b0bd 41cd 8e3d 7d36 f53c
00000050: b07d 793b ac50 57bd 25c9 b6bc 99b5 19bc
00000060: 1c43 6d3d eee0 5abd 3975 3dbd 7340 2b3c
00000070: bf95 6c3d 8344 b53c 97c5 b9bc 1d74 923c
00000080: e9fd c13c ee4b 513c 4a04 9abc ce17 b23c
00000090: e98c 613d 6c21 98bd ec97 5ebd bec0 3bbd
000000a0: 3d6b 793d 32b2 e8bc 4f68 a8bb 7822 723c
000000b0: 1d52 08bd 933c 6ebd 3295 3fbd 3a95 27bd
000000c0: c5a3 ad3c 180f a23c 3294 d13b da96 143c
000000d0: 8377 673d 28de 653d 4a81 7b3d 74c9 f6bc
000000e0: bee0 82bd b8b4 2ebd 63ad 12bc 97e7 d73c
000000f0: df2b 403d 3804 f2bc 3913 8fbd 20e1 1fbd
00000100: ba2d 883c 570a 653d 6679 ffbc da00 833c
00000110: be06 bebc 096c 51bd 1b48 8c3d 337b d13c
00000120: 5cd7 36bd f141 96bd 4a88 86bc a58e 493a
00000130: 7efc 6bbd 7a2d 61bd b6dc 5dbc 0213 2fbd
00000140: e1ee a83c 1f9d ccbc b90d 683c 2ae1 57bc
00000150: 407c 85bc b82d 6cbd 2b64 1b3d 8f09 04bd
00000160: d780 ddbc 717f 54bd de3c 313d 9e8a 873d
00000170: f731 4d3d a439 68bd f259 1abc 976f 513c
00000180: a0a0 84bd 4688 473d d873 75bd caa0 05bd
00000190: d4c9 2d3d d779 89bd 3f55 fa3c 61eb 113d
000001a0: 9e8c 923d 8dcf 803d 3f79 643d 5e2e 8c3d
000001b0: d7cd 3a3c 5ea0 1d3a 1be8 b1bc cd96 1c3d
000001c0: b39c c9bc e3b9 823d 5853 4a3c 652e db3c
000001d0: 51d7 8ebc 2893 62bd eda5 8e3d 788a 9b3c
000001e0: 7e0e cb3c 9f41 af3c 62f5 e03c 1448 30bd
000001f0: 25ad 863d a5ae 6dbb 5b51 403d 3319 4c3d
00000200: fd13 4d3d 7485 b8bb aafd 833d f47f a9bc
00000210: 7dd3 06bd 183e 98bc 19c7 a1bd 475a 203d
00000220: 5c46 1abd 9fbd 2dbd 7e7d 27bd 5f07 453d
00000230: 189b 9abc 0098 f639 3d87 e93b 0fc3 1f3c
00000240: 3ca4 42bd 3495 2dbd c9fe 213b d18a d23c
00000250: bc38 48bc 52b7 07bb 025b d43c 63e6 ef3c
00000260: 0a32 423d db9f 993d d5e7 a23b f3b7 8f3c
00000270: 6aa8 87bd 995f 7f3d b0e6 b93c bb39 b1bc
00000280: e108 51bd 890d 25bd c41e df3c 71da 32bb
00000290: 7c76 5b3d 8dde 463d aa52 d33c 3237 443d
000002a0: cb36 2abd c13c 91bd 2a22 643d 2524 90bd
000002b0: f6b1 b73b 427a 58bd 3481 aeba 754d 803d
000002c0: 5950 8f3d af91 063c 006c 303d 56f1 ad3c
000002d0: e748 903c 9d80 c93b 66e1 01bd 23c7 a73c
000002e0: 8eab b2ba 5005 a83c 5d18 67bd 43d7 183d
000002f0: c1ce 493d b0f4 0a3d 6c64 86bd b533 ae3c
00000300: 7ccc 8a3d 7b89 5fbd 61dd 6ebb cbc6 55bd
00000310: e3cb 563d 0c32 44bd 4973 93bb 8408 143d
00000320: be1d f4bc 6fcc 09bd a5cc cbbc 7d5c ea3c
00000330: 9cff 59bd 253c 7cbc 198c 3abc 2574 f83b
00000340: 7e02 c3bc 3239 653c d831 8c3c 07dc 7d3d
00000350: 0c80 69bc 2c19 523d f4a4 623d 5b76 833d
00000360: b21e bc3b 0a25 e43c 4b6f 293d b1ac 5ebd
00000370: 5382 803d adb0 88bd c7f1 88bc 69c9 f63c
00000380: a625 033c dd9f a5bd e413 823c 9af8 3f3d
00000390: 4da1 123d 4afb d83c 8595 39bd e120 92bd
000003a0: 9c6e 44bd 0efe 4abd b9d9 773d 02e8 50bd
000003b0: d05e 3a3d d8bb b93c 7425 d0bb 6f5d 1d3d
000003c0: 1bf4 2cbc 4181 39bb 3453 93bd acb0 c33c
000003d0: 0049 8a3d 3623 85bd 76de c5bb 9575 383c
000003e0: 438e 8fbd c550 2a3d 4958 853d 1c17 92bd
000003f0: 651e 7bbd f0a7 6f3c b4cd 4cbd 3060 d53b
-0.041866165 -0.07160593 -0.007516972 0.013052144 0.045818355 0.047719613 -0.00054096687 -0.028710699
-0.07054148 0.0535308 0.009911587 -0.00826774 -0.04039643 0.020446382 -0.043518394 -0.05641664
0.053352628 -0.086293995 0.06972743 0.029933209 0.00380693 -0.05256717 -0.02231271 -0.009381675
0.05792533 -0.053437166 -0.04625437 0.010452378 0.057759997 0.022127395 -0.022677226 0.017877633
0.023680644 0.012774451 -0.018800873 0.021739867 0.055066023 -0.0742825 -0.054344103 -0.04583811
0.060893286 -0.028405283 -0.0051393877 0.014778726 -0.033281434 -0.058163237 -0.046773143 -0.040913798
0.021196255 0.019782588 0.00639584 0.009069169 0.05651046 0.056120068 0.061402597 -0.030125357
-0.063905224 -0.042652816 -0.008952471 0.026355548 0.04691684 -0.029543027 -0.06986088 -0.039033055
0.016623367 0.055918064 -0.031185817 0.015991617 -0.023196574 -0.05112842 0.068496905 0.025571441
-0.044638976 -0.07336796 -0.01642241 0.0007688797 -0.057613842 -0.05497501 -0.013541391 -0.042742737
0.020621719 -0.024977265 0.014163428 -0.013176242 -0.016294599 -0.05766079 0.037937324 -0.03223568
-0.027038975 -0.05187935 0.043270938 0.06618236 0.05009648 -0.056695595 -0.009420859 0.012782953
-0.06475949 0.048713945 -0.05992493 -0.032624044 0.042428806 -0.06712692 0.030558227 0.035624865
0.07155727 0.06289587 0.05577969 0.06844781 0.011401615 0.0006012971 -0.021717122 0.038229752
-0.024610853 0.06383111 0.012348972 0.026755521 -0.017436655 -0.05531612 0.069652416 0.018986925
0.024787184 0.021393595 0.027460758 -0.04303749 0.065759934 -0.0036267426 0.046952587 0.04982872
0.05006789 -0.005631143 0.06444867 -0.020690896 -0.032916535 -0.018584296 -0.07899303 0.039148595
-0.037664756 -0.042417165 -0.040891163 0.048102733 -0.018872783 0.00047034025 0.0071267174 0.009751095
-0.047519907 -0.04237862 0.0024718514 0.025700958 -0.012220558 -0.0020708633 0.025922302 0.029284662
0.047411002 0.07501193 0.004971484 0.017543769 -0.06623919 0.06234703 0.022693008 -0.021633973
-0.05103386 -0.04029611 0.02723635 -0.0027290846 0.053579792 0.048552085 0.025796253 0.0479042
-0.04155616 -0.07091666 0.055696644 -0.07038144 0.0056059314 -0.05285097 -0.0013313652 0.06264774
0.06997747 0.008213445 0.043071747 0.021233242 0.017612888 0.006149365 -0.031709097 0.020480698
-0.001363145 0.020510346 -0.05641972 0.037314665 0.04926944 0.03392476 -0.06562123 0.02126489
0.067772835 -0.05457447 -0.003644787 -0.052191537 0.052440535 -0.04789929 -0.004499827 0.036140934
-0.029799338 -0.03364223 -0.024877856 0.028608555 -0.053222284 -0.015395199 -0.011385941 0.007582205
-0.0238049 0.013990687 0.017113611 0.061977413 -0.01425172 0.051293537 0.055333093 0.06419059
0.005740964 0.027849693 0.041365903 -0.05436391 0.06274857 -0.06674323 -0.01671685 0.030125337
0.008004582 -0.08087132 0.015878625 0.046867944 0.03579836 0.026487011 -0.04530861 -0.071351774
-0.047957048 -0.04955869 0.06051037 -0.05100251 0.045500576 0.022672579 -0.006352121 0.038419183
-0.010556246 -0.00283058 -0.07193604 0.023887955 0.06752205 -0.065008566 -0.0060384823 0.0112585025
-0.07009556 0.041580934 0.0651098 -0.07133314 -0.061308283 0.014627442 -0.05000086 0.0065117106

sequential_3/conv2d_4/Conv2D f4 [64, 3, 3, 64]
00000000: 22a6 1abc 8f4a e53b 1474 45bd ec30 8c3c
00000010: 7eed 7e3d dd7e b1bb 3bdb 84bd 889c ecbc
00000020: 0d1c aabc 1f03 463d b692 5fbd 6375 8cbd
00000030: 48a3 64bd 1972 c8bc 78bc c4bc 9329 b23c
00000040: 4866 92bc a55a 7ebd 3432 12bd 38e0 0e3d
00000050: 9699 3b3b 46c1 ca3c afe2 5e3d 5f8d f6bc
00000060: 482a 29bd 670c 1dbd a0ce 693c 1c59 143d
00000070: a73a 053d f396 5b3d b2fc 9c3c 2808 1e3d
00000080: d52b 043d 5c69 9fbd 6654 053d 9709 91bd
00000090: ec09 37bd 0ec2 823d 12b7 013d 503c 20bd
000000a0: b3ca e6bc 0de5 a5bc 62af 213d f2a5 52bc
000000b0: 2205 03bd 9b3f 163c bc77 ff3c 3594 22bd
000000c0: bfd7 6f3d 80db 183d 1d85 7a3d a2c5 6e3d
000000d0: 04cc a73d 8c79 0cbd 96be d43b ed06 743d
000000e0: 29fb 153d acef 53bd 49bb 0bbd b828 8ebd
000000f0: 2f15 093d 971e 30bd dec7 0cbd f263 89bd
00000100: 1261 0dbd f2e8 513d b11f 38bd a47b 85bd
00000110: a671 1e3d 5be2 863d 237a 703d f90c 4ebb
00000120: 310a 87bc 56d0 b23c c3ef 1dbd aacf 533d
00000130: fc4e 82bc 832e a6bd 3d2a d63c a892 1a3d
00000140: dfb8 aabd 9305 b53b cdbb 493d a975 b43c
00000150: 0c9a 643d f445 f73c 8a1d 1a3d 01f3 6dbc
00000160: 0057 943b 46dd 76bd ef2b 2cbd 730b d73c
00000170: 83ca 2d3c 7cb6 a5bb 8864 4a3d 40e4 98bc
00000180: 696d 673d 813d eb3c 1119 633c 7c67 343c
00000190: e839 893d ea92 af3c 3e52 a83c 8118 0dbd
000001a0: cd48 463d 227d 1b3d ab88 4fbd e524 d63c
000001b0: 6612 e4bc 70b0 f6bc e9a5 3b3b 3e4c a83b
000001c0: 4618 8eb9 f751 313d c8a8 1d3d cb31 00bd
000001d0: 9f45 2cbd db54 8dbd 2b78 2c3d 3f90 a6bc
000001e0: 2878 813c 33d9 45bd 664b 83bd 479b d93c
000001f0: 0d89 da3c ba0d ba3c c298 8d3b 2b9b 5f3d
00000200: 2c27 0bbd 652d ce3b 5f6b 293d 8feb e7bc
00000210: 0507 94bd 388e 83bd b5fc 57bc 95e5 ed3c
00000220: 62be ac3c 2271 903c a96f 6d3d e6d3 703d
00000230: 5406 903d 9a4c 46bc 46cf 353d 1071 7ebd
00000240: 5047 193c 2f95 1dbd e742 953c 49e1 5ebd
00000250: be94 f9b8 aa8f 4abc d409 72bd 4492 853d
00000260: 3c1e 9b3d d424 8a3b 7452 343d 150a 71bb
00000270: d2d9 b43c 9989 98bb dfb4 69bc 01d1 65bd
00000280: d559 dcbb 7981 0c3d 27eb f6bc 1b42 21bd
00000290: 63da 2a3d 7292 863d 3688 b03c 564d b03b
000002a0: 8168 b1bb 5bf8 093c e800 8d3d a708 0a3d
000002b0: e7f6 82bc c975 f4bb 898c 69bc 5eb9 42bd
000002c0: 3bd9 2839 3fa5 0abd 0f86 18bd f9be 2ebb
000002d0: 7cca 903d 4f6e 0fbd 54b9 663d 2309 81bd
000002e0: 6fa1 20bc 7469 113d 3cca 07bd 8135 4c3d
000002f0: 7dc2 6c3c 2961 a83c 82f8 d2bc bcea a1bc
00000300: 7bf1 253c 7097 91bd 0645 e2bc 308d 92bb
00000310: 3b4e 22bd e9ac 843d 6626 0e3d 5375 5fbd
00000320: 8358 8a3d ab57 483d d907 67bd ba39 0dbd
00000330: c833 e73c 0726 95bd c3e6 e23b 68f6 39bb
00000340: 0f05 87bb 46d1 82bd a33d 163b 5b36 7d3d
00000350: 2986 73bc 4a38 27bd e1cb 8fbd 6dc3 51bd
00000360: d891 c5bc 65ed 5bbd 903e 99bd 5592 08bd
00000370: 203e a9bd 1f14 23bc 554b 11bb f9e8 6fbd
00000380: a7c0 0fbd 716e 313d 4f28 673d 9911 28bc
00000390: b347 f63c 740a c0bc 6bde 16bd 659f 7bbd
000003a0: 01c2 22bb 1d0b 3ebd cd38 1abd 662c 263b
000003b0: 45d9 503d 2636 d83c 553c 48bd fc5b 183d
000003c0: d83e f0bc b92e 413d 8004 edbc d6a2 f83b
000003d0: 6f1e 93bd 1b13 233d 97bb 68bd b5b2 353d
000003e0: 3268 d83b 67b7 8f3c 75da 6dbc 0d20 813d
000003f0: ebdd 4b3d bc5f cc3b e9a3 7e3c 06f9 c539
-0.009439023 0.0069974135 -0.048206404 0.017113172 0.06223821 -0.0054167346 -0.064871274 -0.028883234
-0.020765329 0.04834282 -0.054583274 -0.06858327 -0.05581978 -0.024468469 -0.02401565 0.02174834
-0.017871037 -0.062098164 -0.03569241 0.0348818 0.002862548 0.024750363 0.0544154 -0.030096708
-0.04130009 -0.038341906 0.014270455 0.036217794 0.03252664 0.053610753 0.019163463 0.038581997
0.032268364 -0.077837676 0.03255119 -0.07081907 -0.044687197 0.06384669 0.03166873 -0.03912002
-0.028172826 -0.020250821 0.0394739 -0.012856947 -0.031987317 0.009170438 0.031185023 -0.039692122
0.05855536 0.037318707 0.061162103 0.058293946 0.0819321 -0.034295604 0.006492446 0.059576917
0.036616478 -0.05174224 -0.034114156 -0.0694136 0.033467468 -0.042997923 -0.034370296 -0.06708516
-0.0345164 0.051247545 -0.0449521 -0.06517723 0.038682602 0.06586143 0.05871023 -0.0031440838
-0.016484352 0.021827858 -0.038558733 0.051711716 -0.015906803 -0.0811434 0.026143188 0.03773752
-0.083360426 0.005524346 0.049251366 0.022028761 0.055810973 0.030184723 0.037625827 -0.014523269
0.004526973 -0.060269617 -0.042034086 0.026250577 0.010607365 -0.005057154 0.04941228 -0.018663526
0.056500826 0.02871585 0.013860957 0.011011001 0.06700498 0.021432359 0.020547029 -0.034447197
0.048409272 0.037961133 -0.050667446 0.02614064 -0.027840804 -0.030113429 0.0028632826 0.005136042
-0.00027102436 0.04329106 0.03849104 -0.031297486 -0.042058583 -0.069009505 0.04210679 -0.020332454
0.015804365 -0.04830284 -0.064108655 0.0265633 0.026676679 0.022711623 0.0043211887 0.05459134
-0.033972904 0.0062920325 0.041362163 -0.028310565 -0.07227901 -0.064236104 -0.013182809 0.029040137
0.021086875 0.01763207 0.057967816 0.058795832 0.07032457 -0.012103224 0.044387124 -0.062119544
0.009355381 -0.03847235 0.018220378 -0.054414067 -0.000119009506 -0.012363354 -0.059091404 0.065220386
0.07574126 0.004215816 0.044023946 -0.003677969 0.022076521 -0.004655075 -0.014264314 -0.056107525
-0.006724576 0.034303162 -0.030141426 -0.039369684 0.041712176 0.06570901 0.021549325 0.005380313
-0.005414069 0.008421029 0.068849385 0.033699658 -0.015986873 -0.00746033 -0.014254698 -0.04754006
0.00016102653 -0.033848997 -0.037237223 -0.0026664122 0.07069871 -0.035017308 0.056329086 -0.06300571
-0.009804114 0.03550096 -0.03315185 0.049855713 0.0144506665 0.020554142 -0.025753263 -0.01976525
0.010128374 -0.071089625 -0.027620804 -0.0044723973 -0.039625388 0.064782925 0.03470459 -0.05455525
0.067551635 0.04891173 -0.05640397 -0.03447888 0.028222933 -0.07282644 0.0069244816 -0.002837563
-0.004120476 -0.06387572 0.0022924922 0.061819416 -0.014863529 -0.040825166 -0.07021309 -0.051211763
-0.024117395 -0.053693194 -0.07482636 -0.033342678 -0.082638025 -0.009953528 -0.0022170146 -0.05857179
-0.035095837 0.043318216 0.056434926 -0.010258102 0.030063486 -0.023442484 -0.036833208 -0.061431307
-0.0024834874 -0.046397317 -0.037651826 0.0025356053 0.050988454 0.026393007 -0.048885662 0.037197098
-0.029326841 0.0471637 -0.02893281 0.007587771 -0.07183539 0.039813142 -0.056819525 0.04435988
0.006604218 0.017543508 -0.014517416 0.06304941 0.049772184 0.0062369984 0.015542009 0.00037760305

sequential_3/conv2d_5/Conv2D f4 [64, 3, 3, 64]
00000000: 825a 2c3d 553d 1e3c 6058 27bd 1f57 723d
00000010: 240c 8a3c be43 b53c 3238 c7bb e227 39bd
00000020: ad09 95bc 8c70 76bd a8fd 9d3d 1ea1 34bc
00000030: 60e0 b13c 0128 513d 440c a3bd 9776 25bb
00000040: 8c71 e43b 4667 24bd ce3f b73c 926c 5cbc
00000050: 5ae0 74bb 84ea 9eb9 95f3 18bd 856d 133d
00000060: af1c 89bc 3d0d 733d e81a 293d d15c 3cbd
00000070: c1da 24bd b4a8 343d 920e 82bd 819e 06bb
00000080: 085e 8ebd 5cf4 4a3c d257 573c 88e1 b5bc
00000090: 2b45 633d 2ac1 87bc 2143 103d dcd6 27bd
000000a0: eb1c 0c3d d31f 0fbd 31ca 813d 86b3 813d
000000b0: c8e1 28bc 59e5 6fbd e97e 383d 5c94 a7bd
000000c0: 4f85 febc a5f7 923d cd0b 4abd ea90 29bb
000000d0: 55de 89bd 37bc 883d 5f50 163d 2bea 8b3a
000000e0: d44b a1bd f470 40bd 1ee7 f9bc 65a3 adbb
000000f0: 86d6 f33c 4bd3 913c 96be 26bd 3f43 04bd
00000100: 327c 4fbd 2ab9 16bd f7a3 80bd d126 803d
00000110: 39bc 28bd 06f2 c5bb 7649 76bd afbc 8fbd
00000120: e699 98bb a975 83bd be7a 1ebd 40aa 943a
00000130: 70a6 39bd fbb4 08bd 0d29 833d 9705 4cbc
00000140: 374a 93bc e6f3 7e3d 6f48 4cbd e01f 9a3d
00000150: 96b5 18bd a69f 9dbd ad41 143b 6c7c 323d
00000160: d65f 153d d006 153d 1603 49bc d2f4 1bbd
00000170: 20d8 ef3c ba90 9a3d fba4 92bd 21ba 6c3d
00000180: 1c16 67bd b939 4f3d 2f89 bb3c 0977 843d
00000190: 79a3 803d c5ad 7fbd 5d85 9bbd 996b 953d
000001a0: ba2d 07bd 4f41 293c f78f 1bbc 09ed cabc
000001b0: 7a40 55bd e9b1 81bd 97ca 883b 4bce c5bc
000001c0: e4af 32bd f407 76bd e1be fbbc c111 2abd
000001d0: 191c 2abc ed03 8fbd 81c8 a8bd 1cd3 6abd
000001e0: c0f2 2abc d60e 5dbc 331a 6ebd 6e0f 5dbd
000001f0: c8e3 4d3c 6319 a63c c70d 953b 4de5 5a3d
00000200: 92d2 853d c2b9 a83c 3353 8a3d 22de 4dbd
00000210: 1e7c 0bbb 848d f7bc 5705 e3bc f89f 443c
00000220: 3e64 79bd e049 973c 51ef 92bd aa4f c93c
00000230: d5c3 33bd 6af4 52bd 417f 7fbd c555 7ebd
00000240: 6596 28bd 814e 4cbc bdc7 3bbc d74f 30bc
00000250: b6ae 1ebd 5bb8 e83c 7b09 9fbc ff6b 363d
00000260: c4fd 00bd 2783 6bbc cc80 a23c 673e 26bd
00000270: 10f1 673d 2a61 ccbc 8a14 813d a29d 1ebd
00000280: e147 92bc 122e 4d3d 82a3 c5bb f5b5 19bd
00000290: 9f5a 893d f170 933d 7fad 263b c4b9 003d
000002a0: 81ce 96bd 46d2 913c 6ab1 873c 12e5 053d
000002b0: 80fa 1a3d df4d d3ba 5bc5 20bd eaf2 1abd
000002c0: e5eb 80bd 6285 6b3d 3dc6 50bd a750 793d
000002d0: 3676 163d ed23 bc3c 9e32 a53c f25d 6a3d
000002e0: 428d 0a3d 5883 62bb 2e73 43bd aeec 903d
000002f0: cd78 86bc 0625 7c3d 308f 4cbd 01d1 5a3d
00000300: 892d 3f3d e3e7 69bd 3569 8a3d 1ce7 e9bb
00000310: 3567 5abc 14e8 583d 99f5 8f3d 4753 85bd
00000320: d57f e1bc 14b4 953d 0443 c8bc 5db7 903c
00000330: 227e e13c 2ff1 2c3d 29be 0bbc 97b2 62bd
00000340: 4f32 593c 7f74 d03c 9370 c43c ef27 f83c
00000350: b5ae dfbc 8b2f 5dbd 1ab6 f23b ad65 8abd
00000360: c81b 84bd a342 f0bb 4adc 00bd ce85 663d
00000370: dc32 9ebc b2b2 023d 7887 b33b 80ed 033d
00000380: 27d6 9bbd 2d4d 06bd 70c7 59bd 975a 87bd
00000390: 4730 78bd 99e7 85bc 39bd 76bd 61bf 963c
000003a0: 1c68 0ebb 7fd4 6bbd 5f25 63bd 32bd 553d
000003b0: 416a fdbc 4c03 163d 6c4c 57bd 1c5d 4dbb
000003c0: 2acd c93c c106 e23c 082d 86bd d39a 5dbd
000003d0: 137d 13bc ad28 2cbd 7cb4 e1bc 7d7d 6f3d
000003e0: 6e3c f3bc 1e41 f43c e0a2 59bc ca5d 113d
000003f0: 3158 cdbc b06b b1bd f5e6 34bd 2c7a 023d
0.042078502 0.009658177 -0.040855765 0.059165116 0.016851492 0.022127029 -0.006079697 -0.04520405
-0.01819309 -0.060165927 0.07714397 -0.011024741 0.021713436 0.05106354 -0.07961324 -0.0025247687
0.0069715437 -0.04013755 0.022369292 -0.01345362 -0.003736517 -0.00030310836 -0.037341673 0.035993118
-0.01673731 0.059338797 0.041285425 -0.045986954 -0.040247682 0.0441062 -0.06350435 -0.0020541253
-0.06951529 0.012387361 0.013143497 -0.022202268 0.055485886 -0.0165716 0.03522027 -0.04097639
0.034207266 -0.03494246 0.06337393 0.063330695 -0.010307737 -0.058568332 0.045042906 -0.08182594
-0.031069426 0.07176141 -0.04932766 -0.002587373 -0.067318596 0.06676524 0.03669774 0.0010674646
-0.07875791 -0.04698272 -0.030505713 -0.005299019 0.029765379 0.017800948 -0.0407091 -0.032290693
-0.05065555 -0.03679768 -0.06281274 0.06257404 -0.041195128 -0.0060408143 -0.06012865 -0.070184104
-0.004657018 -0.06418926 -0.038691275 0.0011342242 -0.045324743 -0.03337572 0.06404314 -0.012452505
-0.017979724 0.06224432 -0.049873766 0.07525611 -0.03728255 -0.07696466 0.0022622154 0.04357569
0.03646835 0.03638345 -0.012268802 -0.038075276 0.029277861 0.07547136 -0.07160374 0.057794694
-0.05641757 0.050592158 0.022892563 0.06468017 0.0628118 -0.06242158 -0.075937964 0.07295913
-0.033002593 0.010330512 -0.009494773 -0.02477123 -0.052063443 -0.06332762 0.004174541 -0.02414622
-0.043624774 -0.06006618 -0.030730667 -0.041520838 -0.010382676 -0.06983171 -0.08241368 -0.057330236
-0.010433853 -0.013492307 -0.058130454 -0.053969793 0.012566514 0.020275777 0.0045487615 0.053441335
0.06534304 0.020596389 0.0675415 -0.05026067 -0.0021283696 -0.030218847 -0.027712507 0.01200103
-0.060886614 0.018467844 -0.07174552 0.02457412 -0.04388793 -0.051502623 -0.06237722 -0.062093515
-0.041159052 -0.012469889 -0.011461196 -0.010761223 -0.038740836 0.02840822 -0.0194137 0.044536587
-0.03149201 -0.014374531 0.019836806 -0.040586855 0.05662638 -0.024948675 0.06302746 -0.03872455
-0.01785654 0.050092764 -0.0060314545 -0.037527043 0.06706738 0.07199276 0.0025433002 0.03142716
-0.07363606 0.017800462 0.01656409 0.03268916 0.03783655 -0.001612123 -0.039250713 -0.037829317
-0.06294993 0.05750025 -0.050970305 0.06086793 0.03673383 0.02296635 0.020165738 0.0572185
0.03382612 -0.003456315 -0.047717266 0.07076393 -0.016415024 0.061558746 -0.04994124 0.053421978
0.046674285 -0.05710591 0.06758348 -0.007138146 -0.013330271 0.052955702 0.07029266 -0.065100245
-0.027526775 0.07309738 -0.024446018 0.01766556 0.027525965 0.042222198 -0.008529224 -0.055346098
0.013256623 0.025446175 0.02397946 0.03029248 -0.027304986 -0.05400042 0.007406962 -0.06757674
-0.06450611 -0.0073321625 -0.031460084 0.05627995 -0.019311361 0.0319087 0.0054787956 0.03220892
-0.07609206 -0.032788444 -0.053168714 -0.066090755 -0.060592916 -0.016345786 -0.06023905 0.018401803
-0.0021729534 -0.0575757 -0.05545556 0.052182384 -0.030934455 0.036624238 -0.052563116 -0.0031336015
0.024633963 0.027591111 -0.06551558 -0.05410273 -0.009001988 -0.04203098 -0.027551882 0.058469284
-0.029691901 0.029816207 -0.013283461 0.035489835 -0.025066467 -0.08663118 -0.04416557 0.031854793

sequential_3/dense/BiasAdd/ReadVariableOp f4 [64]
00000000: 3c78 0cbb 1e2b f7bb edb3 73bc d54f 4d3c
00000010: 959b 2abb ba88 403b f168 883c f085 44bc
00000020: cbc4 20bc 5823 2d3c 3f25 383c b7e6 92bb
00000030: 38f9 7bbc 3e27 363b 0cb6 b93b f07d 1a3c
00000040: dee9 45bb a833 d43a b415 07bc 67f1 39bb
00000050: bedd 3dbc d65b 20bc bbe1 a6bb 2abe 5cbb
00000060: ccd8 6c3c d9b7 8e3c 05d7 38bb a1df 2f3c
00000070: 85c1 07bd 3f8f 9cbb 81c4 e139 80d1 c5bc
00000080: fd7d 75bb b44e 3cbb 8c6a da3c 41ff 803c
00000090: 46e1 7ebb 0d71 693c a287 24bc 6306 8dbb
000000a0: 36d9 39b9 3afa af3c 2b5a 99bc 71a8 2fbc
000000b0: 0000 0000 b86c 8dbc aaed eb3b aded 10ba
000000c0: 626d 463c 3b07 f7ba 3158 b9bb b0f6 5fbb
000000d0: 0cdc 963c 30e5 c5ba 2edf d13c cc9f 17bb
000000e0: 8cb3 d13c c954 f43b 120d c53c 6712 1d3c
000000f0: 6931 80bc 2620 10bb 03a4 ac3b af53 a6bc
-0.002143397 -0.0075429818 -0.014874441 0.0125312405 -0.0026032676 0.002937837 0.016651602 -0.011994824
-0.009812544 0.010567509 0.011239349 -0.0044830698 -0.015379243 0.0027794386 0.0056674536 0.00942944
-0.003019921 0.0016189711 -0.0082449205 -0.0028372647 -0.011588512 -0.00978752 -0.005092827 -0.0033682683
0.014455985 0.01742165 -0.0028204334 0.01073447 -0.03314354 -0.0047778185 0.0004306175 -0.024147749
-0.0037459128 -0.0028733434 0.026662134 0.015746715 -0.0038891598 0.014248145 -0.010042103 -0.00430374
-0.00017723892 0.021481622 -0.018719753 -0.010721312 0.0 -0.017263755 0.0071999626 -0.00055285805
0.01211104 -0.0018846759 -0.005656265 -0.0034174137 0.018415473 -0.001509821 0.025619116 -0.0023136018
0.02559831 0.0074563962 0.024054084 0.009586907 -0.01564856 -0.0021991818 0.005268575 -0.020303575

sequential_3/dense_1/BiasAdd/ReadVariableOp f4 [4]
00000000: d94c 253c ff9c dbbc e16a 6a3c 5afd 193c
0.010089123 -0.02680826 0.0143077085 0.009398783
