app/src/main/ml/adammodel3_25cycle.tflite (tflite, 742096 bytes, 16 tensors)

sequential_5/conv2d/Relu;sequential_5/conv2d/BiasAdd;sequential_5/conv2d/Conv2D;sequential_5/conv2d/BiasAdd/ReadVariableOp f4 [32, 3, 3, 3]
00000000: 2b92 1bba 1475 bab9 0280 16ba ee84 d339
00000010: f6dd 8db9 b1fa ceb7 58aa a439 cd39 c2b9
00000020: aa1d 82b8 ed35 b338 9502 3139 e0fa 1a39
00000030: 3e55 e239 7a85 dfb9 de1e 6439 8ca8 34b9
00000040: e11e a6b7 79ba df39 97fd 32b8 829e 1738
00000050: 1067 7b38 cbad d7b9 0e94 3c39 38b1 57ba
00000060: d814 86b9 7861 0fba 7c6e c7b9 5d3f 33ba
00000070: e6ef 12ba d333 f639 9ccf 2639 dd42 29ba
00000080: edb2 8839 5a46 0536 30dc 5bb9 0211 063a
00000090: da01 c3b9 c24f 02ba abbb 9fb9 f837 7c39
000000a0: d3ff ecb9 0048 e439 b694 22ba 8e0c 50ba
000000b0: 0e3c 053a d7c3 e8b9 b845 24b9 c465 d8b7
000000c0: 68f0 ca37 6972 0739 214a 91b9 f34e 96b8
000000d0: 7bdd 01ba bbb3 9c37 814a 093a 6678 fcb9
000000e0: 84d2 5439 8027 043a 712f 0dba 1599 efb9
000000f0: 48de 64b8 1fea 83b9 fc65 e3b9 a8c3 153a
00000100: 9647 75b9 ef1b 8339 468a 2b39 3e53 c0b9
00000110: 5cb2 85b9 a3a8 ee39 c367 a239 a9e8 ca39
00000120: eaf8 7538 36a5 fa38 6bc6 89b9 5ff0 3d39
00000130: c903 35b9 90ef ceb9 b568 86b8 b515 1738
00000140: 8c1e dc38 4361 f5b9 767d 69ba 5485 10b8
00000150: 7e35 5339 2049 eeb7 9d3d 8639 ef76 8cb9
00000160: b01b 3aba 02d8 85b9 c2ae 12ba 3484 b9b9
00000170: 3d2b e539 6933 1bba 9129 f5b9 91fb 8039
00000180: e762 98b9 a553 46ba 24b7 5839 ee68 04b8
00000190: ab25 1eba 0d49 8b39 41c3 b1b9 9321 d7b8
000001a0: c758 8e39 74e2 1aba 94df 02ba e745 b539
000001b0: 0971 0339 1def d0b9 34d5 ddb9 25ab 0739
000001c0: 54b6 5339 cc6a 4239 2842 d438 918e 5a37
000001d0: 3ec9 d2b9 43f0 9b39 3158 5539 a2d6 e8b9
000001e0: dc13 05b9 9e6f ac39 d6ab 8e39 5d07 1c3a
000001f0: 3081 c6b9 306e e7b9 327e be38 f3af 93b9
00000200: 5897 97b9 82b3 ce39 c9ae c638 bdac 7439
00000210: b819 3eb9 3a2d 6ab9 eac8 e639 56e7 7a39
00000220: 993b edb9 3781 e1b9 8fa8 d638 ea60 b0b9
00000230: 10e6 43b8 1d28 cdb8 994a dd38 38ef 6039
00000240: 92a6 4e39 e915 17b9 c7ae af39 6c3e bc38
00000250: 51ed dcb9 626c b939 5c48 19b9 ba42 b939
00000260: fe4b d2b6 6fc5 aeb9 f0c9 bc39 c068 6139
00000270: 7e0f b9b8 3e60 1eba 93de 7037 2f25 6339
00000280: 14aa 8239 1f84 1dba a673 b9b9 b825 fe39
00000290: c7dd 5539 42eb cb37 987e 01b7 78e9 4ab9
000002a0: a9af cab9 3687 003a e37e 12ba 4ee4 2038
000002b0: fc50 f2b9 7360 c139 1d2b 1db8 4b47 8b39
000002c0: bc32 16b9 2fbb 6db9 9fd0 aa39 1542 abb7
000002d0: b571 09b9 c3a3 30b7 f630 e639 31da adb7
000002e0: d63d 9739 3036 9d39 31d2 8039 5aa3 cc39
000002f0: fe36 09ba 7212 4c39 4f40 d5b9 7f15 05ba
00000300: f557 b5b9 0df8 d0b9 9f6d a339 c889 f9b9
00000310: 6bde d4b8 782c 4eba c6cd a5b9 7df6 54b9
00000320: 13dc 11b9 9824 be39 4336 e639 916a 09ba
00000330: 5557 1e3a 396e a1b9 77ec 0bb9 bde8 aeb8
00000340: 280a a139 f5c6 16ba 1b96 a1b8 8877 5838
00000350: 9cd4 7ab9 0fbf ceb9 fd34 ceb9 db71 6db9
00000360: fe23 acb9 3057 0738 5f84 07ba 99de 54b6
00000370: 3de4 a0b8 fc67 61b9 6ae5 8fb9 ed33 beb9
00000380: 7b58 80b9 0252 0d39 3872 a839 7e2b b1b8
00000390: 945c 00ba ead8 8738 9a68 b239 ace2 74b9
000003a0: b001 17b9 2fb5 bf39 0279 61b7 2e0c 30b8
000003b0: ae83 f338 10f4 ca39 c1aa 4f37 1ffc 8b39
000003c0: 4746 9eb8 a54a 043a aca1 7739 cc49 6db8
000003d0: 2527 3bba 9454 b9b8 1a63 94b9 c211 5db9
000003e0: 894f 9d39 cbcd 06ba 0563 5eba 6b06 b339
000003f0: 4917 86b9 0d19 42ba a618 0f39 7169 d9b9
-0.00059345615 -0.00035563915 -0.00057411205 0.00040344096 -0.0002705899 -2.4673851e-05 0.00031407434 -0.00037045628
-6.2044084e-05 8.5454296e-05 0.00016880997 0.00014780043 0.0004316959 -0.00042633322 0.00021755273 -0.00017228926
-1.9803121e-05 0.00042672807 -4.267468e-05 3.6148827e-05 5.9939048e-05 -0.00041137481 0.00017984232 -0.0008228007
-0.00025574001 -0.0005469541 -0.00038038555 -0.000683775 -0.00056052057 0.00046959388 0.00015908334 -0.0006456802
0.00026073252 1.9859494e-06 -0.00020967494 0.00051142287 -0.00037194678 -0.0004970991 -0.00030466667 0.00024053443
-0.00045204032 0.00043541193 -0.0006201969 -0.0007936441 0.0005082496 -0.000443964 -0.00015666231 -2.5796595e-05
2.4192224e-05 0.00012917224 -0.00027711786 -7.167263e-05 -0.00049539626 1.8680343e-05 0.0005237237 -0.0004815489
0.00020296319 0.00050412863 -0.00053857925 -0.00045699687 -5.456645e-05 -0.000251607 -0.00043372798 0.0005713054
-0.00023391689 0.0002500708 0.00016359342 -0.00036683114 -0.00025500625 0.00045520542 0.00030976356 0.00038701788
5.864437e-05 0.00011951702 -0.0002627851 0.0001811399 -0.00017262915 -0.0003946987 -6.409121e-05 3.602142e-05
0.00010496107 -0.00046802507 -0.000890694 -3.4456447e-05 0.00020142455 -2.8405862e-05 0.00025604377 -0.00026791493
-0.00070994627 -0.00025528675 -0.0005595499 -0.0003538445 0.000437105 -0.00059204415 -0.0004676101 0.00024601494
-0.00029065387 -0.00075655646 0.0002066759 -3.1568976e-05 -0.00060328346 0.00026566573 -0.00033905546 -0.000102582526
0.00027150495 -0.0005908378 -0.0004992422 0.00034575092 0.00012535242 -0.00039851005 -0.00042311253 0.0001293836
0.0002019045 0.00018541067 0.0001012127 1.3027006e-05 -0.00040204258 0.00029742913 0.00020346117 -0.00044410402
-0.00012691267 0.00032889558 0.00027212378 0.0005952025 -0.00037861755 -0.0004414185 9.083412e-05 -0.00028169117
-0.00028913724 0.00039425126 9.473932e-05 0.00023334003 -0.00018129393 -0.00022332827 0.0004401871 0.00023928037
-0.00045248566 -0.00043011617 0.00010235712 -0.00033641543 -4.6705885e-05 -9.7826334e-05 0.00010551996 0.0002145142
0.00019707743 -0.00014408644 0.0003350882 8.9761656e-05 -0.00042138484 0.000353667 -0.00014618173 0.00035335665
-6.2673344e-06 -0.00033334966 0.0003600861 0.00021496695 -8.824373e-05 -0.0006041563 1.4356937e-05 0.00021662259
0.0002492225 -0.0006008762 -0.00035372115 0.00048474758 0.00020395881 2.4309036e-05 -7.718474e-06 -0.00019351195
-0.0003865932 0.00049029605 -0.00055883656 3.8359598e-05 -0.00046218175 0.0003688369 -3.747187e-05 0.00026565263
-0.00014324015 -0.00022671813 0.00032580362 -2.041556e-05 -0.00013107697 -1.0528546e-05 0.00043905497 -2.072481e-05
0.00028847036 0.00029985746 0.00024570667 0.00039031619 -0.000523433 0.00019461827 -0.0004067444 -0.00050767505
-0.00034588543 -0.00039857664 0.00031171457 -0.00047595636 -0.00010150376 -0.0007864903 -0.00031624566 -0.0002030972
-0.00013910262 0.00036266888 0.00043909447 -0.0005242015 0.0006040235 -0.00030790435 -0.00013344163 -8.3403174e-05
0.0003071588 -0.0005751693 -7.7050376e-05 5.1609735e-05 -0.00023921061 -0.00039433732 -0.0003933086 -0.00022644496
-0.00032833213 3.2267708e-05 -0.0005169566 -3.172003e-06 -7.671907e-05 -0.0002149641 -0.00027446012 -0.00036278312
-0.00024479986 0.00013477358 0.00032128557 -8.448119e-05 -0.0004896608 6.477705e-05 0.0003402874 -0.00023354095
-0.00014401111 0.0003656535 -1.3439219e-05 -4.1973013e-05 0.0001161167 0.00038710283 1.2377918e-05 0.0002669999
-7.547117e-05 0.00050465233 0.00023615983 -5.6573932e-05 -0.0007139317 -8.837241e-05 -0.00028302596 -0.00021082818
0.00030004632 -0.000514236 -0.0008483383 0.00034146322 -0.0002557582 -0.00074042456 0.00013646725 -0.00041468025

sequential_5/conv2d/BiasAdd/ReadVariableOp f4 [32]
00000000: 4b3c 03bd f24d db3c 4781 e83c fc22 253d
00000010: e75d 5f3b bf14 ddbc 9add f2bc 3ff5 bcbb
00000020: d903 80bc 5328 e63c 5dfe 13bd ba02 adbc
00000030: 20cb 59bc 1ec1 eab9 a1c7 efb9 4438 e73c
00000040: a12f fd3c 5fe0 71bc d3ec 463c 3450 84bb
00000050: c953 14bd 07ac 94bd 5328 8bba 1acc 6cbc
00000060: 9995 2c3d 5261 2bbd 2db7 ce3c 220c 58bd
00000070: 73b3 d03c 51cc e03c 7af2 793b 8916 d1b9
-0.03203992 0.026770566 0.028381957 0.040316567 0.003408307 -0.026987432 -0.029646683 -0.0057665403
-0.015626835 0.0280954 -0.03613125 -0.021119464 -0.013293058 -0.00044775842 -0.00045734367 0.028225072
0.0309065 -0.014762967 0.012141424 -0.0040378813 -0.036212716 -0.07259374 -0.0010616876 -0.0144529585
0.042134855 -0.04184086 0.02523383 -0.052745946 0.025476193 0.027441176 0.0038138912 -0.00039880376

sequential_5/conv2d_1/BiasAdd/ReadVariableOp f4 [64]
00000000: b7c4 efbc 7f8c 6dbc 10e6 803b 5f89 d3bd
00000010: f97b 6f3d 768e 06bc 9ae1 36bc 423a e7bc
00000020: d5fa 4b3d c161 bfbc bede b43c e5cc aa3c
00000030: d844 b43c c1dc 96bc e3f1 ec3c 6e04 27bc
00000040: b6ee 153a 1087 c7bc ec4c ac3b c110 d63c
00000050: e1af 973b 2f11 1ebc e169 6d3a 0ca9 17bd
00000060: 25e0 b0bd 371f 2abd 4bf2 603d f482 febc
00000070: 6c3d 36ba 601b 8fbb 32ed b9bc 64c1 4f3d
00000080: f421 5ebc 15af 84bc 99ec 343d d042 ae3c
00000090: 8c10 973b a102 0fbd ce79 f63a 5c89 ebbc
000000a0: 07fb 8fbc 30b4 d13c da4a 993d 23eb 063b
000000b0: 209c d3bc 0cce 3b3c 0d56 babc e6dd f2bc
000000c0: 70bc b83d 0356 3d3b cdcd bc3c 1335 ad3d
000000d0: 0690 163d 1a1b c2bc 7f66 023d ea4b 103a
000000e0: 6cba 82bc 1a8b 2fbb fbb6 9bbc 234e a8bc
000000f0: dd9b e13c 2920 1f3d 5633 2cbc be0c aa3b
-0.029268606 -0.014498829 0.0039336756 -0.10328936 0.05846784 -0.008212676 -0.011162186 -0.028226022
0.04979976 -0.023362042 0.022078868 0.020849654 0.022005484 -0.01841581 0.028923934 -0.010193927
0.00057194696 -0.024356395 0.0052581932 0.026131036 0.0046291207 -0.009647652 0.00090566097 -0.03702645
-0.08636502 -0.041533675 0.05491857 -0.031068303 -0.00069519016 -0.004367277 -0.022696111 0.05072154
-0.0135579 -0.016196767 0.04417095 0.021272093 0.004610127 -0.034914616 0.0018804611 -0.028752021
-0.017575754 0.025598615 0.0748498 0.002058693 -0.025831282 0.0114627 -0.02274611 -0.029646825
0.090203166 0.0028890378 0.023047352 0.08457389 0.036758445 -0.023694564 0.03183603 0.0005504476
-0.015958034 -0.0026785792 -0.01900815 -0.020545071 0.027540142 0.03884903 -0.010510286 0.0051895073

sequential_5/conv2d_2/BiasAdd/ReadVariableOp f4 [64]
00000000: 57dc 9ebc 33a5 b2bc 34e3 88bc 0c68 a4ba
00000010: a696 afbc 1e9d c7ba f9a4 81bc 1ace dc3a
00000020: 113f 75bc d810 dbba 96a9 c0bc a020 933b
00000030: d973 6d3c e9d0 65bd ba56 9dbc 765a 05bd
00000040: e9ac e1bc e7e1 95bc f129 6abc 6e23 133c
00000050: a5ef 483c b309 6ebc 1234 99bc 7e70 05bd
00000060: ea8a 203d 984c 51bc 891e 0a3c 1f98 20bc
00000070: df41 46bc d49b 9dbb febc 9cbc 0e20 863c
00000080: 8836 b7bc 9d7f 2abd c70e 3dbb 208e c23c
00000090: 1b2a aa3c 5292 a2bb 0436 b2bb 921d a43c
000000a0: 320d fb3c c799 01be 0997 b3bb 3fdc 483d
000000b0: c683 3ebd fc3f 06bc 7646 9c3a 6469 04bc
000000c0: 239e 81bc 28b5 00bd 55bf 22bb e905 1b3c
000000d0: b816 00bd 1831 f23b 009c 903d 7707 a2bd
000000e0: 6f77 423c 3c0c 303d ec47 893d f218 acbc
000000f0: 1053 053d 4fa5 edba 0379 4cbc 929e d1bc
-0.019392176 -0.021807289 -0.016709901 -0.0012543215 -0.02143414 -0.001522932 -0.015825735 0.0016846091
-0.0149686495 -0.0016713394 -0.023518365 0.004489973 0.014492952 -0.056107435 -0.019206394 -0.032556973
-0.02754827 -0.018296195 -0.014292226 0.008980615 0.012264167 -0.01452868 -0.018701587 -0.032577984
0.03919498 -0.012774609 0.008430132 -0.0098018935 -0.012100666 -0.004809836 -0.019133087 0.016372707
-0.02236487 -0.041625608 -0.002884792 0.023749411 0.02077203 -0.0049612904 -0.005438568 0.020033631
0.03064594 -0.12656318 -0.0054806513 0.049038168 -0.046512388 -0.008193966 0.0011922854 -0.008081768
-0.015822476 -0.031422764 -0.002483328 0.009461858 -0.031271666 0.0073911063 0.07061005 -0.0791158
0.0118692955 0.042980418 0.06703171 -0.021007989 0.032549918 -0.0018130931 -0.012480023 -0.025588308

sequential_5/conv2d_3/BiasAdd/ReadVariableOp f4 [64]
00000000: 0884 ecbc d61f 36bc 02f0 44bc fe9d 20bd
00000010: 1e1f 19bd 60e0 11bd 32a7 00bc 7212 90bc
00000020: b8f1 0ebd 41c9 833a ac32 42bd d81f f6bc
00000030: 0868 66bc 9a3b 7abc 35a3 09bd fdac 57bd
00000040: f368 9ebd 2067 28bd 4756 88bc 4fd3 b3bc
00000050: 2309 233d bfe6 66bd c99e bd3c 5923 15bd
00000060: eef1 5bbd 16e5 b23c 7814 f43c 6342 07bd
00000070: e6bf b73c 847b b0bd 6d46 87bd ae22 b2bd
00000080: e6ff 46bd c3b1 5fbd dbc5 ccbc 0b43 883d
00000090: d703 84bb 01e6 d9bd efb5 30bb 1888 6dbb
000000a0: 2fe6 31bd 1324 3abd f057 89bc a184 e5bc
000000b0: bd46 09bc a610 56bd 8f13 0fbd d4bd c5bb
000000c0: cfbc 2c3d 288a a1bc fca6 5cbc 0338 50bd
000000d0: 3ed0 17bd 40a5 76bd 992f f2bc 114e 5cbd
000000e0: 1b32 b3bc 83eb 62bd 4f34 9abc 3637 11bd
000000f0: 7924 7fbd 806d 01bc b0c6 52bd 8657 6dbc
-0.028871551 -0.011115989 -0.012020113 -0.039213173 -0.03738319 -0.03561437 -0.0078523625 -0.01758692
-0.03489849 0.0010054485 -0.047411606 -0.030044481 -0.014062889 -0.015272999 -0.033602912 -0.05265521
-0.07734861 -0.041113973 -0.016642703 -0.021951346 0.039803635 -0.0563724 0.023147004 -0.036410663
-0.05369752 0.021837752 0.029794917 -0.033022296 0.022430371 -0.08617309 -0.066052295 -0.08698021
-0.048583888 -0.054612886 -0.024996689 0.066534124 -0.004028778 -0.10639573 -0.002696391 -0.0036244448
-0.04343241 -0.04544456 -0.016765565 -0.028017344 -0.008378682 -0.05226197 -0.034930762 -0.006034592
0.04217225 -0.019719198 -0.013467547 -0.050834667 -0.03706383 -0.06021619 -0.029563712 -0.053785387
-0.021874478 -0.055400383 -0.01882377 -0.035453044 -0.062290642 -0.007899642 -0.051459014 -0.014486199

sequential_5/conv2d_4/BiasAdd/ReadVariableOp f4 [64]
00000000: 46a6 dabc b543 143d 90ee a93d 1e98 873c
00000010: f9a9 a5bc 86b3 05bd c2fe d63d abaf 7abd
00000020: fb18 903d 27b1 0ebd 5b8b 8bbd f8e8 32bd
00000030: 6ced cabc df60 52bc 290d 82bc e440 983d
00000040: c35f de3d 5fd6 473d 60a9 af3d 5278 653d
00000050: 9052 f5bc b164 02bd ae98 b4bb 8f64 8cbc
00000060: 8641 1ebd 2d01 2b3d 6ded cb3d 3762 9bbd
00000070: f3e1 e7bc ff93 eebc 0f2c 69bc 7196 d7bc
00000080: 10e8 43bd f4e6 d33d 7bfc e5bc ef6a 45bc
00000090: 937e eebc 212d 56bc a0b0 9dbc 36c9 ba3d
000000a0: 5269 f63d e406 cb3d 87cb d03c 6961 cb3d
000000b0: 9b5e cf3d 4b79 5fbc 9e4e 8e3d 4800 36bd
000000c0: 4019 cd3d ea45 a8bc 207c 9c3c ed1a 86bd
000000d0: 1e5a 8ebc 7111 523d f8af 4abd cc4c 7d3d
000000e0: 83ee 21bd 6e89 adbc 3575 6b3d ca1b 00bd
000000f0: f70e 37bd ec0c 94bc 5cab 15bd d2ac 67bd
-0.026690613 0.036197383 0.08297455 0.016552027 -0.02022265 -0.03264191 0.1049781 -0.061202686
0.07036015 -0.034836914 -0.06813689 -0.043679208 -0.024771415 -0.012840479 -0.015875416 0.07434252
0.10858109 0.048788425 0.085772276 0.05602295 -0.029946595 -0.031834308 -0.005511365 -0.017137794
-0.038636707 0.04174917 0.09957395 -0.07587092 -0.028305983 -0.029123304 -0.014231696 -0.026316853
-0.047828734 0.10346785 -0.028074494 -0.012049421 -0.02911309 -0.013072283 -0.01924926 0.09120409
0.12031807 0.09913424 0.025487674 0.09930689 0.101254664 -0.013639758 0.06948589 -0.044433862
0.10014582 -0.02054115 0.019102156 -0.065481044 -0.017376956 0.051286165 -0.049484223 0.061840817
-0.039534103 -0.021183696 0.057484824 -0.0312765 -0.044692006 -0.018072568 -0.036540374 -0.0565613

sequential_5/conv2d_5/BiasAdd/ReadVariableOp f4 [64]
00000000: 80b7 c03d 200c 0fbd 0ec2 89bb bcd9 47bc
00000010: 7a93 86bd ffde d03b 9df3 24bd bf06 fc3c
00000020: fa61 1b3e 5bb5 ca3d 80d7 9f3d a4b9 1fbd
00000030: fe24 5dbc f713 cabd 8e90 f53d 0c22 9f3d
00000040: d169 15bc e738 2dbc 4b2f 14bd 9f4e 26bd
00000050: 1a72 54bd 0797 6ebd 6cde e13d db00 083c
00000060: db29 ddb9 9c80 7bbd 9421 0cbd 3707 95bd
00000070: 4180 dbbc 9080 da3a 12e6 fa3d 271e da3d
00000080: 1a87 f73d 1fb3 27bc 1a63 603d b9af 87bc
00000090: 1326 493b 050d 71bd 854a debc f3ca 17bc
000000a0: ab12 b2bc 9422 f63d 411a 76bd 9e5b d83d
000000b0: 45be 7fbd ded2 61bc 9ce6 dbbd b709 12bc
000000c0: ce35 95bd 3794 a4bd eb07 eabc 3fc1 fdbb
000000d0: b05d b4bc de18 38bd 0d5a a43d 18b0 afbc
000000e0: e2e9 1dbc ffcd bdbd c557 56bc 7947 f6bb
000000f0: dfcc a3bc d6f4 af3d 8d2d f1bc 631a 293b
0.0941 -0.034923673 -0.0042040413 -0.012197908 -0.06571098 0.0063742395 -0.04027139 0.030764936
0.15174094 0.09897872 0.07804775 -0.0389954 -0.013497589 -0.09867089 0.11990462 0.07770166
-0.009119467 -0.010572649 -0.036177915 -0.040602323 -0.05186663 -0.0582495 0.11028752 0.008300985
-0.0004218359 -0.06140195 -0.03421171 -0.07276767 -0.026794555 0.0016670395 0.12250914 0.10650282
0.120863155 -0.010235577 0.05478201 -0.016563283 0.003069286 -0.058850307 -0.027135143 -0.009264695
-0.021737417 0.12018314 -0.06008363 0.105643496 -0.062437315 -0.013783185 -0.107373446 -0.008913449
-0.07285653 -0.08036082 -0.028568229 -0.007743984 -0.02201733 -0.04494559 0.08024988 -0.021446273
-0.009638282 -0.09267806 -0.013082449 -0.0075158444 -0.019995151 0.085916206 -0.029440666 0.0025803081

sequential_5/conv2d_1/Conv2D f4 [64, 3, 3, 32]
00000000: 0241 c8bc 46b1 033e 96ef 3ebd 26c9 a23c
00000010: 5023 b43c fde0 32bd 93f0 fabd e8a1 ab3d
00000020: 5568 373d ac3e cb3d e8bd f2bc 3429 38bc
00000030: b2da 12bd 2215 183d 8cfd 203d 8ce7 1ebd
00000040: 484f fa3b eb21 dbbd 4e6b 67bd 612a 51bd
00000050: 09a1 abbd 25ad 163d 8269 f83c bfaf 06bd
00000060: bc42 353d f3ee e8bc f93f a63d 5481 583d
00000070: 2b3c e2bc 3d4d 883c 4174 f13c 70b0 88bd
00000080: 436c d33d 4393 683d 5443 74bd 88b5 f43d
00000090: 5310 71bd a7c7 a43d f45d 583c 8afb 10bd
000000a0: 66d4 0dbd b481 c03d 878c 4c3c 2374 973c
000000b0: e56e 053d a2a9 d0bc ca53 38bc 1f1c 3ebc
000000c0: 2704 243d 38ab 8dbc cc22 a9bd ff78 143d
000000d0: 1b51 b03b 4219 48bc e938 8a3d d1f6 82bd
000000e0: 381a 4dbd 4b09 453d aca4 a2bd 52d6 f13d
000000f0: 6ba9 2e3d f0b7 803d 2ae0 e2bc 2718 d6bc
00000100: 1a94 aabb fa2d 19bc a704 6abd 5325 edbc
00000110: e884 c7bd b252 103d c8b5 4ebd 2129 3f3d
00000120: 1535 8cbc fef1 8f3d cc3f 9d3d 7b3c 823d
00000130: c7d6 1ebd 3347 a1bd b555 edbc ce69 da3d
00000140: 4658 64bd 7e8b 4b3d 3866 0ebd 84a8 743d
00000150: 02e1 2c3d 1bd6 a1bd dd92 62bd d64e a7bd
00000160: 290a 67bd 1189 41bd ffa7 623d 788e 00bd
00000170: 9381 31bd 4f1a 3b3d ebc6 59bc ce7c 00be
00000180: 88f9 893c 50e2 51bc 96d3 a3bd 5aa5 b33d
00000190: 5d1d b6bd a186 15bd a1c2 76bd bc3d 00bd
000001a0: 1347 c6bc 2a68 e73d 828c e4bc 0c1c 943d
000001b0: 654c 6ebd e3fd b6bd 1ea1 7c3d 9d8d b23d
000001c0: bb6a dc3c 8a95 073d b499 a0bd a808 87bd
000001d0: 4f6f 773d 6496 cf3c 7042 37bd c506 40bd
000001e0: ef4b cf3c 96a8 88bd 947f 71bc 753d 91bd
000001f0: d8e2 d43c 315e 9dbd 6123 bcbc 99cb adbd
00000200: c991 7a3d be63 713d fe3b 3bbd 021f b03d
00000210: c76f 823d b5da 99bb 741c 32bd 0468 46bc
00000220: 485e 2e3d 6101 973d f99c adbc 47f5 65bd
00000230: 5adc 78bd ad3a c1bc 5f7d 64bd 48d6 243d
00000240: 5401 153c 6fd4 9bbd 8ec7 dbbc 2784 27bd
00000250: 4261 b1bd d5d0 d33c 347b f93a 933b 82bd
00000260: cab9 fdbc 6723 b3bd 27ba 3bbd 6d44 723c
00000270: cbbb d8bc 0d44 063d 63e2 3a3d 1d51 a1bd
00000280: b2b2 a73d ea57 193d 239e 483d 734d 0b3d
00000290: 92d2 293d 5663 19bd a901 5b3d 2053 9d3d
000002a0: dda4 90bd 9f43 cb3d c277 4b3d c410 42bd
000002b0: 41de fcbb 218c 1abd 09a3 b33d 6c52 3cbc
000002c0: de39 ccbc ffa8 f83c 1398 a5bc 2a8b 28bd
000002d0: ce2d 57bc 624e 293d 3c1d a5bc 7d66 94bd
000002e0: 5a23 76bd 3335 243c ae27 983d 7e3d 233d
000002f0: c695 65bd 9435 453d 52d5 aa3c faa3 d7bd
00000300: 2962 cabd c325 c53d 3c36 7a3c 34d7 ec3c
00000310: 7e58 9ebd 28e9 49bd 04ae 9cbd b7e1 08bc
00000320: cdc2 aebd 6b0f 07bd ac4e c2bc df7a 1ebd
00000330: 2cc1 033b f0aa e63c bfd8 063b 084e 72bb
00000340: ffbb 37bc 77ac c7bd e4ca 3e3c 3d4d 33bd
00000350: 805e b2bd caba d6bc 9be8 d13c 7ada bebc
00000360: 2400 d8bd 9e0c 12bd 62ae 8cbd 6357 a43c
00000370: 6716 fabc b10f 783d 823f 0abd e1fb 80bd
00000380: ac8b 0d3b 0e3f 51bd 5fb0 9cbd d935 70bc
00000390: 1857 523d 8737 67bb 4e8c 73bd 93ca 8cbd
000003a0: fff7 33bd 5e40 c03d a63b e03c 15e1 0d3d
000003b0: 19d6 87bd 24b8 b5bd d023 33bd 2ed4 e03b
000003c0: 5c4f 683d 4351 63bd 8381 dabc c6c7 5c3d
000003d0: e635 923d bc36 04bd 71d0 403d 9305 15bd
000003e0: 6ba6 8ab9 d6e7 79bd e337 003d 0a21 2bbd
000003f0: 7e91 583b a2a2 9bbc 7f78 b63c 08b1 16be
-0.02444506 0.12860593 -0.046615206 0.019871306 0.021989495 -0.043671597 -0.12252917 0.083804905
0.044777233 0.09924063 -0.02963157 -0.011240292 -0.035853095 0.03712953 0.0393043 -0.03879504
0.0076388456 -0.10699829 -0.056498818 -0.051065806 -0.083803244 0.036786217 0.030323748 -0.03288245
0.044253096 -0.028434252 0.081176706 0.052857712 -0.027616581 0.016638393 0.02947438 -0.06674278
0.10323384 0.056781065 -0.05963452 0.11948687 -0.05885346 0.08045893 0.013205994 -0.035396136
-0.034626387 0.09399739 0.012484676 0.018487995 0.03257646 -0.025471512 -0.011250446 -0.011603384
0.040043022 -0.017293558 -0.0825859 0.036248203 0.0053807623 -0.012213053 0.06749136 -0.06394733
-0.050073832 0.048104566 -0.07941565 0.118084565 0.04264204 0.06285083 -0.02769478 -0.026134564
-0.0052056434 -0.009349341 -0.057133343 -0.028948462 -0.09742147 0.035235114 -0.05046633 0.046670083
-0.017115155 0.07028578 0.07678184 0.06359192 -0.038779046 -0.07874908 -0.028971532 0.10664712
-0.055748247 0.049693577 -0.034765452 0.05973102 0.04220677 -0.079021655 -0.05531584 -0.08169334
-0.056406174 -0.047249857 0.055335995 -0.03138587 -0.043336462 0.045679387 -0.013292055 -0.12547609
0.016842619 -0.012810305 -0.07999341 0.08771773 -0.08892319 -0.036505345 -0.060244206 -0.031308874
-0.024203813 0.112991646 -0.02789903 0.07231912 -0.058178324 -0.08935144 0.06167709 0.08718417
0.026906362 0.033101596 -0.078418165 -0.06593448 0.060408887 0.025340267 -0.044741094 -0.046881456
0.025304763 -0.0667278 -0.01473989 -0.070918 0.025987074 -0.07683981 -0.022966089 -0.08486099
0.061174188 0.058933012 -0.04571151 0.08599664 0.06368976 -0.0046952614 -0.043484166 -0.01210976
0.042570382 0.0737331 -0.021193014 -0.056142118 -0.06075702 -0.02358755 -0.055783626 0.040243417
0.009094555 -0.07608878 -0.026828554 -0.040897515 -0.086611286 0.025856415 0.001903391 -0.06359019
-0.03097238 -0.08746987 -0.045831826 0.014786822 -0.026456734 0.032779742 0.045626055 -0.07876799
0.0818838 0.037437357 0.048978936 0.03400941 0.04146058 -0.03744825 0.05346838 0.076818705
-0.07062695 0.09925007 0.049674757 -0.04737927 -0.0077169244 -0.037731294 0.08771331 -0.01149426
-0.024929937 0.030354021 -0.020214116 -0.041148342 -0.013133479 0.041334517 -0.020155542 -0.072461106
-0.060092308 0.010022449 0.07429443 0.039853565 -0.05605104 0.0481468 0.020853672 -0.10529323
-0.09882004 0.09626343 0.01527172 0.02891121 -0.07731722 -0.04929462 -0.07650378 -0.008354596
-0.08533249 -0.032973688 -0.023719154 -0.038691398 0.0020104153 0.028157681 0.0020575968 -0.003697278
-0.011214255 -0.09749692 0.011645053 -0.043774832 -0.08709431 -0.026212115 0.02562361 -0.023297537
-0.10546902 -0.035656564 -0.068691984 0.0200612 -0.03052826 0.06056184 -0.033751972 -0.06298042
0.0021598144 -0.051085524 -0.076508276 -0.014661276 0.05135259 -0.00352809 -0.059459977 -0.068745755
-0.04393768 0.09387277 0.027372193 0.034638483 -0.06632633 -0.08873013 -0.043735325 0.0068612313
0.056716308 -0.05549742 -0.026673084 0.053901456 0.071391866 -0.03227876 0.047073785 -0.03638227
-0.00026445402 -0.06101211 0.031303298 -0.041779555 0.0033045704 -0.018998448 0.022274254 -0.1471597

sequential_5/conv2d_2/Conv2D f4 [64, 3, 3, 64]
00000000: 8e27 4cbc f387 93bd 0a32 0fbd ae17 403d
00000010: 2828 31bd 151d 603d 619e aa38 40e6 6b3d
00000020: b219 42bc ddcb 37bd 6c7a 04bd 5ae6 6a3d
00000030: 1ba8 593d c60a 063c 7204 713b a48d 453d
00000040: c00e b3bc 5ad4 57bd b615 b8bb e068 d2bc
00000050: 7adb edbc c0ae bbb9 f846 abbd 1e4a 51bd
00000060: 1b17 09bd 5937 e2bc e1dc d13b 5080 a639
00000070: 786d 15bd f47c 103d 56ae 02bc fc17 b83c
00000080: c900 123c 9b54 65bd d9cf afbc 9c88 69bc
00000090: bff6 ae3c 8d8d 6fbc 090e 1e3d dde0 993c
000000a0: 14fa 753c 62b5 b63c b4e1 a9bc 9489 193d
000000b0: 3b28 263b cf3e 40bd 787f 73bd ff36 923c
000000c0: fd00 2c3d 6dd8 30bd 099d 0b3d 881f 253c
000000d0: 8ed8 533d 48d3 a4bd 6a3f 323d f4d1 8abd
000000e0: f5ff 3cbd 8c9b 8cbd 5be1 8a3d 4098 67bd
000000f0: a9bc 89bd abde 9a3c a792 29bd 519c 523d
00000100: abd8 03bd eb35 78bd d3e9 803d 402c a5bd
00000110: f7e0 483c d8ad a8bc 70f3 d6bc 65b3 94bd
00000120: 6384 90bd f6c9 683c 73bd 85b8 1851 c33c
00000130: c499 263d 46b8 343d ff42 da3a c586 423d
00000140: 4f26 cf3c bc2b 84bd 08c0 f6bb eee6 553d
00000150: de99 353c af78 08bd 98c7 04bd 9187 5bbd
00000160: 9382 d23c 048e 8c3c 93dc 95bd 98a3 2cbd
00000170: 9038 52bb d203 453d 8658 2c3d 7960 733d
00000180: 6724 02bd 8714 89ba ec19 5f3d 866c 26bb
00000190: 8a5c 0dbd e309 873d 1558 593d adb5 98bd
000001a0: 84bd 923c b8ba 023d 46ef 723d 92d3 603d
000001b0: 82b3 20bb b392 99bd 105f 2a3d 9749 b23c
000001c0: 2815 70bc d128 0e3d 2859 8abd cc76 053d
000001d0: 0c79 63bd 2257 94bd 5dbc 7bbd 17e4 80bd
000001e0: e577 fd3c 2e45 a3bd 66fd 1bba 6dde 62bd
000001f0: c730 48bd 38e5 e83c b575 41bd 2bea 87bd
00000200: b368 fb3c 2c6e 993a 00df 033b be8f 4b3c
00000210: 1450 9fba bb92 173d 1750 9cbd 38f3 353d
00000220: f997 303b d839 793d bfb7 873c 034d c7bc
00000230: 343f 4ebd f388 9bbb 7cb7 02bb 8cd7 d9bb
00000240: 758e 5d3d 56b6 27bd b72c ccba f375 363d
00000250: 518d b8bc c036 f93c 274d 41bd 588e 2a3d
00000260: 2186 94bc 85dd 97bc 752c 283d a312 823c
00000270: e453 4d3c 0e7c 34bd 35f1 0cbc 032e 10bd
00000280: f930 a23c e1d4 86bd 1ff2 48bd f865 f3bc
00000290: 3fc9 c5bc 5567 67bc 7c53 243d 1606 92bd
000002a0: 8aef de3b c1a5 463d da3e 85bd c284 583d
000002b0: f278 f0bc 5bbf 5dbd 877c 0fbd 44af b73c
000002c0: 6c30 80bc 8c9c 6dbd 6266 2dbd e112 16bd
000002d0: 56cc 49bb 497b 62bd 7393 e2bc db2d 173d
000002e0: 26cc 4b3d 33e5 0b3c afac e7bc 9439 8ebd
000002f0: 49d6 e7bc f5d9 083d 907f 10bd 4c34 7d3d
00000300: c957 5dbd fb36 313c 68ce 293d 5c35 96bc
00000310: a69e 26bd 3b0a a93b d02a 44bd aba8 9abd
00000320: 2ff9 0cbd 0c8b c2bc 1c8a bebc b769 023c
00000330: d0a1 edbc eeda 9e3c 574a e13c a923 f9bb
00000340: eaac 503d 0e30 0a3d 82fb d1bc 1a35 3abd
00000350: fd1b a7bc bcd5 5b3d 00a8 6d3a bdbb 6abd
00000360: 1592 3c3c f6a6 7ebd a522 a8bc 4436 84bd
00000370: a7ad 2d3c 7d7d 8fbc 138e 053d c95e 35bd
00000380: 03c7 82bd 8078 febb e9b5 cfbc ca8e ea3c
00000390: 01d7 7dbd 83e3 263d 4ca8 f0bc 930d 523d
000003a0: 6c27 d33c 6e63 98bd f23a 2d3d e888 22bd
000003b0: 211d 673d 7057 d33c 2a78 4f3d 5ed5 17bd
000003c0: d766 64bd 4aa6 60ba 34fa d9bc 75c2 08bd
000003d0: 9a60 a5bc e48f 1a3d e158 173c 9543 3bbd
000003e0: 7a17 94bd 2fc5 15bd 0ee9 473d 6368 27bd
000003f0: e9e5 8cbd 813b f9bc 9bd6 4d3c 51a7 90bd
-0.012460602 -0.07203665 -0.03495983 0.046897583 -0.043251187 0.054715235 8.135732e-05 0.05759263
-0.011846947 -0.044872154 -0.032343313 0.057348587 0.053138833 0.0081812795 0.0036776331 0.048230782
-0.02185762 -0.05269275 -0.0056178225 -0.025684774 -0.029035319 -0.00035797618 -0.083631456 -0.051096074
-0.0334693 -0.027614282 0.0064045046 0.00031757588 -0.03648135 0.035275415 -0.007976135 0.022472374
0.00891132 -0.05598889 -0.021461414 -0.014253762 0.021357892 -0.014621151 0.038587604 0.018783981
0.015013237 0.022303287 -0.020737506 0.03748472 0.002535357 -0.0469349 -0.059447736 0.01784849
0.04199313 -0.04317515 0.034085307 0.010078318 0.051720195 -0.08048111 0.043517508 -0.06778327
-0.046142537 -0.06865606 0.067812644 -0.05654168 -0.06725437 0.018905004 -0.041399624 0.051418606
-0.032189053 -0.060598295 0.062945984 -0.08065081 0.012260667 -0.020590708 -0.026239127 -0.07260779
-0.07056501 0.0142083075 -6.377222e-05 0.02384238 0.040673986 0.04412105 0.0016652046 0.047491807
0.025286822 -0.06453654 -0.007530216 0.052222185 0.011084048 -0.033318218 -0.03241691 -0.053596083
0.025697028 0.017157562 -0.07317462 -0.042148203 -0.003207717 0.048099346 0.04207661 0.059418175
-0.031772997 -0.0010458388 0.05446808 -0.0025394275 -0.03451208 0.065936826 0.053062517 -0.07456527
0.017912634 0.03191635 0.05931022 0.05488927 -0.0024521057 -0.07498684 0.041594565 0.021763606
-0.014653482 0.034706894 -0.067552865 0.032583997 -0.05553536 -0.07243182 -0.061458934 -0.06293505
0.03094096 -0.07972179 -0.000595054 -0.055387903 -0.048874643 0.028429613 -0.047231395 -0.06636461
0.030689573 0.0011705807 0.0020121932 0.0124244075 -0.0012154602 0.037005167 -0.076324634 0.044421405
0.0026946052 0.06084618 0.01656711 -0.024328714 -0.050353244 -0.00474655 -0.001994579 -0.0066480096
0.054090936 -0.040945373 -0.0015577291 0.04454608 -0.022528322 0.030421615 -0.04719272 0.041639656
-0.018130364 -0.018538246 0.041058023 0.015878027 0.012532208 -0.04406362 -0.00860243 -0.03520013
0.019798743 -0.06583572 -0.04905903 -0.029711708 -0.024143813 -0.014123757 0.04011868 -0.07130067
0.0068034576 0.04849792 -0.065061286 0.052860983 -0.029354546 -0.05413757 -0.035030868 0.02242244
-0.01564809 -0.058010623 -0.042333968 -0.036639098 -0.003079196 -0.055293355 -0.0276582 0.036908966
0.049755238 0.008538532 -0.028280584 -0.06944576 -0.028300421 0.033410985 -0.035277903 0.061817452
-0.054038797 0.010816331 0.04145661 -0.01833599 -0.040678643 0.0051586903 -0.04789239 -0.07551702
-0.034417327 -0.023747943 -0.023259215 0.007959775 -0.029007822 0.019391503 0.027501268 -0.007603128
0.050946154 0.033737235 -0.025632624 -0.045460798 -0.020399088 0.05367063 0.00090658665 -0.057307947
0.011509438 -0.062170945 -0.020524332 -0.06455663 0.010600484 -0.017515892 0.032606196 -0.044279847
-0.06385615 -0.0077658296 -0.025355296 0.02863254 -0.06197262 0.040744316 -0.029377125 0.051282477
0.025775634 -0.0744084 0.042292543 -0.039681345 0.056424264 0.02579853 0.050651707 -0.037068717
-0.05576214 -0.0008569701 -0.026608564 -0.033388574 -0.020187665 0.03773488 0.009237499 -0.045718748
-0.0723104 -0.036565002 0.048806243 -0.040871035 -0.068797894 -0.030423881 0.012563373 -0.07063163

sequential_5/conv2d_3/Conv2D f4 [64, 3, 3, 64]
00000000: 9ec2 713d b00c 253d 0bb6 863d b49e 12bc
00000010: 0e16 5dbb 5e24 8c3d 5e1b 213d 3c07 0abd
00000020: f75b 9abc 8875 f33d a6bb 07bd ca99 d33d
00000030: d2e1 44bd 4db8 76bd bbbc 4abb afdc 263d
00000040: 801f 393c ef08 c23c d4b3 e93b 9e91 803c
00000050: 2669 b43c 7d36 3e3b 4981 38bd 6f7f bc3c
00000060: dcf8 823d a245 dfba 7dd9 b4bd b80b e73c
00000070: b636 cebd ef6d 01bd 0d4f 5dbc 9e6e 673d
00000080: 7089 5abc 2abf 10bd 5e49 a2bd 5759 29bb
00000090: eee5 3abd bb13 ac3d dc1d 2bbd ca62 0fbe
000000a0: 4e4b 813c 4522 273d ea4c 2e3c 64f3 833c
000000b0: 2cbf ce3b 324f 87bc 0677 a83d 2cc1 c4bd
000000c0: a211 80b8 d57a 88bd 961e 913d 564f b9bc
000000d0: d7aa b2bd ee57 143e 848f 223d 0da9 563d
000000e0: 53b9 23bd 3e9e c03c c759 8c3d 9db3 6c3d
000000f0: f862 4b3d 3884 6bbb 517b d33d aa92 303d
00000100: 52f1 8d3c cada 2b3c 80ab 0cbd 1343 143c
00000110: fab0 bcbd a4d3 cebb fb40 a0bc 4f2e 6abc
00000120: e54b 6bbd dd0e a93d f844 153d bdde b33a
00000130: 0f58 5c3d a9ea 823b 3f91 b2bd fc87 043d
00000140: 8d25 5cbc 31e4 9abd 8e83 dd3c 2c5a 8bbd
00000150: 44e4 93bd fb35 803c 24e0 03bd 6707 6ebd
00000160: c143 adbd ec3d 82bc b10d d1bd 7dd6 113c
00000170: e498 793b 145c 92bd 7e88 8cbd bf93 17ba
00000180: 5584 afbc 796b dc3c 81ec 9ebd 2c43 22bd
00000190: 2f6a 97bd 6f73 b5bd fd3b 8fbd 6b93 f8bb
000001a0: 89b5 413c 8597 20bd 0c6b 95bc e663 d4bc
000001b0: 605a 42ba c7f3 403c 990e 57bc 408b cfbc
000001c0: 3a75 843d 2a78 af3c ce1e ccbd c379 0fbd
000001d0: 9e26 cb3c 8c70 3cbd 0a58 9c3b a188 6d3d
000001e0: 0b0f 2d3d 4054 f3bb 8823 dd3c 8f83 1b3d
000001f0: 984a 1b3d 98fd 373d 42a3 813b 5972 523d
00000200: aa4d 36bd b409 0fbd fde6 72bd 6667 85bc
00000210: 7452 d43c 48e6 753c 49f4 96bd 4ea4 9fbd
00000220: e2e0 88bd 1dbf 27bd f661 4fbd 1dd2 163b
00000230: 7149 81bd fb0d 4bbd ec07 0ebd e93f 13bd
00000240: 3923 b1bd d83f d3bd c3b7 0abc d19d 533c
00000250: f3c4 3ebc e29d b6bc abae 843d 2ffc 693c
00000260: 2a32 993a 7f3f 7bbd 0e6f ed3c 6b55 c3bd
00000270: 0fb0 d93c 3083 f6bc bb04 dd3c 7bea bc3c
00000280: 94fa a03c 1f5a b8bd 7c1a 6d3c 4883 d63c
00000290: 93d2 b23c 8dc0 e6bd 780e 17bd 6626 f2bd
000002a0: 67de 7c3d e67d a8bc 6582 7e3c 6fe5 dfbc
000002b0: a150 7abd d73d 4b3d b9a9 acbd 6c77 f7bb
000002c0: f6b9 5a3d a13d 9fbb 29cc 71bd d8a8 7d3c
000002d0: 7e37 bf3c aca4 63bd 9a7d 88bc e74b 3c3c
000002e0: c559 383d 5871 5fbd 4b5b b6bb efac 8dbd
000002f0: ed99 57bd 9850 7bbd 9990 9ebd f55f 763d
00000300: b894 5d3d 04f1 b63c 1119 1ebd f947 b53c
00000310: 73c3 56bc 8586 1d3b dcc4 313d 530c 1d3d
00000320: 0e05 4d3d 88aa a23c 83ee 8cbd cbb7 18bc
00000330: b74a 933d 8874 a83c 2c2d dcba 5dea 7ebd
00000340: 16fa 4c3d e13b 2abb 9d59 9bbd f606 93bc
00000350: 04a1 2f3c 8d94 9bba 2d79 29bd 09f6 94bd
00000360: 4590 b03d 4465 7abc a6ae 2abd 7156 9dbd
00000370: b854 b73a b58d 92bd ef4f 91bd 563f 633d
00000380: a80b 4bbc e790 8bbc 58e1 553b 1f9c 5f3b
00000390: 32e6 503d 8e08 b4b9 1181 01be f852 4ebd
000003a0: cb26 de3d 8024 cf3c 1483 473d d792 1fbd
000003b0: 5274 eebc 65b7 cbbb ac0e 86bd 6e62 093d
000003c0: fe1b 963d 4cc2 c8bc 2c67 86bd 0689 da3c
000003d0: 3b63 a1bb 3fd9 6f3d 330a a7bc fadf edbc
000003e0: ae70 1e3d 9db7 e5bc 2c58 2cbd d645 85bd
000003f0: 8fa2 b13c 5afb 8fbd f8f6 d63d 536c 9d3b
0.059023492 0.040295303 0.06577691 -0.008948971 -0.003373507 0.06842874 0.03933274 -0.033698305
-0.01884268 0.11887652 -0.03313794 0.10332067 -0.04806692 -0.060234357 -0.0030935246 0.040737804
0.011299014 0.0236859 0.007132033 0.015694436 0.022022795 0.0029024177 -0.04504517 0.023009984
0.063951224 -0.0017034302 -0.08830545 0.02820383 -0.10069029 -0.03159898 -0.013507617 0.056501977
-0.013338432 -0.03533856 -0.0792415 -0.0025840604 -0.045629434 0.08402201 -0.041776523 -0.14002529
0.015782978 0.040804166 0.010638455 0.016107269 0.0063094106 -0.016517255 0.08225827 -0.09607157
-6.1068e-05 -0.06664053 0.07085912 -0.022620838 -0.08723991 0.14486668 0.03968765 0.052407313
-0.03997166 0.023512956 0.06853061 0.05778848 0.04965493 -0.0035936963 0.10326255 0.04310862
0.017326985 0.010489175 -0.034343243 0.009049195 -0.09213443 -0.0063118506 -0.019562235 -0.014293267
-0.057445426 0.08254788 0.036442727 0.0013722997 0.053794917 0.003995259 -0.0871911 0.032356247
-0.013436687 -0.07563055 0.02704027 -0.06804308 -0.072212726 0.01565074 -0.03219618 -0.05811253
-0.08460189 -0.015898667 -0.102076896 0.008901236 0.0038085515 -0.07146469 -0.06861971 -0.0005782209
-0.021425406 0.026906716 -0.07759953 -0.03961484 -0.073933 -0.08859908 -0.06993864 -0.007585933
0.0118230665 -0.039207 -0.01823952 -0.025926542 -0.00074139796 0.011776871 -0.013126039 -0.025334954
0.06467672 0.021419603 -0.09966813 -0.03502823 0.024798688 -0.04600577 0.0047712373 0.057991628
0.042250674 -0.007425815 0.026994482 0.03796726 0.037912935 0.04491958 0.0039562294 0.05137858
-0.04450766 -0.034921363 -0.05930232 -0.016284656 0.025918223 0.015008517 -0.073708124 -0.077950105
-0.06683518 -0.040953744 -0.050630532 0.002301342 -0.06312836 -0.04957388 -0.034675524 -0.03594962
-0.08649296 -0.103149116 -0.008466664 0.012916044 -0.011643636 -0.022292081 0.06478628 0.014281317
0.0011687924 -0.06133985 0.028983619 -0.095377766 0.02657321 -0.030091852 0.026979795 0.023061028
0.019650735 -0.09001564 0.014471646 0.026185647 0.021828925 -0.11267195 -0.036879033 -0.1182373
0.061735537 -0.020567846 0.015534018 -0.027331082 -0.06111205 0.049619522 -0.084308095 -0.007552078
0.053400002 -0.0048596417 -0.059032593 0.01548215 0.02334189 -0.055576965 -0.016661454 0.011492706
0.045007486 -0.054551452 -0.005565082 -0.0691775 -0.05263703 -0.061356157 -0.077424236 0.060150106
0.054096907 0.022331722 -0.038598124 0.022129046 -0.013108122 0.0024036479 0.04340063 0.03834183
0.05005365 0.019856706 -0.0688143 -0.009321163 0.07191985 0.020563379 -0.001679813 -0.062235225
0.050043188 -0.0025975632 -0.07585452 -0.017947655 0.010719541 -0.0011869833 -0.041375328 -0.0727349
0.08621267 -0.015282933 -0.041670464 -0.07682503 0.001398704 -0.07155935 -0.07095324 0.055480324
-0.012392916 -0.017036868 0.0032635536 0.0034120155 0.05100078 -0.0003433865 -0.12646891 -0.050372094
0.10847243 0.02528596 0.04870899 -0.038958397 -0.0291082 -0.0062169307 -0.06545767 0.033541135
0.07329558 -0.02450671 -0.06562647 0.026676666 -0.0049251593 0.05855679 -0.020390606 -0.029037464
0.03868168 -0.028041655 -0.042076275 -0.06507461 0.02168396 -0.070303634 0.10496324 0.004804173

sequential_5/conv2d_4/Conv2D f4 [64, 3, 3, 64]
00000000: a664 a2bd be94 99bd c30f 84bd 238d 46bd
00000010: e594 3ebd 9394 84bd f1e7 f3bc cabf 003d
00000020: d316 59bd cb90 293d c56d babd 5941 a4bc
00000030: d4b2 9abd b7d9 273d 7453 a0bd f8d9 93bd
00000040: 155a 3e3c f25a 5fbd f3d8 4c3d dced e7bb
00000050: 5612 3cbd 0cd5 39bd 2f18 98bd b8a3 75bc
00000060: e726 18bd 2e60 9b3a 44db 16bd 1938 1abb
00000070: dd83 523d ce48 8fbd 866b a4bd 7595 93bd
00000080: 60c4 a13c 6a6f 50bd 4081 c1bd fa92 363c
00000090: 9730 f0bd 7429 cabc 8a88 e53c 59b1 bc3c
000000a0: 04bc 6dbc 8241 eb3c 59d5 97bd aca5 e8bc
000000b0: e0ea 0c3c e1f1 8e3c a8d2 89bc b64b eabc
000000c0: 7f1c 72bd bb62 253d 1702 70bc 6b4d d93c
000000d0: b67b 4c3d 762a 7c3c 9c5c 623c 77ed af3c
000000e0: f1f6 2bba 4ab3 28bd e35a 7d3d b587 92bd
000000f0: 4c11 483d b1ab 96bd 27a5 2bbd 934b e7bd
00000100: 2952 18bd 1b64 3cbd 53df 6ebd a2a5 3d3d
00000110: d035 c73c 3fa5 cf3c 6988 53bd fa18 3c3d
00000120: 62bc 113c 07e1 53bd 0b50 0a3d 1e33 3e3d
00000130: 0078 4d3d 2a34 1d3d 1632 e1bc e62a 40bd
00000140: a62f 89bd e09f 893c 4f99 93bd c1b9 28bd
00000150: 8597 a1bd a6b2 143d 8ebf d3bd 6191 a9bd
00000160: 4527 95bc 4fdb f0bc 266f 10bd ee55 0a3d
00000170: 0170 4b3d e04e 4fbd 9250 593d 45bd a0bd
00000180: 448d 373d aaf9 953d 094c 4abd 0ab1 79bd
00000190: ebd5 5cbd f9d0 e83c 2731 77bd 898a 3e3d
000001a0: 204a 10bd 3ed8 2f3d a025 8bbd 73bb 423d
000001b0: 3c05 013d 8005 5e3b 7ce7 11bc c7ae 0ebd
000001c0: 58a8 e43c 0707 2cbd 292b 003d c512 0fbd
000001d0: fd27 efbc e544 5bbb 9d40 46bd c513 943c
000001e0: 076b 99bd 21e4 483d 4c35 b6bc 9555 89bd
000001f0: 2e58 183c fa3c c1bb da17 6fbd bbf8 0b3c
00000200: 2f32 09bd b574 ad3b 7c5d 03bd f983 a9bc
00000210: 02b2 49bb 0244 1bbd 31a6 693d 3b9d 62bb
00000220: 55fd 98bd a8d4 c9bc 29d6 1bbc 350d 97bd
00000230: e44b 3f3c 1d2f 7cbb 8e7b 61bd c574 47bd
00000240: a60a b7bc 4b64 5ebd 8c2b 4dbd 930b 593d
00000250: 7f57 cf3c 8610 92bd 2d4d 3ebd 0106 95bd
00000260: 501d 773d da21 a5bc 46a4 65bd 241f f33b
00000270: 3ab0 383d f649 2d3c 3922 8cbd c750 03bd
00000280: d5d0 74bc 98c5 803d f4f1 383d 2b4c 203d
00000290: ff24 a4bc 70d3 2bbd 3cc0 14bd 11df 2b3d
000002a0: 4f33 be3c 6fc4 acbc eab5 81bc dbd8 8dbd
000002b0: d755 e63b 452e 8abd 466f 863d 7ed8 6f3c
000002c0: 3926 2a3d d18a e63c 8e78 8abd 7fb9 45bd
000002d0: 6cf1 ee3c 43ab 3a3d 311f babc 9391 78bd
000002e0: cacd 183d e460 da3c ffde 93bd e87d 91bd
000002f0: 4411 dfbb 3188 82bd 2b53 4ebc f05a 833c
00000300: 2ed4 993c 22ec c2bc 7a1f ebba 0f3d 77bd
00000310: 0a67 8eb9 7bb3 82bd 4f0f 99bd 35bc 9bbd
00000320: 70b2 fb3b f864 30bb 3c42 53bc 40c1 18bd
00000330: 9bef d9bd c824 32bc e551 963c 9164 99bb
00000340: bbd2 17bc b280 6cbc e159 99bd 7fd5 5dbd
00000350: 678d 70bd c8b5 31bd 55f0 2bbd 86b2 5fbd
00000360: 43f8 d1bc 3c58 41bd 542a 7a3d 1e69 24bd
00000370: d550 093d b34a 503d 3e81 373c f856 00bd
00000380: 1899 b4bd 8d62 3bbd 9324 b8bc 5abe 193d
00000390: ec06 62bc b93f d3ba 2888 d23c 60c1 a7bc
000003a0: 3b26 433d 303d 41bd df33 96bd 3338 5a3d
000003b0: cd36 aabd 1ad7 763c 5d6c 92bc d0e1 95bb
000003c0: b8f1 3fbd 09b1 05bc 4d4e 8ebc 13c6 83bd
000003d0: fceb 743d 07d5 ee3c cd0d b1bd fec2 33bd
000003e0: d97c 9bbd 8351 dbbc 8f25 1e3d beae ae3c
000003f0: 4023 a9bd 919c 5e3d 8111 0a3d c0ad d3bc
-0.079293534 -0.074990734 -0.06448319 -0.048474442 -0.046528716 -0.06473651 -0.029773684 0.031432904
-0.053000282 0.04139785 -0.09102968 -0.020050691 -0.0755364 0.040979113 -0.078284174 -0.072193086
0.011618157 -0.05453009 0.050011586 -0.0070779156 -0.045915924 -0.045369193 -0.07426488 -0.014992647
-0.037146475 0.0011854225 -0.0368302 -0.0023531972 0.051395286 -0.06996308 -0.08028321 -0.07206241
0.01974696 -0.050887503 -0.094484806 0.01114344 -0.11728018 -0.02467797 0.028019208 0.023033785
-0.014510158 0.02871776 -0.0741374 -0.028399311 0.00860092 0.017449321 -0.016824082 -0.028600555
-0.059109207 0.04037736 -0.014648936 0.026526174 0.049922667 0.015390983 0.013816025 0.021475537
-0.00065599295 -0.04118661 0.061854254 -0.0715479 0.04884462 -0.07356966 -0.04190555 -0.112937115
-0.03718773 -0.045993906 -0.058318447 0.046300538 0.024317652 0.02534735 -0.051643763 0.045922257
0.008895012 -0.051728275 0.03376774 0.046435468 0.05016327 0.038379826 -0.027489703 -0.04691591
-0.06698541 0.016799867 -0.07206976 -0.041192774 -0.07890228 0.036303185 -0.103392705 -0.08279682
-0.018207202 -0.02940145 -0.03526225 0.033773355 0.049667362 -0.05061233 0.053055353 -0.078486
0.044812456 0.0732301 -0.04938892 -0.060959853 -0.053914946 0.028419958 -0.06034961 0.046518836
-0.03522694 0.042930834 -0.06794286 0.047542047 0.031499133 0.003387779 -0.008905288 -0.03483465
0.027912304 -0.04199889 0.03129116 -0.03493001 -0.029193873 -0.0033457812 -0.048401464 0.018075833
-0.07491117 0.049045686 -0.02224221 -0.067057766 0.009298367 -0.0058971616 -0.058372356 0.008543189
-0.033495124 0.0052934536 -0.032071576 -0.020692812 -0.0030776267 -0.037906654 0.057043258 -0.003457858
-0.07470194 -0.024637535 -0.009511509 -0.07375566 0.011675809 -0.003848023 -0.05504947 -0.048695344
-0.022343945 -0.054294866 -0.050090358 0.052989554 0.025310276 -0.07132058 -0.04646032 -0.07276536
0.06033069 -0.020157743 -0.056064866 0.0074194837 0.045089938 0.010576716 -0.06842465 -0.032059457
-0.014942368 0.06287688 0.04515262 0.03913514 -0.020037172 -0.04194969 -0.03631614 0.04196078
0.023217825 -0.02108976 -0.015833814 -0.069261275 0.007029276 -0.067471065 0.065641925 0.014639018
0.04154036 0.028142365 -0.06761275 -0.048272606 0.029167853 0.045573484 -0.022719951 -0.060685705
0.03730563 0.02665753 -0.072202675 -0.07104093 -0.006807478 -0.06373633 -0.012593071 0.016034573
0.018777933 -0.023794238 -0.0017938458 -0.060360964 -0.0002716112 -0.063818894 -0.07473623 -0.07604257
0.0076811835 -0.002691565 -0.0128942095 -0.037293673 -0.10641404 -0.010873027 0.018349597 -0.004681178
-0.009266551 -0.01443498 -0.07487846 -0.054158684 -0.0587286 -0.04338625 -0.041977245 -0.054613613
-0.025631076 -0.047203287 0.061075523 -0.04013931 0.033524353 0.05085249 0.011200247 -0.03133294
-0.08818263 -0.045748282 -0.022478377 0.03753505 -0.013795596 -0.0016117013 0.02569969 -0.02047795
0.04764388 -0.047177494 -0.073341124 0.053276252 -0.08311234 0.015065933 -0.017873937 -0.004574038
-0.04686138 -0.008159884 -0.017371321 -0.06434264 0.059795365 0.029154314 -0.086452104 -0.04388713
-0.07592172 -0.026772266 0.038610037 0.021323558 -0.082586765 0.054348532 0.0337081 -0.025839686

sequential_5/conv2d_5/Conv2D f4 [64, 3, 3, 64]
00000000: 045a ae3d 7c46 60bd 5215 a4bd 501d f53c
00000010: 3c06 f6bc 750b 51bc d0e9 d63d 2361 ef3c
00000020: 6952 493e 3151 cfbd 6b4e 653d 3e77 f33c
00000030: 09c8 e7bd e02d 50bc c18a 6a3d 2d53 0b3d
00000040: 5b7d 033e c38b 9abd ce69 abbb 5de2 7f3c
00000050: 06f7 0abd 83ff 373d fd5c 25bc 5f17 c9bd
00000060: 51c6 cb3c 69af ffbc 63ab 4c3d cf15 763d
00000070: 100f 0a3c 9889 babd b89a 283d 3c0f 233d
00000080: 228b 5d3c 231d fe3c 1f3c c33c c6b6 b53c
00000090: 5093 8ebd 9d31 ccbc fb2b 75ba 4e95 853b
000000a0: 1ed2 163e 4eb3 eabc 3309 963d e8ab 09bd
000000b0: 16db cc3d 0a4f 75bd 4e20 673d c82e abbb
000000c0: 8935 ba3d d4f5 0e3a aa8e c13c 7191 34bd
000000d0: 647b 063d b609 e03d 3cea 7f3d f38d 65bd
000000e0: d006 f5bd 5fe2 42bd 4b49 82bd 01ce 1bbd
000000f0: 020b f1bb cd5c 0fbe 05cf 2bbd d251 683c
00000100: 82ba 823c 575c 8f3d cb04 51bd f6cf 0e3d
00000110: 2af8 e9ba d1bb 523e afd4 cc3c 9976 8dbd
00000120: a311 0ebe 5cfa ba3c b037 1abd 054f b93c
00000130: 015e d43c 53b5 bbbc e00f 96bc c14c 6dbb
00000140: bcfe 863d 8e71 1cbc 186c 983d f84a 3bbd
00000150: 1c56 d4bd 28a3 44be d769 43bd 8a92 313e
00000160: a895 1fbd afba e5bd 5418 503d a8b4 91bc
00000170: 5b1e 7c3d 13fe db3d 9fff 9a3d f2b7 a7bd
00000180: 18d1 823d 7b18 b8bd 0c3b 03bd f0aa 6e3d
00000190: d4de 82bd 7181 463d 561d 32be 64a1 253b
000001a0: 25c0 003e 3355 d53d b1e4 2a3d e542 d43c
000001b0: 41a2 0cbe 557a 363d df16 763d 54ed e0bc
000001c0: f9d3 8fbd c7a7 c73d bb87 3dbd caf4 913d
000001d0: c727 c43d 3052 cbbd 1e83 56bd 599a dd3d
000001e0: 3799 873d c05a 0bbc 6a85 9fbd 7e90 5ebd
000001f0: b467 44bd b3df 48bd 3059 3abd 6366 06be
00000200: 28ec 603d 6a37 353d 646a 81bd b05c 65bc
00000210: aa31 11be ff7b a4bd 9fa5 e23d 795a c23c
00000220: 0aed e93b f6d6 f93c b025 d8bd c7b4 94bb
00000230: dcc0 cfbd 27a9 9e3d ed74 88bd 2521 09bd
00000240: 1f2d aa3c bacf 6d3c 0dfb 693e b2a1 713d
00000250: 4b2a 45bb e489 3e3e a49f fcbd 66a2 42bd
00000260: a5b2 203d dedd 113d 192d b6bb 1738 6dbd
00000270: 3809 0fbe 3288 9dbd f78a 05bc 1f1e 913c
00000280: 38c3 cb3a 12d8 ef3b 14a0 f13d d821 3dbc
00000290: d4f2 5bbd 387e a7bc eff0 e13d 642d f73c
000002a0: daa8 5e3d a6e1 f03b 535f 1cbe d383 01bc
000002b0: 0a25 dbbc e6ad 9a3d ad55 06bd bd5b 5bbb
000002c0: abac 93bc 6ab9 0e3d 2805 0e3e f9f0 3abd
000002d0: 8522 2e3e 865b 943d 71b7 f43d feab 8c3d
000002e0: 1349 19bd 4969 6d3e 3aaf fd3d cd61 603e
000002f0: 2c9b c33b cab3 b53d 78bb 923d 288f acbd
00000300: c11a 333d 2bdf 51bd 1dd7 5dbc bf44 f9bd
00000310: 039a c1bd a75c 77bd a9cd 5c3d c0bc 9cbd
00000320: 5fa7 f23b 74f5 02be d157 9dbb e039 083d
00000330: 30f0 63bd 09b2 19bd 29f5 89bd 80bc d83d
00000340: 9020 9c3d bed1 cd3d b68a 07bd 7ffe e03b
00000350: 6e88 4ebd b719 90bd 2776 d03d ab65 e3bb
00000360: a9d8 a4bd 0346 9dbd 0e0c 98bc ef2d 56bd
00000370: 8fbb 0dbd d226 31bd b0ea 813b 620a 9abd
00000380: 3f4e c7bc 6ece 50bd ec50 bdbd 4e1b f6bd
00000390: 247e d93b d883 4a3c 36c4 18be 4925 9a3d
000003a0: 569e e63c 3302 573c cc39 d93c 9337 27bc
000003b0: 5357 a23d b987 483d 0403 fe3d 2970 55bd
000003c0: e304 b2bc 2941 bb3d 850e 513d d16b 83bd
000003d0: 3c33 1fbd 78b2 f83c 85e4 09bd 970d 54bd
000003e0: 879b 5dbd bd30 c9bc a45b 273c 295b 5abd
000003f0: dfb9 733d 8556 9ebd 7b15 383b c388 36be
0.08513263 -0.05475472 -0.08011879 0.029921204 -0.03003227 -0.012759079 0.10493815 0.029221123
0.19660343 -0.10122908 0.05598299 0.029719945 -0.113174506 -0.01270625 0.057261232 0.03401487
0.12840788 -0.07546189 -0.0052311188 0.015617934 -0.033926986 0.04492141 -0.010092971 -0.09818911
0.024874838 -0.031211572 0.049968135 0.060079392 0.008426443 -0.09108275 0.041163176 0.03980945
0.013521941 0.031019753 0.023832379 0.02218188 -0.069616914 -0.024926001 -0.0009352562 0.0040766364
0.14728591 -0.028649952 0.07325973 -0.03361121 0.10002725 -0.05988983 0.056427293 -0.0052240826
0.09092242 0.00054535014 0.023627598 -0.044084016 0.03283252 0.10939352 0.062479243 -0.056043576
-0.1196419 -0.047579166 -0.06361636 -0.038038258 -0.0073560486 -0.14000244 -0.041945476 0.014179664
0.015958074 0.07000034 -0.05102996 0.034866296 -0.0017850448 0.20579459 0.02500376 -0.06907386
-0.13873915 0.022824459 -0.037650764 0.022620687 0.02592373 -0.02291361 -0.018318117 -0.003620908
0.065915555 -0.009548558 0.07442492 -0.045725793 -0.103679866 -0.19202864 -0.04770836 0.17341056
-0.038961083 -0.11217248 0.05080445 -0.017786339 0.061552387 0.1074182 0.07568287 -0.08189382
0.06387538 -0.08989044 -0.032038733 0.058268487 -0.06390157 0.04846329 -0.17394003 0.0025273198
0.12573297 0.10416641 0.041722003 0.025910804 -0.1373377 0.04455026 0.060080405 -0.027456917
-0.070228525 0.09748798 -0.04627202 0.07126768 0.095778994 -0.099277854 -0.052371137 0.10820455
0.0662102 -0.008505523 -0.077891186 -0.054337017 -0.04795046 -0.04904146 -0.045495212 -0.13124995
0.054912716 0.0442423 -0.063191205 -0.013999149 -0.14179102 -0.08031463 0.11066746 0.023724781
0.007138853 0.03049801 -0.10554063 -0.004538152 -0.10144207 0.07747107 -0.06662927 -0.033478875
0.020773469 0.014514858 0.22849675 0.058992095 -0.0030085023 0.18607289 -0.123351365 -0.047518156
0.03923287 0.03561198 -0.0055595753 -0.05791482 -0.1396836 -0.07691993 -0.008150808 0.017714558
0.0015545851 0.0073194588 0.117981106 -0.0115437135 -0.053698376 -0.020445928 0.110322826 0.030173011
0.05436025 0.007351118 -0.15270738 -0.0079049645 -0.02675106 0.075527 -0.03279655 -0.0033471428
-0.01802667 0.034844793 0.13869154 -0.045639966 0.17005356 0.07244019 0.11949051 0.068687424
-0.037423205 0.23184694 0.123869374 0.21912308 0.0059694257 0.08872183 0.07164663 -0.084257424
0.043726686 -0.05123822 -0.0135400565 -0.121713154 -0.094532035 -0.060391095 0.05390707 -0.07653189
0.007405206 -0.12788945 -0.0048017283 0.03325832 -0.055648983 -0.037523303 -0.06736214 0.105828285
0.07623398 0.10049771 -0.03309127 0.006866276 -0.05042308 -0.07036155 0.10178786 -0.00693961
-0.08049137 -0.07679369 -0.018560436 -0.0522899 -0.034602698 -0.043249913 0.0039647445 -0.075215116
-0.024329303 -0.050978117 -0.0924395 -0.12016927 0.0066373516 0.012360536 -0.14918599 0.07526643
0.028151672 0.013123083 0.026516818 -0.010206121 0.07926812 0.04895756 0.12402919 -0.052108917
-0.021730846 0.09143288 0.051039238 -0.06417049 -0.03886722 0.030358538 -0.0336652 -0.051770773
-0.0541034 -0.024559373 0.01021472 -0.053309593 0.059503432 -0.07731346 0.0028088975 -0.17825608

sequential_5/dense/BiasAdd/ReadVariableOp f4 [64]
00000000: 6aca 6bbd c3d0 a83d b923 cfbc 1e1f 30bd
00000010: addd 94bd eb94 31bd facc 1fbd ae30 11bd
00000020: 4598 86bd 929e f9bc fc0f bf3d 078e 38bc
00000030: 3cba 32bd aef0 62bb 9619 17bd 4e75 823d
00000040: 7a9d 58bc 1899 803d 491a 12bd c34a 043d
00000050: d4ac 5f3d e14b 54bd 598f 1bbc e3b9 cb3d
00000060: acca c03d 18c7 cf3d abe0 673d 7e65 81bd
00000070: 4edd b43d 441a 19bd 1972 ebbc 91d1 84bd
00000080: 1899 bbbc d75c 9f3d 2341 263d 3946 b13d
00000090: a818 03bd f764 84bd 2f45 36bc 9111 c2bc
000000a0: 5187 e1bd e5ad da3d d655 6dbc 35d3 92bd
000000b0: 09d2 4a3d 1ca9 bd3d b466 3abd 9fd8 a5bd
000000c0: 9352 20bc 03cd ab3d 05da 01bc a06b 15bd
000000d0: 85cf a5bd df78 09bd 405f 5ebc d6d5 1ebd
000000e0: 772e fd3c a3ed c13d 8add bc3d 45b0 f4bb
000000f0: edcf c3bd e5a1 e5bc 6f2d cdbc d3f7 4b3c
-0.057566084 0.08242943 -0.025285589 -0.042998426 -0.07268844 -0.04335491 -0.03901384 -0.035446815
-0.06572012 -0.03047112 0.09329221 -0.011264331 -0.04363464 -0.003462832 -0.036889635 0.0637003
-0.013221139 0.062792 -0.0356696 0.03229786 0.05460818 -0.051830176 -0.009494626 0.099475645
0.094136566 0.10145396 0.056610744 -0.06318186 0.08831273 -0.037378564 -0.02874093 -0.06485284
-0.02290015 0.0778138 0.040589463 0.08655972 -0.032005936 -0.0646457 -0.011124893 -0.023690017
-0.11012138 0.10677699 -0.014485797 -0.07169191 0.04951671 0.09260771 -0.0455081 -0.08097958
-0.009785312 0.08388712 -0.007925515 -0.036479592 -0.08096222 -0.033562537 -0.013572514 -0.03877815
0.030905945 0.09469154 0.09221943 -0.007467302 -0.09561143 -0.028031299 -0.025046078 0.012449223

sequential_5/dense_1/BiasAdd/ReadVariableOp f4 [4]
00000000: 6414 2dbc c550 e9bd a9fc 4c3d a9c3 943d
-0.010563944 -0.11392359 0.050045643 0.07263882
