app/src/main/ml/model.tflite (tflite, 742084 bytes, 16 tensors)

sequential_2/conv2d/Relu;sequential_2/conv2d/BiasAdd;sequential_2/conv2d/Conv2D;sequential_2/conv2d/BiasAdd/ReadVariableOp f4 [32, 3, 3, 3]
0.00012248011 0.0004537781 -6.5266824e-05 0.0002165 -0.0005191522 -0.00010353129 -0.0005495026 -0.00047223305
0.00037359624 -0.00015678226 -0.0004534649 -0.0004474553 0.0002926032 -0.000374467 0.00023006994 -0.0001965278
-0.0004371047 -0.000442928 -0.00016193997 -0.00055169634 0.00051594095 8.349857e-05 0.00043984462 2.5471534e-05
3.1323914e-05 -0.00047530685 -9.303531e-05 -1.1140521e-05 -0.00049479696 -0.00019424944 -0.00041949985 0.000516491
0.00043028055 -0.00039793545 -0.00019289533 -0.00035230513 0.00024322492 -0.0003225631 0.0005291799 0.00010248958
0.00019863824 -0.00049637916 -4.8517017e-05 -0.0002397772 -7.721045e-05 0.000500291 -0.0003612083 0.0003071854
-0.00026453158 -0.0005656267 -0.000226879 -0.00048897066 0.00017928462 -0.00019028419 -6.3807447e-06 -0.00033776189
-0.00040375078 -0.00028338277 -0.00068254076 0.00027970196 -0.0002898404 -3.2586908e-05 0.0005126189 -8.821249e-05
7.802657e-05 0.00038058503 0.00013184722 -0.0005732218 -0.000590234 0.00025212715 0.00010404907 -0.00042241623
0.00055423664 -2.0753732e-05 0.00027922465 -0.000309618 -0.00024376035 -7.883552e-05 -0.00052459 0.00018766108
0.00047049642 0.00022667254 -0.0002845647 -0.00037169523 -0.00026284988 0.00027518734 -0.0004908687 -1.737149e-05
0.00020201334 -0.0004625353 -0.000114942384 -0.00031653154 0.0004068931 -0.00012733246 0.00015122992 -0.0004013644
0.00036077978 -1.9136554e-05 -3.0444655e-05 2.1412996e-05 0.00029147553 0.0005347253 -0.00019597856 -0.00043950428
-0.00036824995 -0.00051410997 3.1973857e-05 5.1814448e-05 -0.00015388745 0.00035556275 0.0002713124 0.00018348279
-6.3980624e-05 0.00042382634 -0.00028358097 0.00047525068 -4.6974634e-05 -0.00018134127 -0.0004954987 -0.0003565255
-0.00035753558 -0.00011228327 -0.0001941087 -4.3545297e-05 -0.0006722295 -0.00024660115 0.0002938178 0.00035323636
-0.00038795485 0.00036314156 -0.00056693284 0.0003476001 -0.0002754786 -0.0003648911 5.9837228e-05 -0.0002516147
0.0002715224 0.0001861758 -0.00032035244 -0.0005580156 8.992765e-05 -0.00023222454 -5.4943204e-05 -0.00051547046
-0.00038700615 0.00029670636 -5.2032945e-05 -0.00056730316 0.00022090878 0.00042315846 3.0505144e-05 -0.00025331712
0.00031112772 -0.00045706224 -0.0006159066 -5.72356e-06 8.3789826e-05 0.00023199654 0.00045438673 -0.00044012425
-0.0006513989 -0.00011084403 -0.0005143002 -0.0005672074 0.00016680585 3.1407875e-05 0.0002254284 -0.00044656824
-0.000528646 -0.00050293986 -0.00019905699 0.00031157496 0.00043357158 0.00049010414 7.999146e-05 -0.00054388016
-0.0003365728 -0.0002559711 -2.1336109e-05 -2.8370083e-05 0.00029831563 -0.0004169578 0.00036370484 -0.0005229541
-5.086036e-05 -0.0005850487 1.8036782e-05 -0.00020587805 -0.00017596761 -0.00062119233 0.0002779473 -0.00013489249
0.00024760308 0.00048918254 1.8591641e-05 -6.458277e-05 0.0003395731 0.00045382403 -0.0003780796 -0.0003253975
0.00036411584 -0.000335457 0.00054469437 0.0005180567 -0.00022991237 -0.0001214579 0.0002200246 -0.00015241693
-0.00015632309 0.00034243436 -1.8380344e-05 -0.0002990211 0.00017848804 0.00013648273 0.00045997245 0.0002819736
-0.0001536031 -5.5911325e-05 2.6734007e-05 0.00043628315 -7.676673e-05 9.725859e-05 -0.0005000239 -0.00031987074
-9.073553e-05 0.0004449143 -0.00013547998 0.00018552624 -0.00019060682 -0.0006269985 -0.0002001426 -0.00014433368
0.00013351098 -0.0005125646 -0.00016308372 0.00044698702 -0.00011680988 0.00017354911 -0.00016157083 -0.0001698997
-0.00023367666 0.00033736322 -3.949808e-05 0.00048467747 -7.5394935e-05 -0.00012594678 0.0005868274 0.00027110774
0.00044730582 0.00027219066 0.00020928323 0.0004267857 -0.00036511032 -0.0002954817 -0.00035251744 -0.00042591846
00000000: 016e 0039 11e9 ed39 dcdf 88b8 4704 6339
00000010: b717 08ba f01e d9b8 7f0c 10ba 0c96 f7b9
00000020: 3ddf c339 eb65 24b9 07bf edb9 6f98 eab9
00000030: 8968 9939 1c54 c4b9 ee3e 7139 0813 4eb9
00000040: 332b e5b9 ca38 e8b9 6ece 29b9 b79f 10ba
00000050: 3640 073a f41b af38 f29a e639 b4ab d537
00000060: cc61 0338 9b32 f9b9 f41b c3b8 2ce8 3ab7
00000070: 43b5 01ba 70af 4bb9 51f0 dbb9 2065 073a
00000080: 4797 e139 fea1 d0b9 f243 4ab9 98b5 b8b9
00000090: 310a 7f39 b01d a9b9 a9b8 0a3a adef d638
000000a0: 8c49 5039 711f 02ba c07e 4bb8 b46c 7bb9
000000b0: 0bec a1b8 f625 033a 8f60 bdb9 ba0d a139
000000c0: d4b0 8ab9 9146 14ba 5ee6 6db9 442e 00ba
000000d0: 59fe 3b39 0687 47b9 2e1a d6b6 a215 b1b9
000000e0: 83ae d3b9 fe92 94b9 89ec 32ba f6a4 9239
000000f0: b8f5 97b9 edad 08b8 4661 063a b8fe b8b8
00000100: 32a2 a338 4289 c739 7840 0a39 4444 16ba
00000110: efb9 1aba ef2f 8439 eb34 da38 bf77 ddb9
00000120: 314a 113a 4d18 aeb7 e664 9239 3954 a2b9
00000130: ec99 7fb9 7f54 a5b8 a484 09ba e3c6 4439
00000140: f6ac f639 f2ae 6d39 a131 95b9 17e0 c2b9
00000150: 1dcf 89b9 0547 9039 a4ad 00ba feb8 91b7
00000160: 8bd3 5339 7080 f2b9 390d f1b8 25f4 a5b9
00000170: 4454 d539 8c84 05b9 7993 1e39 386e d2b9
00000180: 0b27 bd39 7087 a0b7 6663 ffb7 0fa0 b337
00000190: 2fd1 9839 cf2c 0c3a 987f 4db9 446d e6b9
000001a0: ac11 c1b9 56c5 06ba ab1b 0638 5753 5938
000001b0: d95c 21b9 d36a ba39 ef3e 8e39 4965 4039
000001c0: 562d 86b8 0235 de39 98ad 94b9 112b f939
000001d0: a106 45b8 6d26 3eb9 5be4 01ba 0bec bab9
000001e0: 9d73 bbb9 9f79 ebb8 a889 4bb9 68a4 36b8
000001f0: 8f38 30ba 3f4a 81b9 8f0b 9a39 9532 b939
00000200: 6b66 cbb9 0964 be39 389e 14ba 183e b639
00000210: 1d6e 90b9 db4e bfb9 bcf9 7a38 27eb 83b9
00000220: 1f5b 8e39 3038 4339 faf4 a7b9 cb47 12ba
00000230: 8a97 bc38 4d81 73b9 d172 66b8 a320 07ba
00000240: 16e7 cab9 418f 9b39 f33d 5ab8 12b7 14ba
00000250: c0a3 6739 5edb dd39 4ce5 ff37 a6cf 84b9
00000260: db1e a339 dba1 efb9 cb74 21ba 020d c0b6
00000270: 52b8 af38 1944 7339 c13a ee39 7ac0 e6b9
00000280: a4c2 2aba ef74 e8b8 1ad2 06ba a5b0 14ba
00000290: 9be8 2e39 f3bb 0338 fa60 6c39 6021 eab9
000002a0: d594 0aba b9d7 03ba f4b9 50b9 e25a a339
000002b0: fe50 e339 557a 003a 17c1 a738 2e93 0eba
000002c0: 0976 b0b9 dc33 86b9 f2fa b2b7 4afc edb7
000002d0: 3f67 9c39 219b dab9 a3af be39 db16 09ba
000002e0: e552 55b8 f45d 19ba b24d 9737 f8e0 57b9
000002f0: f283 38b9 83d7 22ba 75b9 9139 ed71 0db9
00000300: b9d0 8139 7c3c 003a 3ff5 9b37 9c70 87b8
00000310: bb08 b239 3bef ed39 fc38 c6b9 1d9a aab9
00000320: cde6 be39 47e0 afb9 d2c9 0e3a 32ce 073a
00000330: a214 71b9 37b7 feb8 67b6 6639 1cd2 1fb9
00000340: a9ea 23b9 c388 b339 7d2f 9ab7 efc5 9cb9
00000350: 8528 3b39 ce1c 0f39 7528 f139 dbd5 9339
00000360: 8510 21b9 5482 6ab8 d842 e037 efbc e439
00000370: d3fd a0b8 4ff7 cb38 0914 03ba 53b4 a7b9
00000380: 4449 beb8 6343 e939 a10f 0eb9 d289 4239
00000390: a1dd 47b9 285d 24ba 5fdd 51b9 4758 17b9
000003a0: 15ff 0b39 a15d 06ba 7401 2bb9 9559 ea39
000003b0: d4f7 f4b8 bcfa 3539 576b 29b9 1a27 32b9
000003c0: 1a07 75b9 20e0 b039 beaa 25b8 4f1c fe39
000003d0: 591d 9eb8 9510 04b9 52d5 193a 7723 8e39
000003e0: 5f84 ea39 d0b4 8e39 0a73 5b39 35c2 df39
000003f0: 476c bfb9 e2ea 9ab9 17d2 b8b9 cf4d dfb9

sequential_2/conv2d/BiasAdd/ReadVariableOp f4 [32]
0.017564058 -0.0047217226 0.008169651 0.00015420433 -0.0054293843 0.016665095 0.018973902 -0.002802784
-0.012573549 0.005670176 0.013267937 0.012078249 -0.00072088355 0.010396366 -0.0010942199 0.019629396
0.01254381 0.013148729 0.009222955 -0.017502537 0.014488021 0.022926968 -0.020795051 0.012017648
-0.043114386 6.2805244e-05 0.005381114 -0.0074645574 -0.009934225 -0.004082383 0.022859707 0.0063908244
00000000: 80e2 8f3c aeb8 9abb 00da 053c e9b1 2139
00000010: fae8 b1bb 3d85 883c 286f 9b3c eaae 37bb
00000020: 4901 4ebc e2cc b93b c361 593c d9e3 453c
00000030: adf9 3cba 8555 2a3c ed6b 8fba d4cd a03c
00000040: 8d84 4d3c c46d 573c e11b 173c 7b61 8fbc
00000050: 2a5f 6d3c 56d1 bb3c 625a aabc abe5 443c
00000060: b698 30bd 4fb6 8338 0e54 b03b 3f99 f4bb
00000070: 29c3 22bc 83c5 85bb 4844 bb3c 1f6a d13b

sequential_2/conv2d_1/BiasAdd/ReadVariableOp f4 [64]
-0.011564182 -0.014863913 -0.027880156 -0.02709992 -0.00024269406 -0.014042368 -0.009430894 -0.01475774
0.004350853 -0.0033360552 0.0047769872 -0.01841151 0.0015807339 0.014417405 -0.0014794808 0.0009983226
-0.0025165728 -0.010192689 -0.018563129 -0.0069503556 -0.017034886 0.011456425 -0.0020371857 0.021832634
0.002902657 -0.00054168 0.013075581 0.021774817 -0.028554928 -0.008231086 -0.004358035 -0.012714839
-0.009805439 0.013862504 -0.018139817 -0.0025281534 -0.015106595 0.008617472 0.0319964 -0.021372614
0.005348848 -0.018966252 0.0007481661 0.010048583 0.004806424 -0.005592032 -0.019904682 -0.01862689
-0.02411898 0.0059257983 -0.014015569 -0.004030726 0.006664793 0.013202706 -0.0036560032 -0.0031223607
0.0086307 0.017075727 -0.014088736 0.008341884 0.009409769 0.002793285 0.0068037063 -0.004881478
00000000: b277 3dbc c587 73bc ed64 e4bc a700 debc
00000010: b17b 7eb9 f611 66bc 0984 1abc 73ca 71bc
00000020: 9a91 8e3b b8a1 5abb 4688 9c3b bcd3 96bc
00000030: a130 cf3a fb36 6c3c 23eb c1ba 26da 823a
00000040: 16ed 24bb 3cff 26bc b411 98bc cfbf e3bb
00000050: bf8c 8bbc bbb3 3b3c 4e82 05bb 5ada b23c
00000060: 813a 3e3b 88ff 0dba f63a 563c 1a61 b23c
00000070: 06ec e9bc addb 06bc d9cd 8ebb e651 50bc
00000080: fea6 20bc 8e1f 633c f499 94bc 60af 25bb
00000090: a781 77bc 4c30 0d3c a80e 033d 9f15 afbc
000000a0: 6445 af3b 1d5f 9bbc 9420 443a d0a2 243c
000000b0: 357f 9d3b 5d3d b7bb 250f a3bc 6b97 98bc
000000c0: 2b95 c5bc 332d c23b 8fa1 65bc 2e14 84bb
000000d0: 5664 da3b 2a50 583c 8e99 6fbb 85a0 4cbb
000000e0: c867 0d3c 65e2 8b3c 71d4 66bc 66ac 083c
000000f0: 6f2b 1a3c 8c0f 373b a0f1 de3b cef4 9fbb

sequential_2/conv2d_2/BiasAdd/ReadVariableOp f4 [64]
0.022430299 -0.0044955253 -0.021746816 -0.003278899 -0.0041327314 0.015951669 -0.004559398 0.0051065274
-0.008396288 -0.028714828 -0.02262119 0.041926153 -0.013278961 -0.00582805 -0.0013455761 -0.008536994
-0.005826074 -0.005541526 -0.015340793 -0.0028287757 -0.012700798 -0.013523331 -0.01280703 -0.016476808
-0.014473237 -0.011780103 -0.00519549 0.0036813703 -0.004597 -0.010915054 -0.01064674 -0.011947256
-0.0077081225 -0.0049457233 0.008123065 0.0033175098 0.0035242136 -0.012783212 0.002464736 -0.011120192
-0.013321107 0.004134795 -0.012932193 -0.0065928316 -0.007253641 0.0071098027 -0.021950329 -0.018711923
-0.0045176875 -0.009027452 0.0051727034 -8.7371336e-07 -0.010308303 -0.012901345 -0.0125312405 -0.0010213382
-0.014470932 -0.008878121 -0.011535829 -0.012740638 -0.022539949 -0.012538364 -0.008490638 0.0014191573
00000000: bfbf b73c 334f 93bb 6126 b2bc cce2 56bb
00000010: dd6b 87bb 13ad 823c 0167 95bb a854 a73b
00000020: 9690 09bc 5c3b ebbc 1350 b9bc c2ba 2b3d
00000030: 0090 59bc 3af9 bebb 0b5e b0ba c0de 0bbc
00000040: a7e8 bebb b095 b5bb f357 7bbc fb62 39bb
00000050: 0217 50bc f690 5dbc 94d4 51bc 5ffa 86bc
00000060: 2821 6dbc 5501 41bc ee3e aabb 2543 713b
00000070: 6ea2 96bb 0ed5 32bc aa6f 2ebc 6cbe 43bc
00000080: 6b94 fcbb bc0f a2bb 9b16 053c 946a 593b
00000090: 7ef6 663b ad70 51bc 6987 213b 7731 36bc
000000a0: c640 5abc 2d7d 873b 8de1 53bc ae08 d8bb
000000b0: f3af edbb 59f9 e83b 2dd1 b3bc bf49 99bc
000000c0: 1c09 94bb e1e7 13bc c87f a93b 2089 6ab5
000000d0: 28e4 28bc 2a60 53bc d54f 4dbc 6cde 85ba
000000e0: 7d17 6dbc 8a75 11bc c600 3dbc 1cbe 50bc
000000f0: b3a5 b8bc b66d 4dbc 511c 0bbc 0403 ba3a

sequential_2/conv2d_3/BiasAdd/ReadVariableOp f4 [64]
0.031647764 0.050177444 -0.007992529 0.022902772 0.019195667 0.0056166514 -0.008710146 -0.018324766
-0.018904096 0.0104247 0.005378288 0.028797494 -0.010855423 -0.007971628 -0.022267602 -0.035260968
-0.006471592 0.006162513 0.0067460216 -0.0066986955 -0.015138393 -0.011556322 -0.010965635 -0.0024338942
0.0058706417 -0.021411829 -0.030078549 0.05287109 0.017449206 -8.831242e-05 0.01178022 -0.007860596
0.0052904934 0.004505719 -0.00905811 0.009838303 0.024796607 -0.008307154 -0.014435796 -0.01612875
-2.9414747e-05 -0.02059059 -0.023438545 0.014535959 0.012290169 0.028421082 -0.015573973 -0.016195504
0.0014903585 0.04088258 0.008798627 -0.0064783585 0.006045379 -0.0023380218 -0.0077131297 -0.018763652
-0.0006136751 0.008961823 0.002343431 -0.014157256 0.003930575 0.018919311 -0.022901295 0.0382884
00000000: 16a1 013d dd86 4d3d 19f3 02bc 989e bb3c
00000010: 3b40 9d3c e30b b83b 00b5 0ebc d21d 96bc
00000020: c3dc 9abc 5ccc 2a3c 5a3c b03b b9e8 eb3c
00000030: f2da 31bc 6e9b 02bc 8c6a b6bc ce6d 10bd
00000040: a60f d4bb e8ee c93b bb0d dd3b bb80 dbbb
00000050: 0607 78bc ba56 3dbc 35a9 33bc f881 1fbb
00000060: 835e c03b dc67 afbc 4a67 f6bc 5b8f 583d
00000070: a3f1 8e3c 5f34 b9b8 d301 413c bbc9 00bc
00000080: e05b ad3b b6a4 933b 7868 14bc d530 213c
00000090: 4122 cb3c bb1a 08bc 1e84 6cbc 7120 84bc
000000a0: b0bf f6b7 99ad a8bc 3102 c0bc 3b28 6e3c
000000b0: b45c 493c 54d3 e83c fa29 7fbc 6fac 84bc
000000c0: 2258 c33a 7e74 273d 1e28 103c 6948 d4bb
000000d0: 5118 c63b 7f39 19bb 6cbe fcbb 3bb6 99bc
000000e0: 0adf 20ba 9cd4 123c 4094 193b d6f3 67bc
000000f0: 0ecc 803b acfc 9a3c 7f9b bbbc 4cd4 1c3d

sequential_2/conv2d_4/BiasAdd/ReadVariableOp f4 [64]
-0.021142224 0.04363798 -0.03804014 -0.007769184 -0.0039732493 -0.008561193 -0.006229334 0.0056851106
-0.026442809 0.07405215 -0.012505981 -0.03158346 -0.027352886 -0.009795786 -0.013720281 -0.04482494
-0.054507572 -0.011693216 0.030815337 -0.017041922 -0.026647277 0.06570681 -0.034697767 -0.009355962
-0.007393271 0.018422872 -0.04111443 -0.0053784647 -0.0067119156 0.050263237 0.025023619 -0.011095223
-0.003872694 -0.009170276 -0.02429052 0.039344084 -0.0068363124 -0.03689556 -0.0089206835 0.06074732
-0.029862933 -0.031147541 0.060872458 0.001934445 0.0225784 -0.011545831 -0.03237344 0.009397284
-0.0046547404 -0.025820378 -0.023139227 0.03919738 0.06404162 -0.0017558162 0.048586294 -0.032971
0.014958325 -0.011904827 -0.00890697 -0.014141915 0.047799904 -0.006265456 0.049273018 -0.01941396
00000000: 7532 adbc bdbd 323d facf 1bbd a494 febb
00000010: 0832 82bb 3f44 0cbc 711f ccbb 2a4a ba3b
00000020: 979e d8bc a7a8 973d e3e5 4cbc a85d 01bd
00000030: 2913 e0bc 817e 20bc 08cb 60bc 5b9a 37bd
00000040: 5543 5fbd e794 3fbc 7270 fc3c 809b 8bbc
00000050: 644b dabc 4b91 863d 3f1f 0ebd c049 19bc
00000060: 4143 f2bb 90eb 963c 9b67 28bd d53d b0bb
00000070: a1ef dbbb d3e0 4d3d 55fe cc3c bdc8 35bc
00000080: 06cd 7dbb ed3e 16bc eafc c6bc 4327 213d
00000090: 2503 e0bb cc1f 17bd 0f28 12bc 2fd2 783d
000000a0: 1ca3 f4bc 2129 ffbc 6655 793d 348d fd3a
000000b0: 56f6 b83c ba2a 3dbc 039a 04bd 11f7 193c
000000c0: cb86 98bb 4285 d3bc 7a8e bdbc 6f8d 203d
000000d0: 4128 833d 6a23 e6ba 6c02 473d 990c 07bd
000000e0: c313 753c 770c 43bc 8aee 11bc 7eb3 67bc
000000f0: d5c9 433d 744e cdbb 81d2 493d 060a 9fbc

sequential_2/conv2d_5/BiasAdd/ReadVariableOp f4 [64]
-0.026794381 -0.0083296625 0.090980135 -0.035747904 -0.03771779 0.00900839 -0.008096318 0.05899514
-0.005376139 -0.027553178 -0.006210813 0.1067009 0.022282908 0.05260964 -0.02034117 0.017265046
-0.05596444 -0.062510416 -0.037722666 -0.013456283 -0.008268764 -0.027325178 -0.013302275 0.0026348887
-0.023919279 0.03793134 0.054970335 -0.074314795 -0.029202979 0.0033772 -0.020366443 0.082865134
0.019717341 -0.008277555 -0.0077675753 -0.019521177 -0.023263993 -0.028134435 -0.006775423 -0.043032747
-0.008158208 -0.058537006 -0.023396099 0.09215074 -0.006095224 -0.019027997 -0.011730811 0.0074760104
-0.04039801 0.011744463 -0.04980732 -0.020719897 -0.00929645 0.009180793 -0.010915644 -0.028399114
-0.02397527 -0.033576876 -0.012471381 -0.028688632 0.030864708 0.0847369 -0.008089064 -0.041826256
00000000: e47f dbbc 2379 08bc cb53 ba3d 656c 12bd
00000010: f87d 1abd ed97 133c 6ba6 04bc e3a4 713d
00000020: 532a b0bb 34b7 e1bc 1384 cbbb 0086 da3d
00000030: a58a b63c 357d 573d 86a2 a6bc 6d6f 8d3c
00000040: f83a 65bd 7605 80bd 1583 1abd be77 5cbc
00000050: b679 07bc 0dd9 dfbc c9f1 59bc 19ae 2c3b
00000060: 5df2 c3bc e55d 1b3d 9328 613d 5b32 98bd
00000070: 163b efbc 0454 5d3b 87d7 a6bc 32b5 a93d
00000080: 4386 a13c 959e 07bc 2587 febb e0ea 9fbc
00000090: 2194 bebc 307a e6bc 5e04 debb 1b43 30bd
000000a0: 01aa 05bc 80c4 6fbd 2da9 bfbc 87b9 bc3d
000000b0: 72ba c7bb 9ae0 9bbc 9632 40bc 52f9 f43b
000000c0: 6278 25bd d96b 403c c302 4cbd c6bc a9bc
000000d0: 2350 18bc 096b 163c 87d7 32bc 42a5 e8bc
000000e0: c967 c4bc e887 09bd c354 4cbc 6c04 ebbc
000000f0: fcd7 fc3c 8a8a ad3d fe87 04bc 0252 2bbd

sequential_2/conv2d_1/Conv2D f4 [64, 3, 3, 32]
-0.0057856278 0.04568505 -0.09244421 -0.055820253 0.039989103 -0.039486513 -0.042827263 -0.028944321
0.070010155 0.075882085 -0.02921982 0.022937682 0.045119047 0.07288471 -0.009584732 -0.027706696
-0.03977053 0.006287912 0.047297344 0.07675389 0.053007603 0.011343632 -0.0310188 -0.068883516
-0.022539053 0.073983565 0.023256682 -0.020760605 -0.02492939 0.0015655712 0.049308937 0.02589574
-0.014748247 0.060064472 0.05109899 -0.0673941 0.07341241 -0.038879618 -0.008795 -0.004417492
0.09236584 0.0653769 0.0792154 0.015923304 -0.048817065 0.05450645 0.032176234 0.06702584
0.062002096 -0.013959546 0.05891186 0.04313637 0.06202508 0.072714336 -0.049608488 0.009619844
0.056822367 -0.0695246 -0.05297158 -0.05229718 0.02666248 -0.053964693 -0.008404846 -0.053621188
0.024246415 -0.021619495 -0.02993911 -0.0057406784 0.11654354 0.053932533 0.04767936 -0.07748137
-0.042952824 -0.004784769 -0.0808355 0.030586315 0.025253318 0.05771437 0.033733387 -0.030038375
0.03563586 0.019164868 -0.03914618 0.02305401 0.051127482 -0.04134627 0.06713487 -0.006937089
-0.06264357 -0.026288006 -0.07362232 0.03630944 0.053966854 0.0016591132 0.013709671 0.01639406
0.023937734 0.06732288 -0.026742155 0.069038905 -0.029860776 0.02877627 -0.046040796 0.009942485
-0.06494656 0.078341946 0.030543938 -0.00090829097 -0.0014518313 -0.0864766 -0.07261423 0.038145136
-0.040538244 -0.010100251 0.005718579 0.05979118 -0.061486278 0.0010175989 -0.07326781 -0.074215315
-0.016113898 0.07413993 0.042637184 0.014941496 0.085063785 0.032114033 0.086764574 0.062938884
0.08636195 -0.054942787 0.006513914 0.020553797 0.029615527 -0.027233634 0.08848939 0.023279762
-0.059796706 -0.052850377 -0.030569166 0.043807164 0.04040117 -0.064342715 0.052296147 0.09109915
0.006733492 -0.0214661 0.0447783 0.007270376 -0.019010691 0.054061953 -0.039018482 0.054102544
-0.05191338 -0.028570952 -0.022191199 0.01962461 0.007894295 -0.100667894 0.052380994 0.05769418
-0.05630817 0.07905177 0.018381631 0.05162794 0.032085434 0.027687918 0.026506387 0.060716745
-0.07069686 -0.060630236 -0.06259968 0.04815054 -0.10285559 -0.021296395 -0.049336202 -0.019586295
-0.0333893 -0.029045416 0.004250937 -0.040743172 -0.015900316 0.08630828 0.013952202 0.054546747
0.07463309 0.031905565 0.00094841834 -0.031327322 0.052311655 -0.028202098 -0.013287668 0.06601157
0.036912452 -0.07115908 0.03071407 0.0060957656 0.0297343 -0.040436435 0.010441426 -0.057684924
-0.0028863018 0.0630901 0.07267411 0.041869566 0.06404597 -0.043581143 0.0424385 0.04315891
-0.05141386 -0.058894206 -0.059828404 0.068924196 0.0025998028 0.08123806 0.056397427 0.009223899
-0.034049723 -0.07726936 0.04225445 0.018847916 -0.006466428 -0.028296422 -0.041618682 -0.07789642
0.017915798 0.06808859 0.061766673 0.043982085 -0.023293728 0.04952961 0.008210652 -0.061108124
-0.012690205 0.0077461777 0.04046667 0.042370003 -0.07878396 -0.0003468907 -0.09314733 0.03420396
0.05384055 -0.06685427 0.028921422 0.052360676 -0.06847312 -0.0040883543 -0.056941964 0.06629847
-0.07868613 0.05124367 -0.030751217 0.06264408 0.09702138 0.058018077 0.04346437 0.01645964
00000000: 5d95 bdbb 3f20 3b3d 6453 bdbd c7a3 64bd
00000010: 9dcb 233d 9cbc 21bd a46b 2fbd a41c edbc
00000020: 7c61 8f3d 1168 9b3d 675e efbc cee7 bb3c
00000030: c0ce 383d 9444 953d 4809 1dbc 27f9 e2bc
00000040: 6ce6 22bd d40a ce3b dcba 413d 2531 9d3d
00000050: 801e 593d a4da 393c 231b febc cd12 8dbd
00000060: d2a3 b8bc b284 973d cc84 be3c 2512 aabc
00000070: b838 ccbc da33 cd3a 2bf8 493d 4e23 d43c
00000080: a2a2 71bc 2a06 763d 2d4d 513d eb05 8abd
00000090: 3f59 963d 3c40 1fbd e718 10bc 9cc0 90bb
000000a0: 4d2a bd3d 53e4 853d af3b a23d 9771 823c
000000b0: 67f4 47bd 2842 5f3d 3acb 033d d844 893d
000000c0: e9f5 7d3d 94b6 64bc 904d 713d c3af 303d
000000d0: 030e 7e3d 41eb 943d 4532 4bbd 8d9c 1d3c
000000e0: 92be 683d ea62 8ebd baf8 58bd 9135 56bd
000000f0: 466b da3c 150a 5dbd 7bb4 09bc e4a1 5bbd
00000100: 6ba0 c63c 5e1b b1bc dd42 f5bc 4d1c bcbb
00000110: 61ae ee3d 5ce8 5c3d 6f4b 433d 8dae 9ebd
00000120: 4def 2fbd 8dc9 9cbb 158d a5bd 2790 fa3c
00000130: 0ce0 ce3c e765 6c3d 052c 0a3d 0a13 f6bc
00000140: e8f6 113d a4ff 9c3c bf57 20bd c3db bc3c
00000150: 0d6b 513d b55a 29bd 027e 893d 8550 e3bb
00000160: 464b 80bd f259 d7bc 4dc7 96bd 35b9 143d
00000170: 590c 5d3d 9a76 d93a 879e 603c d64c 863c
00000180: 1119 c43c 94e0 893d 5d12 dbbc 4564 8d3d
00000190: 969e f4bc 36bc eb3c 4695 3cbd cee5 223c
000001a0: b402 85bd be71 a03d 4837 fa3c 601a 6eba
000001b0: 604b beba a51a b1bd c5b6 94bd 133e 1c3d
000001c0: 6e0b 26bd 867b 25bc eb62 bb3b 99e7 743d
000001d0: 09d9 7bbd f460 853a 6f0d 96bd 33fe 97bd
000001e0: 4b01 84bc add6 973d 54a4 2e3d 2dcd 743c
000001f0: ec35 ae3d 018a 033d a0b1 b13d 1ae6 803d
00000200: 89de b03d b00b 61bd ac72 d53b 7060 a83c
00000210: 439c f23c 1219 dfbc ed39 b53d 33b5 be3c
00000220: 64ed 74bd a379 58bd 306c fabc 246f 333d
00000230: b27b 253d 1dc6 83bd 7c34 563d 3192 ba3d
00000240: a0a4 dc3b add9 afbc 7369 373d 563c ee3b
00000250: 4fbc 9bbc 1170 5d3d d8d1 1fbd a19a 5d3d
00000260: 20a3 54bd a10d eabc 51ca b5bc cac3 a03c
00000270: 1357 013c f82a cebd 748d 563d bc50 6c3d
00000280: 65a3 66bd e5e5 a13d 1395 963c d277 533d
00000290: 046c 033d c6d1 e23c ec23 d93c 1fb2 783d
000002a0: 84c9 90bd 6957 78bd 4334 80bd 8039 453d
000002b0: f4a5 d2bd c775 aebc c214 4abd 7073 a0bc
000002c0: 38c3 08bd a7f0 edbc 724b 8b3b 50e2 26bd
000002d0: 6141 82bc 65c2 b03d c797 643c 696c 5f3d
000002e0: 3cd9 983d 69af 023d 479f 783a 1451 00bd
000002f0: bf44 563d 1608 e7bc 85b4 59bc 1331 873d
00000300: 8331 173d dabb 91bd 139c fb3c fdbe c73b
00000310: 5995 f33c ada0 25bd 8412 2b3c 0747 6cbd
00000320: 1c28 3dbb 6235 813d 2ad6 943d 6c7f 2b3d
00000330: 892a 833d 2482 32bd fed3 2d3d 66c7 303d
00000340: 5797 52bd 0d3b 71bd a10e 75bd 2128 8d3d
00000350: 7461 2a3b 2460 a63d fd00 673d d61f 173c
00000360: b977 0bbd 663f 9ebd 0113 2d3d f266 9a3c
00000370: 54e4 d3bb e6cd e7bc 5a78 2abd 2988 9fbd
00000380: 27c4 923c 0872 8b3d 0dff 7c3d 8f26 343d
00000390: 7dd2 bebc 8fdf 4a3d f885 063c 834c 7abd
000003a0: 94ea 4fbc a6d3 fd3b 61c0 253d 2b8c 2d3d
000003b0: 7c59 a1bd e2de b5b9 07c4 bebd 7419 0c3d
000003c0: e987 5c3d e4ea 88bd 9eec ec3c 2678 563d
000003d0: a33b 8cbd 9af7 85bb fa3b 69bd 7ec7 873d
000003e0: 3226 a1bd e2e4 513d fae9 fbbc 8a4b 803d
000003f0: 25b3 c63d 5da4 6d3d b207 323d 5ed6 863c

sequential_2/conv2d_2/Conv2D f4 [64, 3, 3, 64]
0.036081202 -0.00024789176 -0.0898406 -0.064830095 -0.062107768 -0.04060764 0.025866412 0.073238224
-0.03989156 0.00047286093 0.04136269 -0.04982271 -0.02025306 -0.033748135 -0.034038924 0.05660528
0.011299483 0.039843082 -0.040033888 -0.032181364 0.035271395 0.07947644 0.0031988344 0.07010316
0.033386827 -0.065030254 0.055852562 0.100625224 -0.06798278 -0.06666933 0.03045945 -0.010160275
0.020076279 0.08171085 0.037742365 -0.052799642 0.01139951 -0.018309716 0.069385625 0.053452652
-0.035433482 -0.0071238135 -0.049878765 -0.028569039 -0.041796673 -0.06343891 -0.0036524865 0.03768901
-0.004416813 0.029799234 0.040456597 -0.031459767 -0.012438439 -0.06300327 0.019782148 -0.029222496
0.08904434 0.016522443 -0.06007453 0.006724517 0.07551801 0.058867842 0.040272247 0.056452516
0.033029318 -0.036789384 -0.09808794 -0.07887419 -0.021575904 -0.042204633 -0.054935995 -0.043885086
-0.0041167918 -0.03580972 -0.041130226 0.028283698 -0.05081308 0.054802023 0.04242971 0.075939536
0.027604362 0.047098026 -0.07283812 -0.03721948 0.017329251 0.031051727 -0.0016856072 0.057619132
-0.028920084 -0.061738774 -0.054260027 0.029443825 -0.08229445 -0.011706027 -0.027763983 0.027338725
-0.046170603 0.037255388 -0.018450126 0.027324505 0.063433066 0.029020531 0.043392297 -0.053681146
0.07318867 -0.024745207 -0.027496379 -0.05279166 0.041531004 -0.07580599 -0.03287999 -0.04801379
-0.06047125 0.048859857 -0.08319058 -0.03183115 0.0054150913 0.0031405569 -0.094229355 -0.045171924
-0.017767984 0.060900923 -0.037613668 0.024792403 0.07178159 0.028394625 0.029150598 -0.033920873
0.036449715 -0.039774526 -0.04198456 -0.05050798 -0.016132524 0.06259047 0.06720757 -0.04186239
0.029139599 0.034204926 -0.048943233 0.037903693 0.0050665196 0.06189554 -0.03668094 -0.027929157
0.0383906 0.03198467 -0.018771017 0.05245143 -0.04990901 -0.021113677 -0.06215303 0.049736284
0.03224641 -0.022484083 0.027567882 0.09171474 0.016267933 -0.022645192 -0.015158231 -0.0007109763
0.048143208 -0.021398097 0.016805552 0.025050199 0.04632091 -0.0036862 0.02489771 0.03684224
0.053924497 0.05618288 -0.022152305 -0.0096287625 0.005672029 -0.029891463 -0.0129280705 -0.04820604
0.0110341115 -0.0006391867 0.015535915 -0.021105437 0.057267442 -0.032882914 -0.01815728 -0.07111527
0.011877747 0.043231554 -0.07146007 0.05259386 -0.0016482825 -0.0338954 0.014897929 0.048994858
0.03782976 -0.02586772 -0.09449501 -0.047486357 -0.038596164 -0.034951765 -0.023542069 -0.0443867
-0.009515411 -0.0024574518 -0.045533188 0.017766038 -0.0022230346 0.044233125 0.0582107 0.077717796
0.035610538 0.047897168 0.025528379 -0.0027736377 -0.07905591 -0.014205813 -0.012366274 0.08995651
0.053464808 -0.01228558 0.062241904 0.057423797 -0.013927936 -0.03168023 -0.055580087 0.033892337
0.009350716 0.087773584 0.06892489 0.05979516 0.09171558 0.0018704989 -0.04403762 0.05377189
-0.053455766 0.026364172 0.040923312 0.026314111 0.07051665 0.041941363 0.013540482 -0.02495144
0.044405177 -0.042970765 -0.080246925 0.04359456 0.06392341 0.03383497 0.03751721 0.022412922
0.0968403 -0.039292824 -0.027973004 -0.0050781816 0.03469091 -0.047992248 0.07012648 0.008329726
00000000: e2c9 133d 78f7 81b9 59fe b7bd a4c5 84bd
00000010: b764 7ebd 3254 26bd cce5 d33c ecfd 953d
00000020: 5565 23bd 52ea f739 ed6b 293d e612 4cbd
00000030: bfe9 a5bc 7c3b 0abd 666c 0bbd f0da 673d
00000040: 7721 393c 8032 233d 93fa 23bd 9bd0 03bd
00000050: bd78 103d 8bc4 a23d 89a3 513b 3f92 8f3d
00000060: a0c0 083d 952e 85bd a8c5 643d 9914 ce3d
00000070: 8e3a 8bbd ee89 88bd 1986 f93c 4877 26bc
00000080: 0277 a43c 0558 a73d bd97 1a3d 7044 58bd
00000090: 03c5 3a3c 42fe 95bc 0d1a 8e3d 2bf1 5a3d
000000a0: b322 11bd e16e e9bb ad4d 4cbd 9e09 eabc
000000b0: fd32 2bbd 42ec 81bd 8e5e 6fbb cb5f 1a3d
000000c0: eaba 90bb 861d f43c d1b5 253d f5db 00bd
000000d0: 98ca 4bbc dc07 81bd 2c0e a23c 0464 efbc
000000e0: e15c b63d 135a 873c b610 76bd 5659 dc3b
000000f0: 30a9 9a3d 681f 713d 83f4 243d c13a 673d
00000100: c049 073d 77b0 16bd 54e2 c8bd cb88 a1bd
00000110: f3bf b0bc c4de 2cbd 9104 61bd d9c0 33bd
00000120: 27e6 86bb 37ad 12bd 2b78 28bd 37b3 e73c
00000130: 6021 50bd 1678 603d c7ca 2d3d 3086 9b3d
00000140: 8b22 e23c dce9 403d 272c 95bd 7473 18bd
00000150: 13f6 8d3c 3160 fe3c 98ef dcba 0a02 6c3d
00000160: d0e9 ecbc cce1 7cbd c33f 5ebd 2d34 f13c
00000170: fe89 a8bd a3ca 3fbc 4b71 e3bc 76f5 df3c
00000180: 631d 3dbd 1b99 183d b824 97bc a4d7 df3c
00000190: 32e9 813d 77bc ed3c 1fbc 313d c3e0 5bbd
000001a0: f1e3 953d 76b6 cabc 1640 e1bc 113c 58bd
000001b0: 6a1c 2a3d 2c40 9bbd 2bad 06bd 1caa 44bd
000001c0: b4b0 77bd 4621 483d d35f aabd 6161 02bd
000001d0: 1471 b13b cdd1 4d3b 52fb c0bd 3206 39bd
000001e0: 2a8e 91bc 3f73 793d ca10 1abd 7019 cb3c
000001f0: 3a02 933d d89b e83c 3ccd ee3c 9df0 0abd
00000200: 4c4c 153d 9dea 22bd 01f8 2bbd 75e1 4ebd
00000210: 5b28 84bc 6f2f 803d 1fa4 893d e677 2bbd
00000220: 2bb6 ee3c 771a 0c3d b378 48bd e740 1b3d
00000230: 0c05 a63b 2e86 7d3d c13e 16bd b0cb e4bc
00000240: 763f 1d3d 5b02 033d adc5 99bc 50d7 563d
00000250: 646d 4cbd 97f6 acbc 2d94 7ebd 46b8 4b3d
00000260: d014 043d 8a30 b8bc 0ad6 e13c f0d4 bb3d
00000270: 5444 853c 6982 b9bc 3b5a 78bc d060 3aba
00000280: d031 453d 104b afbc ccab 893c 1336 cd3c
00000290: ffba 3d3d 2c94 71bb 48f6 cb3c e3e7 163d
000002a0: efdf 5c3d 0520 663d c078 b5bc f5c1 1dbc
000002b0: 6edc b93b f1de f4bc 42d0 53bc b273 45bd
000002c0: 6bc8 343c 188f 27ba 5a8a 7e3c 4fe5 acbc
000002d0: 4491 6a3d 3cb0 06bd 93be 94bc e2a4 91bd
000002e0: e29a 423c 9213 313d a859 92bd a96c 573d
000002f0: 2f0b d8ba e7d5 0abd 7116 743c d5ae 483d
00000300: 61f3 1a3d 8ae8 d3bc 9a86 c1bd 0e81 42bd
00000310: 0317 1ebd 9529 0fbd 4cdb c0bc d4ce 35bd
00000320: 87e6 1bbc 330d 21bb 0281 3abd 158a 913c
00000330: 55b0 11bb cb2d 353d 586e 6e3d 822a 9f3d
00000340: 5bdc 113d d22f 443d e420 d13c ebc5 35bb
00000350: 11e8 a1bd 80bf 68bc ea9b 4abc 1e3b b83d
00000360: eafd 5a3d 7549 49bc 5ef1 7e3d 3735 6b3d
00000370: ff31 64bc 21c3 01bd f2a7 63bd b1d2 0a3d
00000380: bf33 193c a3c2 b33d 7e28 8d3d c5eb 743d
00000390: 61d5 bb3d 872b f53a cb60 34bd ea3f 5c3d
000003a0: 6ff4 5abd adf9 d73c 349f 273d b190 d73c
000003b0: 096b 903d b5ca 2b3d e6d8 5d3c f666 ccbc
000003c0: 34e2 353d 1d02 30bd 8058 a4bd 3690 323d
000003d0: 47ea 823d 8a96 0a3d a5ab 193d 4e9b b73c
000003e0: 3554 c63d 83f1 20bd a427 e5bc e066 a6bb
000003f0: 0e18 0e3d 8593 44bd 799e 8f3d 6779 083c

sequential_2/conv2d_3/Conv2D f4 [64, 3, 3, 64]
-0.006940682 -0.05286197 -0.08112465 -0.038613703 0.0624689 -0.05879745 0.013733145 0.007035304
-0.0050740954 -0.06529279 -0.050530117 -0.019169929 -0.06759115 -0.008717885 -0.06980776 -0.014652392
-0.0843245 -0.045242596 0.03373853 -0.030748611 0.0077795535 -0.06500813 -0.049714398 -0.05046817
-0.03525479 0.009400878 0.056071553 -0.033986587 0.0043139695 -0.014241125 -0.047891162 -0.057442803
0.026657144 -0.013850807 -0.04654901 -0.08314004 0.016785659 0.05891932 0.010230295 -0.018639587
0.0096117575 -0.065427825 0.07332734 0.059208598 0.023552787 -0.049914196 0.024583785 -0.008138735
-0.096961655 0.052671738 -0.04541735 -0.06980448 -0.0534518 0.02967437 -0.056874823 0.047696836
0.047544584 -0.02375611 -0.04301963 -0.030215051 0.022473166 0.037607267 -0.058293507 -0.010349377
0.054059755 -0.031282775 0.0011917782 -0.044139236 0.051774185 -0.06260839 0.06417305 -0.021328961
-0.042211503 -0.023017276 0.023603912 0.066564 -0.03962354 0.04960944 0.009439557 -0.039884273
0.0043996074 -0.005117639 -0.07952841 -0.073537454 0.07066126 0.0034742134 -0.010769834 0.02370455
0.06580274 0.031746253 0.008524234 0.05733582 -0.10369416 -0.06616667 0.012851635 0.03939662
-0.02940589 -0.070544474 -0.006347199 -0.0341124 0.08255631 -0.02108713 0.025268175 0.006927514
0.023426514 -0.04013145 0.04239428 0.02956377 -0.0549328 -0.0654292 0.013756721 -0.02700122
-0.0922661 0.049955145 -0.03781703 -0.04356971 0.042343788 0.017322782 -0.059750907 0.044182487
0.040105753 0.029888924 0.0017869733 0.009833513 -0.015879905 -0.014924974 -0.008045781 0.01179753
0.08464004 -0.031999346 -0.022006398 0.01601629 0.078668684 -0.03393779 0.04077193 0.027912501
-0.057812385 0.06547368 -0.009195157 0.092633426 -0.06521368 -0.06595383 -0.052758962 -0.058232754
0.052735776 0.03347577 0.052577436 0.07433643 0.017270101 -0.004833092 -0.073481016 0.020468574
0.008255699 -0.060256198 -0.04661465 -0.04388643 -0.014189034 -0.008988062 0.04066752 0.018472062
0.0010873817 -0.0005621082 0.037462316 -0.015633263 0.0752441 0.014989554 -0.028467998 -0.009499481
0.03423144 -0.010852506 0.027612198 0.015382503 0.011066863 -0.036401767 -0.036263004 -0.025771629
-0.06610692 -0.0056573423 -0.0472713 -0.042608615 -0.038008094 -0.07761768 -0.0074225357 0.06839258
-0.042605847 0.03815557 -0.043637566 0.047200777 -0.02424468 0.029995527 0.014674879 0.018334169
-0.0064239893 -0.031477585 -0.05453901 0.03225905 0.013503532 -0.013838992 -0.06587134 -0.050167643
0.006702733 -0.06567979 -0.032427553 -0.015761506 0.03510444 -0.058688823 -0.042336512 -0.06332376
-0.022831107 0.026850803 -0.026269475 -0.042976227 0.07213765 0.013756507 -0.078838326 0.025289033
-0.047572706 0.021079957 -0.01889193 0.03901297 -0.072268605 0.014183358 -0.040505674 -0.052537307
0.024554336 0.047953594 0.06277478 -0.017365446 0.028143777 -0.03901921 -0.059907544 -0.02690087
-0.07443323 0.025719015 0.024902139 -0.0437974 0.065326415 -0.0658779 0.04182514 -0.062003866
0.00022358686 0.041903507 0.018426439 -0.02797375 0.02754605 0.028692916 0.018390585 -0.065056995
0.057066552 -0.022806512 -0.06114889 0.04716668 -0.00023630701 0.005320776 0.043038562 -0.010612768
00000000: a96e e3bb cb85 58bd ae24 a6bd 6729 1ebd
00000010: 64df 7f3d 98d5 70bd fc00 613c 6888 e63b
00000020: 9944 a6bb 3ab8 85bd abf8 4ebd 410a 9dbc
00000030: 3b6d 8abd 76d5 0ebc 5ff7 8ebd 9610 70bc
00000040: 53b2 acbd 4d50 39bd 6a31 0a3d 83e4 fbbc
00000050: a0eb fe3b fc22 85bd 53a1 4bbd b6b7 4ebd
00000060: 5467 10bd 2406 1a3c 49ab 653d 8535 0bbd
00000070: 335c 8d3b 9c53 69bc 8629 44bd 2549 6bbd
00000080: 1560 da3c 7fee 62bc 2daa 3ebd 5345 aabd
00000090: 1482 893c 6355 713d f89c 273c 0cb2 98bc
000000a0: a27a 1d3c 06ff 85bd a52c 963d b784 723d
000000b0: c6f1 c03c d472 4cbd ef63 c93c 5458 05bc
000000c0: d593 c6bd 52be 573d 8b07 3abd a7f5 8ebd
000000d0: 46f0 5abd aa17 f33c 93f5 68bd c25d 433d
000000e0: 1cbe 423d 2c9c c2bc 5a35 30bd 8e85 f7bc
000000f0: a519 b83c 140a 1a3d 2cc5 6ebd 6f90 29bc
00000100: c36d 5d3d 5e22 00bd 7135 9c3a 58cb 34bd
00000110: 2b11 543d d438 80bd 296d 833d 13ba aebc
00000120: f8e5 2cbd ba8e bcbc fe5c c13c b552 883d
00000130: 4b4c 22bd 4533 4b3d 5fa8 1a3c b15d 23bd
00000140: 952a 903b deb1 a7bb cbdf a2bd ce9a 96bd
00000150: dab6 903d a1af 633b f573 30bc 0b30 c23c
00000160: 96c3 863d 5c08 023d 3ba9 0b3c f7d8 6a3d
00000170: 9b5d d4bd 6482 87bd aa8f 523c 5a5e 213d
00000180: 9fe4 f0bc 9f79 90bd 2afc cfbb 72b9 0bbd
00000190: 4813 a93d ebbe acbc 34ff ce3c 3300 e33b
000001a0: f6e8 bf3c e060 24bd a0a5 2d3d b82f f23c
000001b0: 3701 61bd bfff 85bd df63 613c aa31 ddbc
000001c0: 02f6 bcbd c49d 4c3d 08e6 1abd 2776 32bd
000001d0: ae70 2d3d 82e8 8d3c 5ebd 74bd b2f8 343d
000001e0: ee45 243d 9ed9 f43c e038 ea3a be1c 213c
000001f0: 9316 82bc e187 74bc 74d2 03bc 6d4a 413c
00000200: c257 ad3d bf11 03bd c346 b4bc 9834 833c
00000210: 0c1d a13d 5a02 0bbd 7800 273d c2a8 e43c
00000220: aecc 6cbd 1117 863d 49a7 16bc 98b6 bd3d
00000230: c08e 85bd cd12 87bd c819 58bd 7885 6ebd
00000240: 7801 583d e41d 093d 705b 573d b33d 983d
00000250: 077a 8d3c ea5e 9ebb 377d 96bd b6ad a73c
00000260: e942 073c 34cf 76bd 01ef 3ebd 42c2 33bd
00000270: 1f79 68bc aa42 13bc fc92 263d b952 973c
00000280: 7a86 8e3a 715a 13ba 1672 193d 5411 80bc
00000290: 9419 9a3d bf96 753c b835 e9bc b6a3 1bbc
000002a0: 4436 0c3d b6ce 31bc fa32 e23c e506 7c3c
000002b0: ca51 353c 051a 15bd 8488 14bd 061f d3bc
000002c0: 1163 87bd 3a61 b9bb 8d9f 41bd 5f86 2ebd
000002d0: 60ae 1bbd 05f6 9ebd be38 f3bb 6911 8c3d
000002e0: 7883 2ebd 0449 1c3d 4ebd 32bd 9a55 413d
000002f0: c79c c6bc 2eb9 f53c e76e 703c 8a31 963c
00000300: 5480 d2bb a4ee 00bd 4c64 5fbd 1122 043d
00000310: eb3d 5d3c f1bc 62bc 8ee7 86bd 967c 4dbd
00000320: 9aa2 db3b 2083 86bd c1d2 04bd 461e 81bc
00000330: acc9 0f3d b163 70bd 0d69 2dbd e3af 81bd
00000340: 4d08 bbbc 37f6 db3c 1533 d7bc d707 30bd
00000350: e7bc 933d f962 613c fd75 a1bd f22a cf3c
00000360: 99db 42bd e0af ac3c 40c3 9abc 10cc 1f3d
00000370: 9001 94bd 5161 683c 47e9 25bd 5c31 57bd
00000380: 2d26 c93c fd6a 443d 1090 803d fb41 8ebc
00000390: c78d e63c 9bd2 1fbd 9d61 75bd 375f dcbc
000003a0: 7370 98bd afb0 d23c 92ff cb3c e764 33bd
000003b0: dbc9 853d feea 86bd d750 2b3d c4f7 7dbd
000003c0: a472 6a39 03a3 2b3d 0bf3 963c 3529 e5bc
000003d0: 41a8 e13c 680d eb3c daa7 963c 9a3c 85bd
000003e0: 9ebe 693d b9d4 babc 4277 7abd d931 413d
000003f0: 2ec9 77b9 e759 ae3b 3449 303d 2de1 2dbc

sequential_2/conv2d_4/Conv2D f4 [64, 3, 3, 64]
-0.048661515 -0.085204944 0.043517884 -0.07050873 -0.026976718 0.012550862 0.040557068 0.04227434
-0.04630265 0.018669926 -0.058787968 -0.06126569 -0.043565944 0.05557677 -0.02780468 -0.026304675
0.04346155 -0.007167805 -0.04050383 0.019961609 -0.033259213 0.015920931 0.00481391 0.01572299
0.033751998 -0.01306531 0.02503288 -0.0075579234 0.059134625 -0.029927198 0.010835991 0.06897057
-0.0894107 0.023604203 0.026918992 0.010749648 -0.01629496 0.065033644 0.052654088 0.028828463
-0.027001353 0.036614224 -0.06661052 -0.072070464 -0.084018774 -0.009074415 0.0023207173 0.04522977
-0.042579886 -0.07811895 -0.07801392 -0.053610045 0.081719294 -0.039401665 -0.0057255737 0.033248
0.03928302 -0.052870207 0.04918887 -0.01050685 -0.0017273885 0.02927134 0.03455913 -0.11000329
-0.038536996 -0.06433244 0.05512745 -0.054093864 0.007055873 -0.07523555 -0.070926115 -0.025056388
-0.08886779 -0.0106246155 0.001096587 -0.027422598 0.052487575 0.058357835 -0.079679616 0.00075990264
-0.0070648687 0.03560213 0.019227972 0.01875917 0.059652776 -0.05249212 0.03723961 -0.027392484
-0.09983166 -0.075535044 0.056656595 0.012203009 0.04500071 0.022906976 -0.044138815 -0.005420074
0.011724336 0.022813091 -0.04068606 -0.08490471 0.06150761 -0.05950877 -0.060254555 -0.091789044
0.008085461 -0.056866303 -0.077431 -0.005028044 -0.058108423 -0.088852495 -0.07051207 0.0504423
-0.06427176 -0.015944485 -0.017861303 -0.032825958 0.020428741 -0.016209356 0.039604694 -0.04399025
0.040470112 -0.0817749 -0.06326095 -0.04580655 -0.124433994 0.026611425 -0.071542226 -0.002166713
-0.07759123 -0.004132084 -0.06857225 0.023957279 0.017076159 -0.048976414 -0.04830617 -0.059621308
-0.045955252 0.04979447 -0.053656824 0.070075475 0.057309378 -0.06934094 -0.044437416 0.028097933
-0.018796874 0.047032602 -0.08023546 0.019021792 -0.07820841 -0.0862284 0.009964136 -0.018920558
-0.01080016 0.0035597773 0.06444586 -0.061007034 -0.025037114 0.05269243 -0.04721746 0.03665214
-0.0018757187 0.07082451 -0.03612113 -0.07908092 0.05919551 0.034662988 -9.735618e-05 0.04858577
0.0022562742 -0.01680257 -0.060023807 0.043605793 -0.020660438 0.006714672 0.0028469586 -0.013796921
0.056319084 -0.006881789 -0.02741809 -0.03358815 0.07474352 0.012261702 0.04324462 -0.0373161
-0.040801827 -0.028443163 0.06505442 -0.07564643 -0.05872806 0.019955039 -0.04996556 -0.03390196
0.034468103 -0.005736757 -0.052413594 -0.043373477 0.050922632 -0.024688704 -0.017568568 0.05992948
0.013391885 -0.05125233 -0.066002615 0.010786128 -0.07200059 0.012552484 0.041195523 -0.0653341
-0.039592296 -0.037545927 -0.086668655 0.040198196 0.072741754 -0.054532506 -0.07125431 -0.057301305
0.04113761 0.001957062 -0.051855706 -0.032689534 -0.046655465 -0.05099584 0.06155012 0.046468012
-0.068681195 -0.053020533 -0.05634294 -0.013818013 -0.017555699 -0.05048609 0.022022502 -0.09164304
0.04462912 -0.0020605135 0.02576052 -0.030414643 -0.041254908 -0.065498844 0.054630574 -0.048884716
-0.015231387 -0.081928216 -0.016665291 -0.008126272 0.014804649 -0.08086209 -0.044053394 -0.0495453
0.014834752 -0.0933758 -0.035480503 -0.04504474 -0.007957313 0.024239235 -0.058106177 -0.012443614
00000000: 4c51 47bd ee7f aebd cf3f 323d e266 90bd
00000010: 47fe dcbc 21a2 4d3c 2b1f 263d dc27 2d3d
00000020: d9a7 3dbd acf1 983c a7cb 70bd bbf1 7abd
00000030: 3472 32bd 78a4 633d a4c6 e3bc e77c d7bc
00000040: bd04 323d e8df eabb 58e7 25bd 8786 a33c
00000050: d03a 08bd 9d6c 823c 01be 9d3b 80cd 803c
00000060: 893f 0a3d e20f 56bc c111 cd3c 75a8 f7bb
00000070: 2637 723d e229 f5bc 7189 313c 7140 8d3d
00000080: f51c b7bd 9a5d c13c 3885 dc3c 4b1f 303c
00000090: 027d 85bc 5c30 853d d0ab 573d ab29 ec3c
000000a0: f131 ddbc ccf8 153d 196b 88bd ae99 93bd
000000b0: 0912 acbd dbac 14bc 2d17 183b da42 393d
000000c0: 3f68 2ebd d4fc 9fbd c3c5 9fbd 3596 5bbd
000000d0: 725c a73d a463 21bd 989d bbbb 0e2f 083d
000000e0: 3be7 203d 6e8e 58bd 457a 493d ec24 2cbc
000000f0: 8a69 e2ba 73ca ef3c e08d 0d3d 6849 e1bd
00000100: f8d8 1dbd bac0 83bd 52cd 613d 8791 5dbd
00000110: f434 e73b 1915 9abd b641 91bd 0e43 cdbc
00000120: 5100 b6bd de12 2ebc 5bbb 8f3a 5ba5 e0bc
00000130: 36fd 563d a008 6f3d 112f a3bd 3434 473a
00000140: 6a80 e7bb 8ad3 113d fb83 9d3c d5ac 993c
00000150: 7856 743d fa01 57bd 9088 183d 3466 e0bc
00000160: 8b74 ccbd 1eb2 9abd bf10 683d 21ef 473c
00000170: aa52 383d 69a7 bb3c e7ca 34bd e09a b1bb
00000180: 6e17 403c 85e2 ba3c 6da6 26bd 85e2 adbd
00000190: 67ef 7b3d 78bf 73bd 7bcd 76bd e5fb bbbd
000001a0: e278 043c a4ec 68bd 2594 9ebd 4ac2 a4bb
000001b0: 1903 6ebd 4cf8 b5bd a268 90bd 969c 4e3d
000001c0: eaa0 83bd 029e 82bc de51 92bc 8374 06bd
000001d0: 2d5a a73c 7cc9 84bc 8838 223d 1f2f 34bd
000001e0: fdc3 253d 9979 a7bd f58e 81bd a69f 3bbd
000001f0: 40d7 febd 3400 da3c bb84 92bd 69ff 0dbb
00000200: 27e8 9ebd 6f66 87bb 9c6f 8cbd 0e42 c43c
00000210: 4de3 8b3c 7e9b 48bd b1dc 45bd 7935 74bd
00000220: 933b 3cbd 49f5 4b3d 42c7 5bbd bb83 8f3d
00000230: 3dbd 6a3d 9f02 8ebd 0204 36bd a32d e63c
00000240: e7fb 99bc 42a5 403d 7d52 a4bd 97d3 9b3c
00000250: bb2b a0bd 8498 b0bd 9e40 233c 49ff 9abc
00000260: 27f3 30bc 274b 693b 31fc 833d 83e2 79bd
00000270: a21a cdbc 04d4 573d 1867 41bd 8e20 163d
00000280: adda f5ba 710c 913d c0f3 13bd 2df5 a1bd
00000290: fe76 723d c7fa 0d3d b32b ccb8 df01 473d
000002a0: 00de 133b 8ba5 89bc 86db 75bd fd9b 323d
000002b0: 1440 a9bc c006 dc3b 0a94 3a3b 7b0c 62bc
000002c0: d7ae 663d a180 e1bb e79b e0bc ba93 09bd
000002d0: 2113 993d 4ee5 483c 4521 313d c4d8 18bd
000002e0: d11f 27bd a301 e9bc 403b 853d 84ec 9abd
000002f0: d68c 70bd c078 a33c b0a8 4cbd c8dc 0abd
00000300: 6d2e 0d3d 68fb bbbb a3af 56bd 63a8 31bd
00000310: 4094 503d f73f cabc f5eb 8fbc 9d78 753d
00000320: a369 5b3c f7ed 51bd 612c 87bd 4db8 303c
00000330: 0c75 93bd efa8 4d3c a3bc 283d e2cd 85bd
00000340: 882b 22bd c2c9 19bd 567f b1bd dda6 243d
00000350: a1f9 943d 7a5d 5fbd c8ed 91bd c6b4 6abd
00000360: e97f 283d 0d42 003b a666 54bd 76e5 05bd
00000370: cd19 3fbd 04e1 50bd fb1b 7c3d 3e55 3e3d
00000380: baa8 8cbd 0f2c 59bd dbc7 66bd f264 62bc
00000390: f8d0 8fbc 81ca 4ebd 8968 b43c 59af bbbd
000003a0: 06cd 363d ae09 07bb ba07 d33c 2128 f9bc
000003b0: e8fa 28bd 4224 86bd 4fc4 5f3d 573b 48bd
000003c0: 118d 79bc fbc9 a7bd a685 88bc 0e24 05bc
000003d0: 338f 723c 069b a5bd 5571 34bd 03f0 4abd
000003e0: 760d 733c d03b bfbd 0154 11bd d580 38bd
000003f0: 645f 02bc 5c91 c63c be00 6ebd 4de0 4bbc

sequential_2/conv2d_5/Conv2D f4 [64, 3, 3, 64]
0.021422327 -0.05727347 -0.007873634 0.013487794 -0.014638784 0.011833942 -0.030393228 -0.0032607678
-0.018944262 -0.007663009 0.012134676 -0.030818908 -0.07765005 -0.07132778 -0.03925824 -0.072839424
-0.015705427 0.05060907 -0.053018235 -0.07146636 -0.016665775 -0.02735842 -0.045523096 -0.04157207
0.044807997 -0.040271197 0.018126834 -0.011306694 -0.06688157 0.009951297 0.062094633 0.041807126
0.002036534 0.010715686 0.018877428 0.055087022 0.04481123 -0.052688725 0.06341111 0.041338086
0.01834391 0.0337 -0.045630816 -0.020656008 -0.032793034 0.061937556 -0.15298913 0.011873105
0.005494614 -0.018796997 0.025158718 0.01734408 -0.08431521 -0.035809737 -0.019003699 -0.0019796765
-0.08485231 0.0032220373 -0.022100173 -0.0036736499 0.059243135 -0.046479378 0.053731572 -0.052792143
0.008541812 -0.046910502 0.047057882 0.023422379 -0.0075695654 -0.01956112 0.032773435 -6.672351e-05
0.011918852 -0.044822223 0.06418605 0.11226819 0.010086483 -0.067946695 0.01643199 -0.018824758
-0.03825463 0.0547161 -0.03553239 -0.02254074 -0.0122176325 0.050391916 -0.04248001 -0.030347701
-0.006672125 0.021207917 -6.101162e-05 -0.045432027 -0.004560835 0.048966873 -0.040536202 -0.06709046
0.015625404 -0.072321855 0.059236325 0.0045352285 0.052126676 -0.020033626 -0.043159854 -0.08849618
0.060324673 0.026928002 0.024673216 0.04212604 0.013273169 0.019097652 -0.0049500633 0.051998768
-0.078058906 -0.050082237 -0.07685709 0.018023543 -0.06368332 0.012999139 0.05199972 0.0018460522
0.013272132 -0.06991566 -0.062434666 0.1048541 0.019377794 0.029287977 -0.023185292 -0.034387533
0.060802076 0.07458517 -0.006068765 -0.028685229 -0.062629424 0.07058941 0.04396376 -0.03570943
0.0008565925 0.07478176 -0.015467613 0.066303365 0.08762789 -0.040002782 0.05659046 0.08559306
0.020657234 0.016209697 -0.0006420209 0.075690374 0.006358869 0.027786715 0.012323383 0.033424307
-0.05925322 0.044311114 -0.0715681 0.06339908 -0.027985817 0.058834903 0.059559513 0.022243692
0.09730876 0.04489675 0.095212474 0.049275234 -0.010430691 -0.029538851 -0.06373344 0.053933434
0.0148559855 -0.056173615 -0.023992948 0.054579455 0.03451375 -0.004108304 -0.030298665 0.013573711
0.06746526 0.09486393 -0.085325696 0.08910309 0.0657897 0.038972083 -0.020696452 0.07798248
0.0031327663 -0.0069935946 -0.025392987 0.06407836 0.017291129 -0.035210498 0.07185861 -0.032302745
-0.04095997 0.0015975909 -0.04491775 -0.05854219 -0.05008679 0.052290656 -0.037140638 0.00990566
-0.05010611 0.028234852 -0.06495171 0.041395202 -0.116372526 -0.010261497 -0.023380611 -0.064318925
-0.021411482 0.003875972 -0.0541972 -0.08152018 0.012152553 -0.070777275 -0.12726288 0.018596653
0.039936285 0.003989832 0.011599822 0.03284977 0.057356913 -0.05460504 -0.027649881 0.023389285
-0.111829035 0.041462302 -0.011556436 -0.060611855 0.015903786 -0.039637506 0.056131333 -0.08468128
-0.027526075 -0.00017100517 0.006936657 -0.07728009 -0.033224314 -0.021945355 0.013144141 -0.08892246
0.008952321 -0.07784007 -0.09135423 0.010294846 -0.047500692 -0.024277544 -0.050564777 -0.08901876
-0.114341795 -0.048925288 -0.04017319 -0.012240041 -0.012635865 0.056013733 -0.0011638647 0.005094348
00000000: e07d af3c 9697 6abd 6a00 01bc e9fb 5c3c
00000010: 83d7 6fbc 26e3 413c 38fb f8bc 9bb2 55bb
00000020: ff30 9bbc fb19 fbbb 85d0 463c ef77 fcbc
00000030: fd06 9fbd 4d14 92bd 40cd 20bd d62c 95bd
00000040: aba8 80bc 754b 4f3d a629 59bd f45c 92bd
00000050: aa86 88bc c41e e0bc 6d76 3abd 7a47 2abd
00000060: 9788 373d 69f3 24bd ba7e 943c b63f 39bc
00000070: 34f9 88bd c40a 233c f156 7e3d f33d 2b3d
00000080: 5f77 053b d890 2f3c d6a4 9a3c eea2 613d
00000090: fb8b 373d 22d0 57bd afdd 813d 2052 293d
000000a0: f845 963c 0309 0a3d 61e7 3abd ca36 a9bc
000000b0: fd51 06bd 3cb2 7d3d 2fa9 1cbe 6987 423c
000000c0: 2a0c b43b 29fc 99bc a819 ce3c 2c15 8e3c
000000d0: 74ad acbd 3bad 12bd a5ad 9bbc 76bd 01bb
000000e0: 0cc7 adbd d128 533b 6c0b b5bc 9ec1 70bb
000000f0: eea8 723d 2961 3ebd a315 5c3d 933c 58bd
00000100: f5f2 0b3c 3a25 40bd c4bf 403d 4ae0 bf3c
00000110: 1e0a f8bb a43e a0bc 703d 063d e9ed 8bb8
00000120: 4a47 433c 8297 37bd fa73 833d ddec e53d
00000130: c741 253c a327 8bbd 619c 863c 6136 9abc
00000140: e3b0 1cbd fd1d 603d 698a 11bd 5ca7 b8bc
00000150: 772c 48bc c167 4e3d 85ff 2dbd be9b f8bc
00000160: d7a1 dabb 3abc ad3c bae6 7fb8 ef16 3abd
00000170: 0f73 95bb 7d91 483d 4a09 26bd b966 89bd
00000180: d900 803c 7b1d 94bd caa1 723d 419c 943b
00000190: c882 553d 8f1d a4bc 63c8 30bd 7c3d b5bd
000001a0: 0117 773d 1d98 dc3c 7c1f ca3c 5b8c 2c3d
000001b0: b577 593c ae72 9c3c 2434 a2bb a9fc 543d
000001c0: 59dd 9fbd 0823 4dbd 4067 9dbd 1ca6 933c
000001d0: 676c 82bd 57fa 543c a9fd 543d 3cf7 f13a
000001e0: 5b73 593c f12f 8fbd 7ebb 7fbd bfbd d63d
000001f0: 2ebe 9e3c 57ed ef3c 15ef bdbc f1d9 0cbd
00000200: 990b 793d 1cc0 983d 7edc c6bb 49fd eabc
00000210: db43 80bd 2e91 903d 5813 343d 0d44 12bd
00000220: f38c 603a 2e27 993d df6b 7dbc 0fca 873d
00000230: 4076 b33d f5d9 23bd 66cb 673d 6a4b af3d
00000240: 5c39 a93c 33ca 843c 4b4d 28ba 8e03 9b3d
00000250: 0f5e d03b f7a0 e33c 04e8 493c ede7 083d
00000260: 81b3 72bd 927f 353d 4c92 92bd 60d7 813d
00000270: 8342 e5bc defc 703d adf4 733d 6738 b63c
00000280: d149 c73d a8e5 373d c2fe c23d d4d4 493d
00000290: 7de5 2abc 76fb f1bc ae86 82bd 4ee9 5c3d
000002a0: 8566 733c 4e16 66bd dc8c c4bc b58e 5f3d
000002b0: 4a5e 0d3d f49e 86bb e834 f8bc 4564 5e3c
000002c0: 3a2b 8a3d 0548 c23d 3dbf aebd ae7b b63d
000002d0: c0bc 863d 31a1 1f3d 9b8b a9bc 47b5 9f3d
000002e0: 194f 4d3b 862a e5bb f404 d0bc 843b 833d
000002f0: 20a6 8d3c e238 10bd 9b2a 933d e24f 04bd
00000300: a4c5 27bd 4166 d13a adfb 37bd efc9 6fbd
00000310: ce27 4dbd ba2e 563d c820 18bd 594b 223c
00000320: 103c 4dbd c74c e73c 6705 85bd 048e 293d
00000330: b854 eebd d71f 28bc b288 bfbc a4b9 83bd
00000340: 2267 afbc 0504 7e3b e2fd 5dbd 0df4 a6bd
00000350: 801b 473c adf3 90bd 3351 02be 0258 983c
00000360: 3b94 233d 23bd 823b 2e0d 3e3c 7b8d 063d
00000370: 15ef 6a3d 89a9 5fbd 0182 e2bc e39a bf3c
00000380: 9f06 e5bd 60d4 293d 3557 3dbc 2344 78bd
00000390: a848 823c f05a 22bd f8e9 653d 616d adbd
000003a0: 5d7e e1bc da4f 33b9 e54c e33b 0645 9ebd
000003b0: 3816 08bd bfc6 b3bc 865a 573c fb1c b6bd
000003c0: c1ac 123c 9d6a 9fbd ed17 bbbd b7ab 283c
000003d0: 1690 42bd b3e1 c6bc 031d 4fbd 784f b6bd
000003e0: 082c eabd e265 48bd a58c 24bd 748a 48bc
000003f0: a906 4fbc a86e 653d d28c 98ba 7dee a63b

sequential_2/dense_1/BiasAdd/ReadVariableOp f4 [4]
0.057296604 -0.090897985 0.019460727 0.012429056
00000000: d8af 6a3d b928 babd 1a6c 9f3c 3da3 4b3c

sequential_2/dense/BiasAdd/ReadVariableOp f4 [64]
-0.026268097 -0.01063494 0.03227427 -0.005287925 -0.016578732 -0.030424232 -0.013001927 -0.013234974
-0.012117284 -0.011939736 -0.051011287 -0.01876438 0.040253926 0.029763943 -0.0094721215 0.07191973
0.013814214 0.00055611954 -0.03616794 -0.006601312 -0.02014288 0.0019938154 -0.0055910232 -0.0117348945
0.008822205 0.013249454 0.045800433 -0.006606131 0.015192362 -0.007953988 -0.006577587 0.014446549
0.006310116 -0.032400046 0.013580955 -0.0026445922 -0.040051363 0.015236586 0.021167058 -0.016338045
-0.050474063 -0.043775946 0.11161855 -0.026251048 -0.012909825 0.107748635 -0.013353642 0.047766853
-0.06000152 -0.050352845 -0.023914993 -0.030192267 -0.00910215 -0.010109857 -0.024665779 0.025435625
0.0031578173 -0.013130949 0.030178795 -0.05013679 -0.077697486 -0.010827018 0.042898506 -0.010212487
00000000: 3130 d7bc 2c3e 2ebc 0632 043d 5446 adbb
00000010: 1fd0 87bc 3d3c f9bc 0906 55bc 81d7 58bc
00000020: 9387 46bc e29e 43bc 36f1 50bd c2b7 99bc
00000030: 4de1 243d 83d3 f33c f530 1bbc a74a 933d
00000040: 0355 623c 8dc8 113a d524 14bd d24f d8bb
00000050: ae02 a5bc acaa 023b e734 b7bb b743 40bc
00000060: 028b 103c 3d14 593c 3c99 3b3d 3e78 d8bb
00000070: 62e9 783c 7251 02bc cd88 d7bb 38b1 6c3c
00000080: 17c5 ce3b e9b5 04bd a782 5e3c e550 2dbb
00000090: e60c 24bd e0a2 793c 8a66 ad3c 5dd7 85bc
000000a0: e4bd 4ebd 684e 33bd 4498 e43d 700c d7bc
000000b0: bb83 53bc 51ab dc3d 3cc9 5abc 2da7 433d
000000c0: 27c4 75bd c93e 4ebd 60e9 c3bc c655 f7bc
000000d0: 2f21 15bc d0a3 25bc e30f cabc 5f5e d03c
000000e0: 62f3 4e3b 3123 57bc 8539 f73c 3c5c 4dbd
000000f0: dc1f 9fbd ce63 31bc 58b6 2f3d 4652 27bc
