app/src/main/ml/model3_20Cycle.tflite (tflite, 742084 bytes, 16 tensors)

sequential_2/conv2d/Relu;sequential_2/conv2d/BiasAdd;sequential_2/conv2d/Conv2D;sequential_2/conv2d/BiasAdd/ReadVariableOp f4 [32, 3, 3, 3]
0	0x397b86e5	0.00023987477
1	0x38dc8562	0.00010515262
2	0xba114777	-0.000554196
3	0x3915e8df	0.00014296499
4	0xb8e09539	-0.00010708947
5	0xb996948e	-0.0002872091
6	0xba021606	-0.0004962388
7	0xb804c6bb	-3.1656335e-05
8	0xb9ec9039	-0.00045120882
9	0x39682d3f	0.000221421
10	0x399ffb4a	0.00030514068
11	0x360dc291	2.112389e-06
12	0x39ea1f52	0.00044655293
13	0xb9f99e56	-0.0004761095
14	0x39a58c9d	0.00031576017
15	0xb9a67d9d	-0.00031755576
16	0x38b008f7	8.394004e-05
17	0xba1d2615	-0.00059947494
18	0xb9c98998	-0.00038440223
19	0xb8911c86	-6.919452e-05
20	0x3984ae96	0.0002530708
21	0x3a0e75f4	0.00054344465
22	0xb8b9b049	-8.854323e-05
23	0xb97e609a	-0.00024259315
24	0x39e4526e	0.00043548964
25	0x3896d878	7.192878e-05
26	0xba1c1790	-0.0005954439
27	0xb98991d1	-0.00026239318
28	0x3a1c7b88	0.00059693353
29	0xb8a3d560	-7.81219e-05
30	0x39af6830	0.00033456227
31	0x3a1e3a9e	0.00060359563
32	0xb9d2f95a	-0.00040240103
33	0xba143953	-0.0005654294
34	0xb81af66e	-3.6945967e-05
35	0x3744a5e8	1.1721138e-05
36	0xb9425631	-0.0001853339
37	0x3a04dc83	0.0005068259
38	0xb8e98ede	-0.00011136917
39	0xba135005	-0.0005619529
40	0x39ffe9c5	0.00048811562
41	0xb98d8884	-0.00026995328
42	0xba184d02	-0.0005809815
43	0xb908ca9f	-0.00013045453
44	0xba15a987	-0.00057091605
45	0x398c6e39	0.00026785003
46	0x387e2328	6.059106e-05
47	0xba2f9907	-0.0006698523
48	0x39543f8c	0.00020241569
49	0x39e1c328	0.00043060747
50	0xb99e3fd9	-0.0003018368
51	0x39642bf7	0.00021760153
52	0x399bad96	0.00029693235
53	0xb6e52fe5	-6.8303075e-06
54	0x3a027e92	0.0004977967
55	0xb98d020e	-0.00026895147
56	0x3905112e	0.00012690268
57	0xb8a4587f	-7.836613e-05
58	0x39ac98bc	0.00032920192
59	0x3957b540	0.00020571519
60	0x3a0bcdd4	0.00053331
61	0xba122273	-0.00055745913
62	0xb8fba248	-0.0001199884
63	0xb9db6f02	-0.00041853642
64	0xb9024f89	-0.00012427395
65	0xba2e110d	-0.0006640114
66	0xb8cedc2b	-9.863855e-05
67	0x39191d98	0.00014602242
68	0xb8a07010	-7.650268e-05
69	0x3a1ade44	0.0005907754
70	0x399d6e2c	0.00030027458
71	0x39bc788c	0.0003594797
72	0x39d2ed7e	0.00040231267
73	0xb9c56d88	-0.00037656375
74	0x37d729ce	2.5649464e-05
75	0x3921be37	0.00015425017
76	0xb8a77700	-7.985346e-05
77	0xba1a178a	-0.00058781414
78	0x39e8756e	0.0004433798
79	0xba01f05c	-0.0004956776
80	0xb9e700c1	-0.00044060315
81	0xb9a6e1d2	-0.00031830237
82	0xb6baa495	-5.562392e-06
83	0x39d8a54b	0.00041321883
84	0xb9a1dc27	-0.0003087234
85	0x38cd6896	9.7946424e-05
86	0x3a026fea	0.0004975783
87	0xb9c22018	-0.00037026475
88	0x3a021a16	0.00049629936
89	0x38c1f023	9.247686e-05
90	0xba0d4f95	-0.0005390582
91	0x38e605ca	0.00010968333
92	0x39106a79	0.00013772574
93	0x393e158a	0.00018127836
94	0x39c0c085	0.00036764532
95	0x39e571cd	0.00043763072
96	0x38ae25e8	8.304027e-05
97	0xb9898bff	-0.00026234981
98	0x388bb615	6.661952e-05
99	0xba0f583d	-0.00054681656
100	0x38a594c7	7.895525e-05
101	0xb986db41	-0.0002572183
102	0x38e20f51	0.00010779373
103	0x374db020	1.22599595e-05
104	0x39d340a5	0.0004029322
105	0xb95d701b	-0.00021117965
106	0x38382c3b	4.391021e-05
107	0xb81c0bf9	-3.720445e-05
108	0x38f3585e	0.000116036026
109	0xb9b09a6b	-0.00033684386
110	0xb8f597bb	-0.000117107724
111	0xb9ae2de3	-0.00033222054
112	0x3940f706	0.0001840257
113	0xba38505f	-0.0007031019
114	0x39a32bcf	0.00031122423
115	0xba0d3558	-0.0005386672
116	0xb8d92547	-0.0001035431
117	0xb974d9aa	-0.0002335074
118	0x39d2d698	0.00040214206
119	0x39a63618	0.0003170229
120	0xba2452a7	-0.00062684197
121	0x3964e494	0.00021828926
122	0xba0bb49e	-0.0005329343
123	0xb99b8255	-0.0002966101
124	0xb99dc650	-0.00030093128
125	0xb8f27195	-0.000115606155
126	0xb985b7f1	-0.00025504784
127	0x39bb0a0b	0.00035674902
128	0x394138c3	0.0001842706
129	0x36b39e0e	5.3530157e-06
130	0xb8fc579d	-0.000120326156
131	0x39b77488	0.00034991303
132	0xba3c6813	-0.0007187139
133	0xba2260af	-0.00061942165
134	0xba2cf9e4	-0.0006598516
135	0xb9ad3a75	-0.00033040685
136	0xb9de50f3	-0.00042403452
137	0x3682cd53	3.898205e-06
138	0xb9b2d779	-0.00034111345
139	0x3a02416e	0.0004968856
140	0x3a0a9fc2	0.0005288088
141	0xba12f75a	-0.0005606316
142	0x39fdd813	0.00048416908
143	0x3a146d75	0.00056620623
144	0x394321d5	0.00018609253
145	0x397ec9d4	0.00024298514
146	0x39f6834b	0.00047018597
147	0xba0c760c	-0.00053581665
148	0x3930d356	0.00016863397
149	0x38fb3f7d	0.00011980438
150	0xba1eea6b	-0.00060621527
151	0x3980af8e	0.0002454486
152	0xb98ff51b	-0.00027457703
153	0x395a4a73	0.00020817835
154	0x3a033097	0.0005004494
155	0x3981592c	0.00024671236
156	0x37fe199b	3.0291083e-05
157	0xb7586923	-1.2899082e-05
158	0xb974cc6c	-0.00023345806
159	0xb9b0206f	-0.000335935
160	0xb958ebe5	-0.00020687243
161	0x39b9f7a7	0.00035470465
162	0xb9892b66	-0.0002616301
163	0xba03e2ee	-0.00050310686
164	0x39cbad18	0.00038848142
165	0x39f3a8a7	0.00046474228
166	0xba051033	-0.0005075961
167	0x3a1417a3	0.0005649274
168	0x386adffb	5.5998546e-05
169	0xba4adaa9	-0.00077382714
170	0xb96db370	-0.00022668927
171	0xb917229b	-0.00014413374
172	0xba2a8eb2	-0.00065062486
173	0x388e7667	6.793142e-05
174	0x39060024	0.00012779288
175	0xba572883	-0.0008207636
176	0x3a248cf9	0.000627711
177	0xba0929bc	-0.0005232354
178	0xba69983b	-0.0008910929
179	0x39a4925c	0.00031389564
180	0xb9909735	-0.00027578478
181	0x399e2677	0.00030164767
182	0x39de99d7	0.0004245776
183	0xb877b373	-5.9056514e-05
184	0xb9f71736	-0.00047128805
185	0x39be654c	0.00036315096
186	0xb9b7af06	-0.00035034883
187	0xb953a332	-0.00020183323
188	0x393dd64a	0.00018104273
189	0x39df70e3	0.00042617982
190	0x39845e12	0.0002524709
191	0x3a121199	0.000557208
192	0x39007ce9	0.00012253564
193	0xba1c345b	-0.00059587293
194	0xb9bd6a44	-0.00036128063
195	0x3948e462	0.00019158566
196	0xba564e45	-0.0008175115
197	0xb9ea02c9	-0.00044634033
198	0xb96c7229	-0.00022549242
199	0xb9804627	-0.0002446633
200	0xb96f9594	-0.00022848538
201	0xb9d78876	-0.00041109667
202	0xba3090cc	-0.00067354436
203	0x38c08772	9.180502e-05
204	0x38e368d2	0.00010843728
205	0x39894275	0.0002618019
206	0xb8995d99	-7.3130424e-05
207	0xb9f61b4a	-0.00046941108
208	0x3996fba1	0.00028797708
209	0x38ee332e	0.00011358257
210	0xb8fe2bf2	-0.00012119849
211	0xb9abbf80	-0.0003275834
212	0x39b240f6	0.00033999205
213	0xb8eb2612	-0.000112127644
214	0xba3d1fe2	-0.0007214529
215	0xb920d128	-0.00015336706
216	0x39b33ea6	0.00034188217
217	0x39248cad	0.00015692665
218	0x39186aa0	0.0001453557
219	0x3a07e239	0.0005183551
220	0xb8a1e17c	-7.719078e-05
221	0xb9e3e14b	-0.0004346467
222	0x38cad59e	9.6719e-05
223	0x393ed066	0.00018197446
224	0xb927ebc7	-0.00016014195
225	0xb9b61d2b	-0.00034735477
226	0xba5efc5e	-0.00085062336
227	0xb9ce2037	-0.00039315384
228	0xb91b5dec	-0.0001481694
229	0xb838e377	-4.408086e-05
230	0x39f15c7e	0.00046036014
231	0x395e8a2a	0.0002122304
232	0xba410f7e	-0.0007364674
233	0xb92c369e	-0.00016423545
234	0xb9bf1c4d	-0.00036451445
235	0xb9855d3b	-0.000254372
236	0x39617dbd	0.00021504513
237	0xb9f3c5a8	-0.00046495837
238	0x38abe6da	8.196915e-05
239	0x37472d24	1.1871834e-05
240	0x39a9c69d	0.0003238217
241	0xba3b6512	-0.00071485445
242	0x38a32f59	7.781265e-05
243	0xb99ed540	-0.00030294992
244	0xb99f7826	-0.0003041636
245	0x39024c79	0.00012426254
246	0x381d5ab1	3.751618e-05
247	0xb9814251	-0.00024654207
248	0xb8e064c0	-0.000106999185
249	0xb889e5a6	-6.5754444e-05
250	0xba55df3a	-0.00081585685
251	0x39111d59	0.0001383921
252	0xb9952044	-0.00028443534
253	0xba301b03	-0.0006717892
254	0x393a6075	0.00017774275
255	0x39b453f5	0.00034394828

sequential_2/conv2d/BiasAdd/ReadVariableOp f4 [32]
0	0xbbf5d4e2	-0.0075021842
1	0x3c55505f	0.01301965
2	0x39b1e5b6	0.0003393122
3	0xbc411818	-0.01178553
4	0xbc54b1e2	-0.012981864
5	0xbd9185a8	-0.07105571
6	0x3cdedf60	0.027206123
7	0x3c839668	0.01606293
8	0x3c83d3f9	0.016092287
9	0x3ca0e91b	0.019642403
10	0x3cb41fa0	0.021987736
11	0x3c9e6889	0.019336956
12	0x3c2963ac	0.010338705
13	0x3bcb0ba3	0.0061964556
14	0xba367869	-0.00069606915
15	0xbbddf070	-0.006773047
16	0xbd1621ec	-0.036653444
17	0xbaaa656d	-0.0013000198
18	0x3caa7a1b	0.020810178
19	0xbc841c3e	-0.016126748
20	0xbb6fd764	-0.0036596889
21	0xbc36c4d7	-0.011155329
22	0x3c832355	0.016008059
23	0x3b0a5599	0.002110815
24	0xbd614461	-0.05499685
25	0x3caea492	0.021318708
26	0xbc8848e6	-0.016636323
27	0x3caf4bc5	0.021398434
28	0x3c06f5f6	0.008237353
29	0xbd018977	-0.031625237
30	0x3c521536	0.01282244
31	0x38f90e24	0.00011875879

sequential_2/conv2d_1/BiasAdd/ReadVariableOp f4 [64]
0	0xbc0abb08	-0.008467443
1	0xbc20ad91	-0.009807006
2	0xbc6f10d4	-0.0145914145
3	0xbbe95c26	-0.0071215807
4	0xbc0b1b28	-0.008490361
5	0xbc67f489	-0.014157423
6	0xbc44d885	-0.012014513
7	0xbc27168f	-0.0101982495
8	0xbbecda9e	-0.0072282096
9	0xbba7ba59	-0.00511865
10	0xbbba7fa6	-0.0056914864
11	0xbc25cf74	-0.010120261
12	0xbc6b8653	-0.014375287
13	0xbc169747	-0.009191341
14	0x3c111ee3	0.008857462
15	0xbc72272b	-0.014779846
16	0xbada75ad	-0.001666715
17	0xbbce8a91	-0.0063031395
18	0x3d40cbed	0.04706948
19	0x3cb88884	0.022526033
20	0xbc35e7ec	-0.011102658
21	0x3d1a7a08	0.037714034
22	0xbc0d1dcc	-0.008613061
23	0x3d8c3b5b	0.06847259
24	0xbb9c78ae	-0.0047751283
25	0x3d730a1c	0.059335813
26	0xbc632cea	-0.013865689
27	0xbc3ade02	-0.01140547
28	0x3d1b77eb	0.03795616
29	0xbd1f9492	-0.038960047
30	0x3cc7f0e7	0.024406863
31	0xbc070a1d	-0.008242157
32	0x3cad335b	0.021142652
33	0xbb79d6e6	-0.0038122474
34	0xbc9a228a	-0.018815298
35	0xbc1af7b7	-0.009458474
36	0xbcdc27ca	-0.026874442
37	0xbc951b5b	-0.01820152
38	0xbc2196c9	-0.00986261
39	0xbbed9458	-0.00725035
40	0xbc5aa41b	-0.01334479
41	0xbc952250	-0.018204838
42	0xbc8a0a34	-0.016850568
43	0xbdbfcd08	-0.093652785
44	0xbb9f576e	-0.0048627174
45	0xbbf02b96	-0.0073294146
46	0xbccc4c24	-0.02493865
47	0xbb74eb99	-0.0037371872
48	0xbc0f7f59	-0.008758389
49	0xbcabc4fa	-0.02096795
50	0xbcbdf43c	-0.02318775
51	0xbc39e39b	-0.011345769
52	0xbc959557	-0.018259687
53	0xbc2c7ab0	-0.010527298
54	0xbbf78f17	-0.0075548994
55	0xbbe5329e	-0.0069945594
56	0xbc091549	-0.008366891
57	0xbdaa1b56	-0.08305995
58	0xbcce7697	-0.025203032
59	0xbc8a972e	-0.016917791
60	0xbc9aecd8	-0.018911764
61	0x3bfc0171	0.0076906015
62	0xbc421534	-0.0118458755
63	0xbc749052	-0.014926987

sequential_2/conv2d_2/BiasAdd/ReadVariableOp f4 [64]
0	0xbce9b84f	-0.028530268
1	0xbc84a8a9	-0.016193705
2	0xbd4ba9ae	-0.049722366
3	0xbbc60cae	-0.006043992
4	0xbc1f7448	-0.009732313
5	0xbdb1d61d	-0.08683417
6	0xbc825294	-0.015908517
7	0xbcd15dcb	-0.02555742
8	0xbc926119	-0.017868565
9	0x3c2e6010	0.01064302
10	0xbc8d44f2	-0.01724479
11	0xbc1736e9	-0.0092294
12	0xbcb88be7	-0.022527648
13	0x3c10de8c	0.008842122
14	0x3d4af43b	0.049549323
15	0x3c0a37a6	0.008436119
16	0x3d6bec47	0.05759838
17	0x3c586a3a	0.01320892
18	0xbc43a9bb	-0.011942322
19	0xbc6ae6e4	-0.014337275
20	0x3a6c3da2	0.00090118696
21	0xbca1c6ba	-0.01974808
22	0xba1b35b6	-0.00059207843
23	0xbc466856	-0.012109837
24	0xbc840bb1	-0.016118856
25	0xbc9dd173	-0.019264912
26	0x3d34c9b7	0.044137683
27	0xbcb4965a	-0.02204435
28	0xbca4e80b	-0.020130178
29	0xbce9b79f	-0.02852994
30	0x3d0afe55	0.033933956
31	0x3d171d3d	0.03689312
32	0xbc4e4658	-0.012590013
33	0x3c38034e	0.011231257
34	0xbc1a3177	-0.009411207
35	0xbc7e7d5b	-0.015532817
36	0xbc877a8a	-0.016537923
37	0xbc999737	-0.018748863
38	0xbc524748	-0.012834378
39	0x3c07fb51	0.008299665
40	0xbc2d19b5	-0.010565211
41	0x3c30ec60	0.010798544
42	0xbd0ea487	-0.034824874
43	0xbccf082f	-0.025272457
44	0xbcfc0cbf	-0.030767797
45	0x3c291ffa	0.010322565
46	0x3bf10f9b	0.0073565966
47	0xbdc99b5c	-0.098440856
48	0xbad5a969	-0.0016301099
49	0xbc3984b1	-0.01132314
50	0xbd12cbf9	-0.035839055
51	0xbc5bbea2	-0.01341215
52	0xb9a12375	-0.0003073473
53	0xbc9689fb	-0.018376341
54	0xbd08edeb	-0.03343002
55	0xbc3cfd93	-0.011535066
56	0xbcee5b71	-0.029096337
57	0xbda1cf26	-0.079008386
58	0xbb0abfa8	-0.0021171365
59	0xbc95f6c7	-0.01830615
60	0x3c83ac18	0.016073272
61	0xbcc26023	-0.023727482
62	0x3ca5e217	0.02024941
63	0xbc14c863	-0.009080979

sequential_2/conv2d_3/BiasAdd/ReadVariableOp f4 [64]
0	0xbcf56ade	-0.029958185
1	0xbc90a38a	-0.017656107
2	0xbbd6efa9	-0.0065593314
3	0xbcafc009	-0.021453874
4	0xbbfe1a96	-0.007754634
5	0xbc6e92e7	-0.014561391
6	0xbcd33ff9	-0.02578734
7	0x3cfa803d	0.030578727
8	0xbd2dd0ca	-0.042435445
9	0xbd710573	-0.058843087
10	0xbc8958ae	-0.016765919
11	0x3d39111a	0.045182325
12	0xbd0dc656	-0.034612976
13	0xb9df02fe	-0.00042536104
14	0xbd07eb90	-0.033183634
15	0xbbe21a2a	-0.0069000917
16	0xbca0eae6	-0.019643258
17	0xbcb89d53	-0.022535956
18	0xbd2b161c	-0.041769132
19	0xbbab0278	-0.0052188
20	0xbd75d032	-0.060013004
21	0xbc0b7099	-0.008510732
22	0xbbbd0c3c	-0.0057692807
23	0xbd7ec167	-0.06219616
24	0xbd87d4f2	-0.06632413
25	0xbca802d5	-0.020509163
26	0xbb62e7f5	-0.003462312
27	0x3dafd281	0.08585072
28	0x3a9a4cc4	0.0011772146
29	0xbb5c0a3d	-0.0033575438
30	0xbc514b9b	-0.012774373
31	0xbcf26db5	-0.029593328
32	0x3c587bae	0.013213081
33	0xbca8b67f	-0.020594833
34	0xbca770e1	-0.020439567
35	0xbc295b6c	-0.010336738
36	0xbc227414	-0.0099153705
37	0xbc44b18e	-0.012005223
38	0xbd0c1a99	-0.034205053
39	0xbd41780d	-0.04723363
40	0xbd1ac42a	-0.037784733
41	0xbd84d587	-0.064860396
42	0xbc97af22	-0.018516127
43	0x3d6b6ad0	0.05747491
44	0xbc07cce5	-0.008288597
45	0xbcd96353	-0.02653662
46	0x3c24aa1a	0.010050321
47	0x3d0bd7d2	0.03414137
48	0xbc043aaa	-0.008070627
49	0xbcc00fbe	-0.023445006
50	0xbd105a04	-0.035242096
51	0xbcd7b5f3	-0.026331877
52	0xbb3cbe09	-0.0028799793
53	0x3aa37eb5	0.0012473675
54	0xbd05326b	-0.032518785
55	0x3aab8079	0.0013084552
56	0x3be5e9a8	0.0070163794
57	0xbdb5aa58	-0.08870381
58	0xbcb47878	-0.0220301
59	0x3d912cb2	0.07088603
60	0x3da7b897	0.081895046
61	0xbda5b09f	-0.080903284
62	0x3c8bcf89	0.017066734
63	0x3ce5f343	0.028070098

sequential_2/conv2d_4/BiasAdd/ReadVariableOp f4 [64]
0	0xbd1d2c00	-0.03837204
1	0x3c8616c8	0.016368285
2	0xbcb9ec1e	-0.022695597
3	0xbc6a00cc	-0.014282417
4	0xbc4faa38	-0.012674861
5	0xbd344ef2	-0.0440206
6	0xbd561343	-0.052264463
7	0xbc1a73ec	-0.009427052
8	0x3d4dbf6f	0.050231393
9	0xbdd36965	-0.10322837
10	0xbd494b9c	-0.049144372
11	0xbccc9235	-0.02497206
12	0x3b5d1d54	0.0033739405
13	0xbd12a63c	-0.035803065
14	0xbbf1a390	-0.0073742345
15	0x3da23ba3	0.07921531
16	0xbded3fe1	-0.115844496
17	0xbc88861c	-0.01666551
18	0xbd32781b	-0.043571573
19	0xbd15a1c0	-0.03653121
20	0x3e08cf2d	0.13360281
21	0x3da0decf	0.07854997
22	0xbc931750	-0.017955452
23	0xbc2212e4	-0.009892199
24	0xbd10d4b1	-0.03535909
25	0xbbe33e29	-0.0069349003
26	0xbc9da442	-0.019243363
27	0xbc2ff4f2	-0.010739552
28	0xbd1136dc	-0.03545271
29	0xbdcf2621	-0.101146944
30	0xbccc0be1	-0.024908008
31	0xbcf6b1b4	-0.030114032
32	0xbbe7df77	-0.0070761996
33	0xbc930071	-0.017944546
34	0xbbcf9930	-0.0063354
35	0xbc238300	-0.009979963
36	0xbd24f001	-0.040267948
37	0x38d03e46	9.929812e-05
38	0xbcb2f3e7	-0.021844817
39	0xbd552375	-0.052035768
40	0xbd4bcdf3	-0.049756955
41	0xbd196b19	-0.037455652
42	0xbc81f934	-0.0158659
43	0x3b0e6bf4	0.0021731826
44	0xbcdc1f24	-0.026870318
45	0xbc0e2f6f	-0.008678301
46	0xbceebb4c	-0.029142044
47	0xbb227108	-0.002478661
48	0xbd1a2a3f	-0.037637945
49	0x3dd7dcf1	0.10540188
50	0xbbe6635a	-0.0070308866
51	0xbc438841	-0.011934341
52	0xbd3607ad	-0.044440914
53	0x3d809cad	0.062798835
54	0xbcbe023b	-0.023194423
55	0xbd50e148	-0.050996095
56	0xbc545801	-0.012960435
57	0xbcd4031e	-0.025880393
58	0xbc2e4152	-0.010635691
59	0xbc0fab4e	-0.00876887
60	0xbcf50a6a	-0.029912192
61	0xbcc38f2d	-0.023871982
62	0xbc8189b6	-0.015812736
63	0x3e0666d0	0.13125157

sequential_2/conv2d_5/BiasAdd/ReadVariableOp f4 [64]
0	0x3e3d210c	0.18469638
1	0xbcac4959	-0.021031069
2	0x3dfa5706	0.1222363
3	0xbd169824	-0.036766186
4	0xbcbabea3	-0.02279598
5	0xba140440	-0.0005646385
6	0xbd0fc89f	-0.035103437
7	0xbca9fdda	-0.020750929
8	0xbd15897c	-0.03650807
9	0xbd6f624d	-0.058443356
10	0xbd21ca77	-0.039499726
11	0xbd03a087	-0.032135513
12	0xbc12f94a	-0.008970568
13	0xbd9fd9c9	-0.07805211
14	0xbc2b8b50	-0.010470226
15	0xbd349f34	-0.04409714
16	0x3e02d732	0.12777403
17	0xbd03256b	-0.032018106
18	0xbc333755	-0.010938485
19	0x3da86482	0.08222295
20	0x3e04cc79	0.12968625
21	0xbd8cc71c	-0.068739146
22	0xbdba259c	-0.09089205
23	0x3c63e01e	0.013908414
24	0xbcbce2d6	-0.023057383
25	0xbd445f57	-0.047942486
26	0xbd31bd95	-0.04339369
27	0xbd6f1aad	-0.05837505
28	0xbd9c134d	-0.07620869
29	0xbc24ebfc	-0.010066029
30	0x3de19845	0.11015371
31	0xbc089d00	-0.008338213
32	0xb9e16d99	-0.00042997
33	0xbc909d9f	-0.017653285
34	0xbd1716a9	-0.036886845
35	0xbd027aa7	-0.03185525
36	0xbdb15413	-0.08658614
37	0x3dd574a7	0.1042264
38	0x3de877f8	0.11351007
39	0x3c90b913	0.017666375
40	0xbd01678a	-0.031592883
41	0xbc5acbb0	-0.013354227
42	0xbcede9b7	-0.029042108
43	0xbc14060e	-0.009034647
44	0x3e1bd458	0.15217721
45	0xbcbe32ee	-0.023217645
46	0xbd8b1ce4	-0.0679262
47	0xbc30bfa6	-0.01078788
48	0xbcaa3477	-0.02077697
49	0xbcd47cdd	-0.025938446
50	0xbd31a64a	-0.043371476
51	0x3d2b2699	0.041784856
52	0xbcbd2361	-0.023088159
53	0xbd010653	-0.031500172
54	0x3a452069	0.0007519783
55	0xbc153428	-0.009106673
56	0xbd4c1168	-0.049821287
57	0xbc444ee2	-0.011981698
58	0xbcb6033d	-0.022218341
59	0xbce8e389	-0.02842881
60	0xbda4c6ac	-0.08045706
61	0x3b57d4c7	0.0032933222
62	0xbcc39209	-0.023873346
63	0x3dc4319e	0.09579776

sequential_2/conv2d_1/Conv2D f4 [64, 3, 3, 32]
0	0xbcc005b1	-0.023440214
1	0x3ce5cb25	0.028050968
2	0x3c4f789e	0.012663035
3	0xbdab1816	-0.083542034
4	0x3d8a206e	0.06744467
5	0xbd5ba6f8	-0.05362603
6	0xbc7f7a6f	-0.015593155
7	0x3ca828ae	0.02052721
8	0xbdb96e2b	-0.09054216
9	0xbd88d928	-0.06682044
10	0x3d83d665	0.06437377
11	0x3cd43603	0.025904661
12	0xbcd1040f	-0.02551463
13	0xbcb01f44	-0.021499284
14	0xbd515ec6	-0.051115774
15	0xbe0936a9	-0.13399757
16	0x3d35021a	0.044191457
17	0x3d5537c3	0.05205513
18	0xbce94390	-0.0284746
19	0x3cf1e46a	0.029527862
20	0x3d6923e4	0.056918994
21	0x3d9b9b68	0.07598001
22	0x3d4b35ff	0.04961204
23	0x3d56f3aa	0.05247847
24	0x3d236fa3	0.039901387
25	0xbb9361a6	-0.0044977246
26	0xbd7b0444	-0.061283365
27	0xbcfcbbb9	-0.030851232
28	0x3cb6d632	0.022318933
29	0x3d230af8	0.039805382
30	0xbdc1df5d	-0.09466431
31	0x3da29b22	0.079397455
32	0x3cf12c55	0.029440084
33	0xbd86ae0a	-0.06576164
34	0xbd070815	-0.032966692
35	0xbc6bcd6c	-0.014392238
36	0x3d8200aa	0.06347783
37	0xbd0e4d7d	-0.034741867
38	0xbd2f6e28	-0.042829663
39	0xbd545c32	-0.051845737
40	0x3ca79390	0.020456105
41	0xbd382546	-0.04495742
42	0xbca7154f	-0.020395903
43	0x3d875b0e	0.06609164
44	0xbd998093	-0.07495227
45	0xbd12d593	-0.03584821
46	0x3d764b19	0.060130212
47	0x3c610d22	0.013736041
48	0xbd9c6e43	-0.07638218
49	0xbd9eee7d	-0.07760332
50	0xbd14cc18	-0.03632745
51	0x3d64dca7	0.055874493
52	0xbd584068	-0.052795798
53	0x3d3afaa7	0.045649197
54	0xbda30074	-0.07959071
55	0x3c9ebcb3	0.019377088
56	0xbd39c9b7	-0.045358386
57	0x3c3374ac	0.01095311
58	0x3bcb485c	0.0062036943
59	0x3ce2d31e	0.02768856
60	0xbdb7d3c4	-0.08975938
61	0x3cc185f1	0.023623439
62	0x3bd9ab86	0.0066427616
63	0x3d3bc5b5	0.045842845
64	0xbc7e0b01	-0.015505553
65	0xbc754198	-0.014969252
66	0x3c8e9911	0.017406972
67	0x3ca49353	0.02008978
68	0x3be7f268	0.0070784576
69	0xbd55529c	-0.052080736
70	0xbcf96278	-0.030442461
71	0xbd888c24	-0.06667355
72	0xbdb63551	-0.08896888
73	0xbd3a8a8a	-0.045542277
74	0xbd269b3a	-0.04067538
75	0xbd2d63eb	-0.042331617
76	0x3cd990b5	0.02655826
77	0xbd05e61c	-0.032690153
78	0x3d0523dc	0.0325049
79	0x3af66cc5	0.0018800726
80	0xbc76c379	-0.015061253
81	0xbda2a432	-0.07941474
82	0xbd019c2a	-0.03164307
83	0xbdb5a2b1	-0.088689215
84	0x3d244bc9	0.040111337
85	0xbaf89a94	-0.0018966966
86	0xbd656914	-0.056008413
87	0x3cb2fcc4	0.021849044
88	0x3d50c17a	0.050965764
89	0xbd1749d6	-0.03693565
90	0xbd01a495	-0.0316511
91	0x3d0fa4e9	0.03506938
92	0xbc3d8a7d	-0.011568663
93	0xbcf07e71	-0.029357167
94	0xbd99930c	-0.0749875
95	0x3d880bd2	0.066428795
96	0x3d55b54c	0.05217485
97	0x3d714793	0.05890615
98	0xbc213d05	-0.009841208
99	0xbac67cc1	-0.0015143381
100	0xbdbdbea4	-0.092648774
101	0xbcc1ab8a	-0.023641367
102	0x3d25822e	0.040407352
103	0xbd53cac0	-0.05170703
104	0x3d4bb060	0.04972875
105	0x3d870dc2	0.06594421
106	0xbdc4c991	-0.09608758
107	0xbd313949	-0.043267522
108	0xbd0b6a10	-0.034036696
109	0xba909e4e	-0.0011033507
110	0xbd085447	-0.0332835
111	0xbd767f1e	-0.060179822
112	0x3d1b226e	0.03787463
113	0xbcabc025	-0.020965645
114	0xbcaba8dd	-0.020954544
115	0xbde71948	-0.11284119
116	0x3c312fea	0.010814646
117	0xbd86a13c	-0.06573722
118	0xbd3dd07b	-0.0463414
119	0xbc08ba28	-0.008345164
120	0xbd7757bb	-0.0603864
121	0x3c9390ad	0.018013323
122	0xbcd1e989	-0.025624054
123	0xbdd08dcb	-0.10183295
124	0xbd8bab08	-0.06819731
125	0xbd92aa1a	-0.071613505
126	0xbdba2a0c	-0.09090051
127	0xbcc9208e	-0.024551656
128	0xbd0f40e2	-0.034973986
129	0x3c8c7d8e	0.017149713
130	0xbcae0593	-0.021242892
131	0x3d0e3203	0.034715664
132	0xbd0bf10f	-0.03416544
133	0x3d8bf37c	0.0683355
134	0xbdbfcb64	-0.093649656
135	0xbdacff90	-0.08447182
136	0x3d11d2a2	0.035601266
137	0xbd7a1bbc	-0.061061606
138	0x3d201ed2	0.039091893
139	0x3b6f19aa	0.0036483803
140	0xbdc341d7	-0.09534042
141	0xbc96a1e9	-0.018387752
142	0xbcf115ca	-0.029429335
143	0x3b804197	0.003914069
144	0xbd71e4c3	-0.059056055
145	0xbc4fcfe3	-0.012683841
146	0x3cfd31e2	0.030907575
147	0xbd017534	-0.031605914
148	0xbb4d0092	-0.0031280858
149	0xbce29d1c	-0.027662806
150	0x3d4021e3	0.046907317
151	0x3d417178	0.047227353
152	0xbcf2caf2	-0.029637787
153	0x3d732e2e	0.059370212
154	0xbd522c9b	-0.05131207
155	0xbd79a155	-0.060944874
156	0xbd30a448	-0.04312542
157	0xbd90d549	-0.07071931
158	0x3cf84dab	0.030310472
159	0xbd8b3167	-0.06796532
160	0xbd8f06fe	-0.069837555
161	0x3d3465c9	0.044042382
162	0xbda5ccf4	-0.08095732
163	0xbd69d385	-0.057086486
164	0xba137fe2	-0.0005626661
165	0xbc3b1054	-0.011417467
166	0x3c807651	0.015681418
167	0x3d09d0f3	0.033646535
168	0xbcb13056	-0.021629494
169	0xbd882509	-0.06647689
170	0xbda3c8c5	-0.07997278
171	0xbbaccbdb	-0.005273325
172	0xbd82b5fa	-0.063823655
173	0xbd089b31	-0.033351127
174	0x3d35eed8	0.044417232
175	0xbe0469af	-0.1293094
176	0x3cbdd89a	0.023174573
177	0xbc8241d8	-0.015900537
178	0xbd06a184	-0.032868877
179	0x3b828e7d	0.003984271
180	0xbc8b3cac	-0.016996704
181	0xbccb58a7	-0.024822546
182	0xbd2b53ec	-0.04182808
183	0xbdaf9a27	-0.08574324
184	0xbdc39129	-0.095491715
185	0x3d45f25a	0.048326828
186	0x3d6e3f5b	0.05816589
187	0x3d9615a1	0.07328344
188	0x3ca63c71	0.020292493
189	0xbbbd15da	-0.005770427
190	0x3d7d6a17	0.061868753
191	0x3d20cc1e	0.03925716
192	0xbb152366	-0.0022756695
193	0xbd603e95	-0.054747183
194	0xbb4956e3	-0.0030721955
195	0xbd787da7	-0.060666706
196	0xbd9192e5	-0.07108096
197	0x3d692fed	0.05693047
198	0x3d37e5ab	0.044896763
199	0xbd24b46c	-0.040211126
200	0xbd0a7ecc	-0.03381233
201	0x3cb9a0c6	0.02265967
202	0xba591463	-0.0008280931
203	0xbb41eef1	-0.0029591883
204	0x3d5c5672	0.05379338
205	0xbd591381	-0.052997116
206	0x3d8f5d4d	0.070002176
207	0xbdcdfe4e	-0.100582704
208	0x3d9cd679	0.07658095
209	0x3d1c62d3	0.038180184
210	0xbdd392da	-0.10330744
211	0xbcacaf2d	-0.021079624
212	0x3cb45175	0.022011498
213	0x3d851741	0.06498576
214	0xbd4e64fd	-0.05038928
215	0xbcbee1cb	-0.023301026
216	0xbdb6f65b	-0.08933707
217	0x3d7f1c85	0.062283058
218	0xbd80c07d	-0.06286714
219	0xbdd1b852	-0.102402344
220	0x3d3d84b3	0.04626913
221	0xbd6b7f83	-0.05749465
222	0xbd61f1b2	-0.05516214
223	0x3cf586f2	0.029971574
224	0xbd7da732	-0.061927028
225	0xbcb019b5	-0.021496633
226	0x3d4ee215	0.050508577
227	0x3d1d5f31	0.03842086
228	0xbd40314a	-0.046922006
229	0xbd10344f	-0.035206135
230	0x3d4d2714	0.050086096
231	0x3c8e3351	0.017358454
232	0xbb36658c	-0.0027831523
233	0xba4d128c	-0.0007822893
234	0xbc267d6c	-0.010161739
235	0xbdcfa8ab	-0.10139593
236	0x3d72dc94	0.05929239
237	0x3d2901a4	0.04126133
238	0xbd567e8b	-0.052366775
239	0x3c41f20a	0.011837492
240	0xbc28f1f6	-0.010311594
241	0xbd36fff1	-0.04467768
242	0xbdaba3ad	-0.08380828
243	0xbd0c22fc	-0.03421305
244	0x3d1ea1c1	0.03872848
245	0xbcb5cc76	-0.022192221
246	0xbd094e9f	-0.033522245
247	0xbddea38d	-0.108710386
248	0xbd9b6c47	-0.07589012
249	0x3d2bdade	0.041956775
250	0x3d6d378e	0.05791431
251	0x3d776652	0.060400315
252	0x3c9f6d30	0.019461244
253	0xbdaa289b	-0.08308526
254	0xbd986c2b	-0.074425064
255	0x3c5aad41	0.013346971

sequential_2/conv2d_2/Conv2D f4 [64, 3, 3, 64]
0	0xbd0980da	-0.033570148
1	0x3d22d5ce	0.03975468
2	0xbd0d63f2	-0.034519143
3	0xbac24cb4	-0.0014823885
4	0xbbd188ab	-0.006394466
5	0x3d50da56	0.05098947
6	0x3d817a6f	0.063221805
7	0x3d1682e3	0.036745917
8	0x3d23ec49	0.04002026
9	0x3d617d3e	0.05505108
10	0xbc310db7	-0.0108064925
11	0x3c0da0b0	0.008644268
12	0xbcfa5a34	-0.03056059
13	0x3d0ab72c	0.033866093
14	0xbc698f05	-0.01425529
15	0x3cfb615c	0.030686073
16	0xbd94ba06	-0.07262044
17	0x3d8a2dbe	0.06747006
18	0xbd0b9ee4	-0.034087077
19	0x3d247be4	0.040157214
20	0xbd3d3b42	-0.04619909
21	0xbdaf5b15	-0.085622944
22	0x3d8d2183	0.068911575
23	0xbd8db682	-0.06919576
24	0x3de1ff1f	0.110349886
25	0xbcd3cf18	-0.025855586
26	0x3df0f443	0.11765339
27	0xbc35cf9d	-0.011096862
28	0x3c6e4a9f	0.014544158
29	0x3d91c0fc	0.07116887
30	0xbd2629d1	-0.040567223
31	0x3c53201b	0.0128860725
32	0xbd6766ca	-0.05649451
33	0xbc9c6ae8	-0.019093946
34	0xbcb72b5b	-0.02235954
35	0x3d84e33f	0.06488656
36	0x3db34cdf	0.087548964
37	0x3ca95e6a	0.020674903
38	0x395ab6d6	0.00020858212
39	0x3c7efed7	0.015563688
40	0x3d7dc26e	0.061953
41	0x3c1252d4	0.008930881
42	0x3d28b9a3	0.041192662
43	0xbc6391f2	-0.013889777
44	0x3cd9587a	0.026531447
45	0x3d3e44e8	0.046452433
46	0x3d80655a	0.06269331
47	0x3d8c530a	0.06851776
48	0x3d27a63b	0.040930014
49	0x3db928db	0.09040996
50	0x3c9b508a	0.018959302
51	0x3d08b6d1	0.033377472
52	0x3d6d4dfb	0.057935696
53	0x3d648e8b	0.055800002
54	0x3d8a161a	0.06742497
55	0xbc7b3320	-0.015332013
56	0x3ce4c19b	0.02792435
57	0xbd0044b0	-0.031315506
58	0x3dae6a92	0.085164204
59	0x3d284f4e	0.041091256
60	0x3cbdafe0	0.023155153
61	0xbd12a7f2	-0.035804696
62	0x3d4df084	0.0502782
63	0xbc767b90	-0.015044108
64	0xbb8a1695	-0.004214118
65	0x3d2278a2	0.039665826
66	0x3da76e1a	0.08175297
67	0xbbc71478	-0.006075438
68	0x3ca72264	0.02040214
69	0xbc0dc63e	-0.008653222
70	0x3d4b2d3d	0.04960369
71	0xbd35b387	-0.044360664
72	0xbd27e29d	-0.0409876
73	0x3d3c3458	0.045948356
74	0x3d54c9c8	0.051950246
75	0xbd3603e3	-0.0444373
76	0xbd93181b	-0.07182332
77	0x3d9c561f	0.07633614
78	0x3c9a2f2f	0.018821327
79	0xbcbb447e	-0.022859808
80	0xbd60b393	-0.054858755
81	0x3ca26117	0.019821687
82	0xbced4161	-0.02896184
83	0x3e10123e	0.14069459
84	0x3d284d3d	0.041089285
85	0xbd09b53c	-0.033620104
86	0x3db7f3be	0.08982037
87	0xbd6ece21	-0.05830205
88	0x3d9178bd	0.07103107
89	0x3d974143	0.073854946
90	0x3c91f0d7	0.017815037
91	0xbd63f6e3	-0.05565537
92	0x3c31ac30	0.010844275
93	0x3d8a5c5b	0.06755897
94	0xbe0b9038	-0.13629234
95	0x3d45008c	0.048096225
96	0xbbec3112	-0.007207998
97	0xbd1668c9	-0.036721025
98	0x3b9163cf	0.004436947
99	0xbd4fc8f0	-0.05072874
100	0x3d429f4f	0.04751521
101	0xbd1ad31b	-0.037798982
102	0xbc3036dd	-0.010755268
103	0x3d8c7ead	0.06860099
104	0xbc735948	-0.014852829
105	0xbd1fabbd	-0.03898214
106	0x3da29e3d	0.07940338
107	0x3b293d2e	0.002582382
108	0x3cdebb47	0.02718891
109	0xbd235886	-0.039879344
110	0xbc67c05a	-0.014144981
111	0xbb69ab31	-0.0035655017
112	0x3d1eed2d	0.038800407
113	0xbaada533	-0.0013248086
114	0x3db1cfa9	0.08682186
115	0xbd34d6ff	-0.04415035
116	0x3cb7625b	0.022385767
117	0xbce63980	-0.02810359
118	0x3bd06ebe	0.0063608577
119	0x3d4d1b69	0.05007497
120	0xbceca91c	-0.028889231
121	0x3d8df3d7	0.069312744
122	0x3ce7c91a	0.028294135
123	0xbcd01da6	-0.025404762
124	0xbc55c18f	-0.013046636
125	0xbd0be0d9	-0.03414998
126	0xbd9ec6b5	-0.07752744
127	0x3d921cad	0.07134376
128	0x3d2a01db	0.041505676
129	0x3ccf8b92	0.025335107
130	0x3c6def4b	0.014522384
131	0xbcdab742	-0.026698712
132	0x3c82f345	0.01598514
133	0x3c22502c	0.00990681
134	0xbcc18a85	-0.023625622
135	0x3d748279	0.05969474
136	0xbd4fa819	-0.05069742
137	0x3dcecd40	0.10097742
138	0x3c049079	0.008091086
139	0xbd572180	-0.052522182
140	0xbd5fcd1f	-0.054638978
141	0x3d9d122a	0.0766948
142	0xbd170bb6	-0.036876403
143	0xbcbfe4a2	-0.02342445
144	0x3c012a56	0.007883629
145	0x3d1681f5	0.03674503
146	0x3c2a36d4	0.010389049
147	0x3de4b348	0.11167008
148	0x3d663674	0.056204274
149	0xbd869d40	-0.06572962
150	0x3dc46628	0.09589797
151	0x3d733eb5	0.059385974
152	0xbcc4fb36	-0.024045568
153	0x3d2cb667	0.04216614
154	0x3d943a25	0.07237653
155	0xbc0b4ad9	-0.008501732
156	0x3ca30f38	0.019904718
157	0xbd6b2259	-0.057405803
158	0xbdfb0c10	-0.1225816
159	0xbc9f4385	-0.019441376
160	0x3d314bf7	0.043285336
161	0xbcb9323f	-0.022606967
162	0x3cca3207	0.024682058
163	0x3d88e248	0.06683785
164	0xbcd745c7	-0.02627839
165	0xbcc7b9a0	-0.024380505
166	0x3b1d497e	0.0024000104
167	0xbcbcfdde	-0.023070272
168	0x3d22879e	0.039680116
169	0x3d2d95b9	0.042379115
170	0xbd385441	-0.045002226
171	0xbaf501ea	-0.0018692587
172	0x3d917cbe	0.07103871
173	0x3d33193c	0.043725237
174	0x3b10cde3	0.0022095374
175	0xbbfc74f6	-0.0077043725
176	0xbcfebd53	-0.031096136
177	0xbc57deae	-0.01317565
178	0x3c9abd4c	0.018889092
179	0x3d41107a	0.047134854
180	0x3ce5c5f5	0.028048495
181	0x3d703c09	0.058651004
182	0x3ae053fb	0.0017114872
183	0xbc56620e	-0.0130849015
184	0x3c9bcaff	0.019017695
185	0x3bbbdc72	0.0057330662
186	0xbd036f44	-0.032088533
187	0x3ce17f10	0.027526408
188	0xbc7a6188	-0.015282042
189	0x3c15e77a	0.009149427
190	0x3d5cea6d	0.053934503
191	0x3cd212d8	0.025643751
192	0xbd9e083e	-0.07716416
193	0xbc8a6daf	-0.016898004
194	0x3c7e7440	0.015530646
195	0x3d93b5a4	0.072123796
196	0x3dccf64c	0.10007915
197	0x3c894cc5	0.01676024
198	0xbc4e7aeb	-0.012602548
199	0xbd96a586	-0.0735579
200	0x3d175460	0.0369457
201	0x3c018261	0.00790462
202	0xbd14f8c6	-0.03637006
203	0xbd1c00fa	-0.03808687
204	0xbd1edc23	-0.038784157
205	0xbd6eff41	-0.058348898
206	0xba6c6b60	-0.00090186857
207	0xbd1fb809	-0.03899387
208	0xbded03ac	-0.11572966
209	0xbd265c50	-0.04061538
210	0xbce40590	-0.027834684
211	0x3c81faa4	0.015866585
212	0x3be1b547	0.006888065
213	0x3ceb22c7	0.028703107
214	0x3d852627	0.065014176
215	0xbcfc6dc2	-0.030814055
216	0x3ddd6ec4	0.108121425
217	0xbd2a2a4f	-0.041544255
218	0xbd2cf776	-0.042228185
219	0xbcb6a71b	-0.022296479
220	0x3d9e474e	0.07728444
221	0x3d454de2	0.048169978
222	0xbd839f12	-0.06426825
223	0xbc6b4d81	-0.01436174
224	0xbc977c35	-0.018491844
225	0x3db0d09a	0.086335376
226	0xbc655397	-0.01399698
227	0xbd09dce7	-0.033657935
228	0x3cd13927	0.025539948
229	0xbcf72c75	-0.030172566
230	0xbd149ab0	-0.036280334
231	0x3dc2f649	0.095196314
232	0xbd58f7f4	-0.05297084
233	0xbd9912e1	-0.07474304
234	0x3c3c2d75	0.011485447
235	0x3c05cd1a	0.008166576
236	0x3dae46bd	0.08509586
237	0x3b8f5526	0.004374164
238	0xbd45d2d5	-0.04829677
239	0x3d958cc9	0.07302243
240	0xbcb124a6	-0.02162392
241	0x3cc9dcf6	0.024641495
242	0x3d35a6cc	0.044348523
243	0x3b1760fc	0.0023098579
244	0xbdb56685	-0.08857445
245	0xbbeea1af	-0.007282458
246	0xbd31df47	-0.043425824
247	0xbc425735	-0.011861612
248	0xbc5b2598	-0.013375662
249	0xbcc8d68c	-0.024516366
250	0xbcb8b024	-0.022544928
251	0xbd73c114	-0.059510306
252	0x3d5c4753	0.053778958
253	0xbdbdcf06	-0.09268002
254	0xbd886397	-0.0665962
255	0xbc4bfbb5	-0.012450148

sequential_2/conv2d_3/Conv2D f4 [64, 3, 3, 64]
0	0x3c3f84cf	0.011689379
1	0x3b61254a	0.0034354501
2	0xbd943b35	-0.07237855
3	0x3d02cef4	0.031935647
4	0xbcf20541	-0.02954352
5	0xbd9d6c6a	-0.07686694
6	0x3d6de4ee	0.058079652
7	0xbbc867f4	-0.006115908
8	0x3d4abf2f	0.049498733
9	0xbd74f9bb	-0.059808474
10	0x3d0f751f	0.035023805
11	0xbd8ead33	-0.06966629
12	0xbcd140df	-0.025543628
13	0xbd036546	-0.032079004
14	0xbd6da9ec	-0.05802338
15	0xbd1c5987	-0.038171317
16	0x3d425643	0.047445547
17	0xbd687f7b	-0.0567622
18	0xbda10d89	-0.0786391
19	0xbc8427d4	-0.016132273
20	0x3d089c33	0.03335209
21	0x3cfcf2fc	0.030877583
22	0xbd9ef482	-0.0776148
23	0xbb99d2df	-0.0046943272
24	0x3c58d4bb	0.013234313
25	0xbbeb7774	-0.007185871
26	0xbd72a450	-0.05923873
27	0x3c8d49b8	0.017247066
28	0x3d1eef7b	0.038802605
29	0x3a3f57fc	0.00072991825
30	0xbd2f7aa5	-0.042841572
31	0xbe06f3e3	-0.13178973
32	0xbd747026	-0.059677266
33	0xbd6140ee	-0.054993562
34	0x3b10630b	0.002203169
35	0xbca82fcd	-0.020530606
36	0x3c915170	0.017739028
37	0x3d314a0a	0.0432835
38	0x3d093f32	0.033507533
39	0xbd9843c2	-0.07434799
40	0x3d3aa293	0.0455652
41	0x3c929af2	0.01789615
42	0x3b23829b	0.0024949673
43	0x3d497be1	0.049190406
44	0xbd15f0c3	-0.03660656
45	0x3c986c7b	0.018606415
46	0xbcfb3d63	-0.03066892
47	0x3d05a4dc	0.032627925
48	0xbd740f6c	-0.05958502
49	0x3ca11d5a	0.019667316
50	0x3d46709d	0.04844724
51	0xbc2a321b	-0.010387923
52	0xbd981b52	-0.07427086
53	0x3d126d79	0.035748933
54	0xbbded1ce	-0.006799913
55	0x3c872b4c	0.016500138
56	0x3ca9ac43	0.020712024
57	0x3d54ddc2	0.051969297
58	0xbd63e9f9	-0.055643056
59	0xbdaa4777	-0.08314412
60	0xbc445334	-0.011982728
61	0xbc500527	-0.012696541
62	0xbbcfae62	-0.0063379267
63	0x3ccad406	0.024759304
64	0xbcadaebc	-0.021201484
65	0xbca73e57	-0.020415468
66	0xbb05e4a0	-0.002043046
67	0x3c8d80f8	0.017273411
68	0xbd5520fd	-0.052033413
69	0xbca1dd4d	-0.019758845
70	0x3c250153	0.0100711165
71	0x3d283ad9	0.041071746
72	0xbd51cec4	-0.051222578
73	0x3ce812e7	0.028329326
74	0x3d1cacf8	0.038250893
75	0x3d86c6f0	0.06580913
76	0x3cf15e54	0.029463924
77	0x3d6b97d1	0.05751783
78	0xbd809a59	-0.062794395
79	0x3d20729f	0.03917181
80	0xbc96f457	-0.018427057
81	0xbc062ada	-0.008188928
82	0xbd93d65e	-0.07218622
83	0x3d6edf7f	0.05831861
84	0xbc178872	-0.00924884
85	0x3d3b07a9	0.045661602
86	0xbc7f6100	-0.015587091
87	0x3cd5a718	0.026080653
88	0xbc9936a9	-0.018702822
89	0x3cd3d5d5	0.025858799
90	0xbcfc6a2d	-0.030812347
91	0x3c81f2db	0.015862873
92	0xbdaae61f	-0.08344673
93	0x3c79d301	0.015248061
94	0x3d088af5	0.033335645
95	0xbdac4b30	-0.084127784
96	0xbd24e207	-0.04025462
97	0xbda00b21	-0.07814623
98	0x3d741cee	0.059597902
99	0x3c6ea9ab	0.014566819
100	0x3d8c6e2b	0.0685695
101	0xbc892f06	-0.016746055
102	0x3c427766	0.011869287
103	0x3d36bfa2	0.04461635
104	0xbca17150	-0.019707352
105	0xbd315de2	-0.043302424
106	0xbc10d6fb	-0.008840318
107	0xbc04e46f	-0.008111103
108	0xbd435bce	-0.047694974
109	0xbd0e3355	-0.034716923
110	0xbcb9996c	-0.022656165
111	0xbd5ea983	-0.054360878
112	0xbc89e027	-0.016830517
113	0x3c88a76b	0.016681394
114	0xbd2c7ff7	-0.042114224
115	0xbd856045	-0.065125026
116	0xbda8d30e	-0.082433805
117	0x3d5817ac	0.05275695
118	0xbd1f1fb0	-0.03884858
119	0x3d9d70f9	0.076875634
120	0xbce1adcf	-0.027548699
121	0x3d34e612	0.044164725
122	0x3cd3c51a	0.025850821
123	0x3c7bec65	0.015376185
124	0xbdbfd939	-0.09367604
125	0xbd128039	-0.035766814
126	0xbd4a671b	-0.049414735
127	0x3ca92cf0	0.02065131
128	0xbd1f5de7	-0.03890791
129	0xbd36f8fb	-0.04467104
130	0xbc1080f3	-0.008819806
131	0xbc412518	-0.011788629
132	0x3d87076f	0.06593215
133	0x3c76c3f7	0.01506137
134	0xbc21de40	-0.009879649
135	0xbc7efc9a	-0.015563155
136	0xbbb09f26	-0.0053900657
137	0x3c4ebf41	0.012618841
138	0xbae2e236	-0.0017309848
139	0x3d89ec12	0.0673448
140	0xbc604f7f	-0.013690828
141	0xbd498edd	-0.04920851
142	0xbc3bd205	-0.011463647
143	0x3d39fa50	0.045404732
144	0xbd9c23d3	-0.076240204
145	0x3d40cc2c	0.047069713
146	0x3b474019	0.0030403195
147	0x3c28a683	0.010293606
148	0xbb815466	-0.0039468287
149	0xbcd6819c	-0.02618485
150	0x3c57344b	0.013135026
151	0x3bf9a784	0.0076188464
152	0x3cf93df8	0.030425057
153	0x3d8b2bf7	0.06795495
154	0xbd6a8bef	-0.057262357
155	0xbd081692	-0.03322465
156	0xbda65af8	-0.0812282
157	0xbd5029e1	-0.05082119
158	0xbc5a594d	-0.013326955
159	0xbc974877	-0.018467171
160	0x3cd65ebe	0.026168223
161	0xbd85372e	-0.06504665
162	0x3cc44413	0.023958242
163	0x3c21765a	0.009854877
164	0x3cb4e1fe	0.022080418
165	0xbd52732e	-0.051379375
166	0x3d54b69d	0.051931966
167	0x3d15c461	0.036564235
168	0x3bd3cf58	0.0064639263
169	0xbd27a53a	-0.040929057
170	0x3d64f510	0.055897772
171	0xbb87a062	-0.004138992
172	0xb9752910	-0.00023380318
173	0xbda42cdb	-0.08016368
174	0xbc456217	-0.012047312
175	0x3ca57c36	0.02020083
176	0x3d39fc01	0.045406345
177	0xbd8b58c1	-0.06804038
178	0xbcf2a75f	-0.029620824
179	0xbc8210ac	-0.01587709
180	0xbcb57141	-0.02214873
181	0x3d12b2ac	0.035814926
182	0xbd88a16f	-0.06671416
183	0x3c5b854a	0.013398478
184	0xbb04056b	-0.002014483
185	0x3c0ba06d	0.008522135
186	0xbd6c48b8	-0.057686538
187	0x3d2b8554	0.0418752
188	0xbdade731	-0.08491362
189	0xbd3cfedc	-0.04614149
190	0xbd80da66	-0.06291656
191	0xbd7ffc41	-0.062496427
192	0xbd3f602a	-0.04672257
193	0x3d00f7aa	0.03148619
194	0xbc886fb4	-0.016654827
195	0x3d45d9de	0.048303477
196	0x3d85dc6a	0.06536181
197	0xbd006d9d	-0.031354535
198	0xbd12ad36	-0.035809718
199	0xbd455928	-0.04818073
200	0x3d78f6b8	0.060782164
201	0xbd3975ec	-0.045278475
202	0x3d17e1d4	0.0370806
203	0x3d57f423	0.05272306
204	0xbd4aab69	-0.049479876
205	0xbd0c4969	-0.034249697
206	0x3d4ac381	0.049502853
207	0x3c9990bc	0.018745773
208	0x3bc7c287	0.0060961875
209	0x3c876990	0.016529828
210	0x3d330a00	0.04371071
211	0x3d714fe5	0.058914084
212	0xbd660805	-0.05615999
213	0xbd38a591	-0.04507977
214	0x3d47f3c1	0.048816446
215	0x3ab97705	0.001414985
216	0x3cdf2365	0.027238557
217	0x3cd7f851	0.026363524
218	0x3bbbf895	0.0057364204
219	0xbc98e990	-0.018666059
220	0xbda729a6	-0.08162241
221	0x3d855e75	0.06512157
222	0xbd32cfb8	-0.043655127
223	0xbdb5c8bb	-0.08876177
224	0xbc2305c5	-0.009950106
225	0xbc820bdc	-0.015874796
226	0x3ca8d0ff	0.02060747
227	0x3cc92987	0.024555935
228	0x3d1685f8	0.036748856
229	0xbd1eed7d	-0.038800705
230	0xbc57f25e	-0.013180343
231	0x3d413c63	0.04717673
232	0x3d768e4e	0.060194306
233	0x3ca666b1	0.020312639
234	0x3caf0868	0.021366313
235	0xbd9d1d63	-0.07671621
236	0x3d8cc7b1	0.068740256
237	0xbd006786	-0.031348728
238	0xbd553a12	-0.052057333
239	0xbd8a5597	-0.06754606
240	0x3d84c142	0.064821735
241	0x3c845204	0.01615239
242	0x3cd83434	0.02639208
243	0x3d75c38b	0.060000937
244	0xbda28ae6	-0.07936649
245	0xbc99eb5c	-0.018788986
246	0xbcf40c24	-0.029790945
247	0xbd6aa948	-0.057290345
248	0xbd84e219	-0.06488437
249	0xbd6e6fe5	-0.05821218
250	0x3c45dd6b	0.012076716
251	0x3d6a672e	0.057227306
252	0xbd88eea9	-0.06686146
253	0xbca9194d	-0.020641947
254	0xbde04639	-0.10950894
255	0xbc8fdde3	-0.017561859

sequential_2/conv2d_4/Conv2D f4 [64, 3, 3, 64]
0	0xbd742a5c	-0.05961071
1	0xbcb8b4c9	-0.022547143
2	0x3afddab2	0.0019367544
3	0xbd2670d8	-0.04063496
4	0xbdb07459	-0.086159416
5	0xbd41802c	-0.047241375
6	0xbd9a08e3	-0.07521226
7	0xbc0db640	-0.008649409
8	0xbde62c37	-0.11238902
9	0xbd103f9c	-0.035216913
10	0x3d852084	0.065003425
11	0x3a795d1d	0.0009512471
12	0xbd69091e	-0.05689346
13	0x3d0e9dfa	0.034818627
14	0xbc365896	-0.011129519
15	0xbcc42ec0	-0.023948073
16	0x3d507bfc	0.05089949
17	0xbdaafae6	-0.08348636
18	0xbd855751	-0.06510795
19	0x3ca093bd	0.019601697
20	0xbdc1229b	-0.094304286
21	0x3d95ca99	0.07314033
22	0xbdc4011c	-0.09570524
23	0xbd93ce58	-0.07217091
24	0x3c122b04	0.008921389
25	0x3cf45271	0.029824467
26	0xbc3770cb	-0.0111963255
27	0xbc431eca	-0.011909196
28	0x3d73f24d	0.059557248
29	0xbd96107a	-0.073273614
30	0x3c43881a	0.011934305
31	0x3d277406	0.040882133
32	0xbd0bc200	-0.03412056
33	0xbc5a185a	-0.01331147
34	0x3d1e0010	0.03857428
35	0xbd81d034	-0.0633854
36	0x3d57e846	0.052711748
37	0xbcf0da5d	-0.029400999
38	0x3d08e6c5	0.033423204
39	0x3ad737e0	0.001641985
40	0xbd88ae04	-0.06673816
41	0xbc82d59c	-0.015970998
42	0xbd8fe6c3	-0.07026436
43	0xbd071aab	-0.032984417
44	0x3ba370f7	0.0049878317
45	0xbc14e881	-0.009088636
46	0xbd924da3	-0.07143714
47	0xbaeff56a	-0.0018307392
48	0xbbde81de	-0.0067903837
49	0xbc3e8d80	-0.011630416
50	0xbb5f2132	-0.0034046886
51	0xbca0e662	-0.019641105
52	0xbaf49ae7	-0.0018661887
53	0x3d1b8fed	0.037979055
54	0x39f7e782	0.00047283998
55	0x3d0a5adb	0.033778053
56	0x3ce34f12	0.027747665
57	0xbd8a2e45	-0.067471065
58	0x3b03e1f7	0.00201237
59	0x39fc8cee	0.00048170186
60	0x3c32c7e2	0.010911914
61	0xbde2c908	-0.110735
62	0x3d91fa85	0.07127861
63	0xbd3aa15e	-0.045564048
64	0xbc7563c3	-0.014977398
65	0xbda07707	-0.07835203
66	0xbd8e6280	-0.06952381
67	0xbd52ace5	-0.051434416
68	0xbd9a9914	-0.075487286
69	0xbd2b5a75	-0.041834313
70	0xbce98dd0	-0.028510004
71	0xbb5a2e7e	-0.0033291872
72	0xbdbdaff0	-0.09262073
73	0x3d357387	0.04429963
74	0x3d833d58	0.06408185
75	0x3d3b9f29	0.045806084
76	0xbc5538cc	-0.01301403
77	0xbd8eb05d	-0.069672324
78	0x3cebc04f	0.028778223
79	0xbc028abc	-0.007967647
80	0x3d0b52fc	0.034014687
81	0xbd7b9a77	-0.061426606
82	0x3d530eff	0.051527973
83	0x3d4298e4	0.04750909
84	0xbd585f47	-0.05282524
85	0x3d676db3	0.0565011
86	0xbdbda835	-0.092605986
87	0xbd14190e	-0.036156707
88	0x3b823b05	0.003974321
89	0x3cf5ee56	0.030020874
90	0xbb53b9fe	-0.0032306905
91	0x3c950804	0.018192299
92	0xbc505746	-0.01271612
93	0xbd978341	-0.073980816
94	0x3a425ec3	0.00074146333
95	0xbca821a6	-0.020523857
96	0x3d308d8f	0.04310375
97	0xbd0db872	-0.03459973
98	0x3d5d14a4	0.053974763
99	0xbd4aed3c	-0.04954265
100	0x3d9092f8	0.07059282
101	0xbd8d4e75	-0.0689973
102	0x3d08021e	0.033205144
103	0xbd92ab7d	-0.07161615
104	0xbd14a71e	-0.036292188
105	0xbd504562	-0.05084742
106	0xbcdc0665	-0.026858518
107	0x3db2d06f	0.08731162
108	0x3aacc968	0.0013182582
109	0xbd765714	-0.060141638
110	0xbc43385c	-0.011915293
111	0x3bdb7eff	0.0066984887
112	0xbcd0abb0	-0.025472492
113	0xbd508be3	-0.050914656
114	0xbe0b3817	-0.13595615
115	0x3d0c84fe	0.03430652
116	0xbb29638a	-0.0025846683
117	0x3cd6f7ee	0.026241269
118	0xbdc848d3	-0.09779515
119	0x3d02c370	0.031924665
120	0x3d1fec6e	0.039043836
121	0x3d0473a4	0.032336846
122	0xbd394e76	-0.04524084
123	0x3d81867f	0.06324481
124	0xbcac80ff	-0.021057604
125	0x3c853e39	0.016265022
126	0xbb75361b	-0.0037416283
127	0x3c83df6b	0.016097745
128	0xbd70b443	-0.05876566
129	0xbc9d0810	-0.019168884
130	0xbcde3ae5	-0.027127692
131	0x38cf7709	9.892701e-05
132	0xbdc852b9	-0.09781403
133	0xbd857993	-0.06517329
134	0xbd744d1a	-0.059643842
135	0x3d626efe	0.05528163
136	0x3d2276a5	0.03966393
137	0xbd8e6b29	-0.06954033
138	0x3d68e1e6	0.05685606
139	0x3c432c58	0.011912428
140	0xbd122b7a	-0.035685994
141	0x3d4d649c	0.050144777
142	0x3cb904f9	0.022585379
143	0xbc7c8c30	-0.015414283
144	0xbc85dfeb	-0.016342124
145	0xbca433c8	-0.020044222
146	0xbd33e60a	-0.043920554
147	0xbd627205	-0.05528452
148	0xbd812e0d	-0.063076116
149	0x3d1c8035	0.038208205
150	0xbdb588d8	-0.088639915
151	0xbc8a9f79	-0.016921746
152	0xbd0a7ea7	-0.03381219
153	0x3d7200bf	0.059082743
154	0xbcef96aa	-0.029246647
155	0xbc989af7	-0.01862858
156	0xbd60407b	-0.054748993
157	0xbd987604	-0.07444385
158	0xbcd0feab	-0.02551206
159	0x3b90bd80	0.0044171214
160	0xbc94b8a1	-0.018154444
161	0xbd6d8106	-0.057984374
162	0x3c9d897b	0.019230595
163	0x3cb51f4f	0.022109656
164	0xbc3b15e5	-0.011418794
165	0xbdbeb607	-0.09312063
166	0x3b43681f	0.00298167
167	0xbb4d5a53	-0.0031334355
168	0xbd80c32c	-0.06287226
169	0x3d091939	0.03347132
170	0xbcdf57c2	-0.027263526
171	0x3d4261f5	0.0474567
172	0xbd96e02f	-0.073669784
173	0x3d296d15	0.041363794
174	0xbc9f830b	-0.019471666
175	0x3d0818de	0.03322684
176	0x3cf0ed3a	0.029409993
177	0xbc37e6d3	-0.011224466
178	0xbd842677	-0.06452649
179	0x3b4fe24a	0.0031720572
180	0xbdea6018	-0.1144411
181	0xbd2220ac	-0.03958194
182	0x3cf94f3e	0.030433293
183	0xbd6cf064	-0.057846442
184	0xbd506ca9	-0.050884876
185	0xbc9329cc	-0.017964266
186	0xbd176467	-0.036960986
187	0xbd4adb2a	-0.049525417
188	0x3d146d39	0.036236975
189	0x3c569a2a	0.013098279
190	0xbddc07b9	-0.107436605
191	0x3b3b0a0c	0.0028539924
192	0xbd58abd2	-0.052898236
193	0xbc8a4742	-0.016879681
194	0x3d26c4b1	0.040714923
195	0xbd4d2c2b	-0.05009095
196	0xbc4c0bf4	-0.012454022
197	0x3c397b06	0.011320835
198	0x3d2f420f	0.042787608
199	0x3cac8e31	0.021063896
200	0xbd9b7ddb	-0.075923644
201	0x3c37846e	0.011201007
202	0x3d2ad545	0.041707296
203	0x3ca81089	0.020515697
204	0xbd389037	-0.04505941
205	0xbcf98c42	-0.030462388
206	0xbda685ed	-0.08131013
207	0x3d847816	0.06468217
208	0xbd4d010f	-0.050049838
209	0xbd8b5f1a	-0.068052486
210	0x3d53fcc9	0.051754747
211	0xbc46a671	-0.012124644
212	0x3cf00605	0.029299745
213	0xbcb937d2	-0.022609625
214	0xbdbd2858	-0.092362106
215	0x3d424965	0.047433276
216	0xbcbd7009	-0.023124712
217	0x3cff71c8	0.031182185
218	0xbcb3e6ba	-0.021960605
219	0xbd698f5d	-0.057021488
220	0xbcddae0d	-0.027060533
221	0xbd148f8d	-0.036269713
222	0x3ca1f9f6	0.019772511
223	0xbd0daed1	-0.034590546
224	0xbd2b3fa2	-0.04180873
225	0xbd0dbbf2	-0.034603067
226	0xbce54af6	-0.027989846
227	0xbc00a9df	-0.007853
228	0xbd211a91	-0.039331976
229	0xbd486079	-0.04892013
230	0xbc892cf5	-0.01674507
231	0x3d285232	0.041094013
232	0x3c99e81a	0.018787432
233	0xbcde34b9	-0.02712475
234	0xbca032ed	-0.019555533
235	0x3cf1e3cb	0.029527565
236	0xbd7eedb3	-0.062238406
237	0x3c926d9b	0.01787453
238	0xbdd86266	-0.10565643
239	0x3d0a50c8	0.033768445
240	0xbc8572ee	-0.016290154
241	0xbd77ee0a	-0.060529746
242	0x3ca602f6	0.020265084
243	0xbd59254c	-0.053014085
244	0x3d092cdd	0.03349005
245	0xbd05a07f	-0.032623764
246	0x3d78c19b	0.06073151
247	0xbd9fe001	-0.07806397
248	0xbd69417a	-0.05694721
249	0xbd0a4639	-0.033758376
250	0x3c18cd03	0.009326222
251	0xbd230163	-0.039796244
252	0x3bd403e3	0.00647019
253	0x3ccffe65	0.02538986
254	0x3cf6e56d	0.030138696
255	0xbd04e082	-0.03244067
